best_model.pth (torch, 270889 bytes, 5 tensors)

lstm.weight_ih_l0 f4 [512, 1]
00000000: 51a5 ae3e 63dc 7f3e e37c 4d3c c07e ec3d
00000010: f943 48bd b529 75be ee64 eb3d 3525 333d
00000020: ff40 c93d 507e 6abd 9cc4 963e e3cf 1e3e
00000030: 49fe 363e 1acf 563e 83b4 6c3e 4b73 18bc
00000040: 4608 90bb a4d4 75be dae0 d43d 27bf 61bd
00000050: fa5e 453e f6dd 3fbd 7366 093e d463 543e
00000060: fa27 843d 013b 323e 7768 debc 1147 1e3e
00000070: 14a6 aa3e 0fc7 033f 397f 8dbb 1e71 1c3d
00000080: 42f4 343e 5feb 233e 8ea5 fabd 2837 273f
00000090: 7234 c83d 35f2 aa3c 336a 303e 5dc9 1a3e
000000a0: 745f 683e 844a 903c bbd4 df3d 5c4c 22be
000000b0: fddd 513e cc84 b13c 9e89 c3bd cbf3 5239
000000c0: b0f2 3c3e 40a6 f83d 8db6 19bd 9afc 933d
000000d0: 4d92 27be bab7 c8bd 5468 af3c 6369 3b3e
000000e0: 4c6c 7f3e 86e4 9ebe 6202 823e b253 b93d
000000f0: 02f1 973e 4f00 8a3e 8dbc e13d acbd 60bd
00000100: d829 a93d c4a4 173e 7ac6 e73c 8b5d 833d
00000110: 7d26 ae3e 3702 123f 44b2 17bd 99b1 0f3f
00000120: 4eea b5bd 326d 14be 1fa9 1e3d cef4 4e3e
00000130: 7c96 ab3d 6fb6 4b3d 07be 9e3e b33c 573b
00000140: 173d 6ebe 1772 7c3d d309 0f3f 5991 d53d
00000150: 744a 8bbe 3812 7f3e 54c7 973d 8e16 813d
00000160: aa74 a13e cbf8 bfbd 78c6 ec3e 63ef 8ebe
00000170: 761a 133e 1216 5d3e b209 233d f653 433e
00000180: d77b 743d 9101 053e faf2 3e3e a4af 423d
00000190: 11a7 4f3c 88ca 293e 5685 593c 5501 f93c
000001a0: 4867 c43d a1d8 c33d 56db ff3e 5141 6a3e
000001b0: 4c14 963d 27b0 bf3e 5926 eb3d 1b60 453d
000001c0: 46b5 86be 8bc4 593e 0695 e8bd cb6d 7d3e
000001d0: d43c 6b3c c51f 9a3e 9f5e ef3d fa1c 353e
000001e0: 4554 3c3f 8601 6c3e bf5d d53d 1265 c4bd
000001f0: 7dfc 153e daaf 6bbd 4021 ee3c c7fc f4bd
00000200: 65a9 81bd 6c9e 9fbd a37c 40be 7966 ccba
00000210: 31f5 abbd 1054 06bf 70c5 9cbd 4994 8b3c
00000220: efd6 bfbd c336 37bd 75cc 093d d19c eb3d
00000230: 4b9e 453d e55f 1b3e 220b 22be 2dbf 05be
00000240: 4c9f 0c3d 2543 78be 9dca f3bd 84de b4bd
00000250: d4d0 bfbd 0da9 a6be f761 be3d 50d3 d93d
00000260: 92f3 76be 32a4 2ebe d72e 57bd b765 0e3d
00000270: 46f6 d6bd 1bec e9bd b1e8 7f3c 1ffe f33b
00000280: f0e6 12bc ed0e b23d e8ef d9bc 7cb1 bf3d
00000290: e349 b33c d50a fcbc 1948 3fbd 5a18 fbbd
000002a0: 8d92 a2bd 121f 643d c396 0b3e 2849 33be
000002b0: 50c2 54be b4a4 32be 14b7 0abe e2f5 25be
000002c0: 94b1 15be b170 723d 2f1f 9bbc 72e2 b33d
000002d0: eea4 c0be 0b34 26be 74ba cfbe d075 c53d
000002e0: 5685 6c3d 185e b9be deb5 ecbd 16cf 2c3e
000002f0: 6cbe 12be c6b4 44be e9bf b2ba 490d 903d
00000300: 28f1 25bd 455e 2e3d bd76 d63d d7f4 8e3d
00000310: 67d7 593d fa5e 8a3d fbcd 0ebd 7d5b f93c
00000320: 4241 3fbe e2a1 4ebe af2d aabc 54f3 4a3e
00000330: eb06 de3c 5c37 0f3d 2f8c bbbc 4d9c 76bd
00000340: ab5b 1ebe a941 813d 7dcb 8ebd 7974 353c
00000350: 10f0 0fbe 1da6 b93d a365 3abd 6216 78bd
00000360: c816 76be dfa8 2dbe c90b 46be 5a2f c2bd
00000370: 3f07 ca3d 0084 4fbe 3120 afbe eba8 eabd
00000380: b376 0d3d 17fe d3bd 7571 a03d 7665 6dbd
00000390: 786f 98bd b430 aebe d7a7 bb3d eb19 383d
000003a0: e406 3ebe 5503 293d bd26 603c ba89 4dbd
000003b0: 7097 433b f7ed 77bd d2a9 97bc 5d15 78b9
000003c0: 4205 fdbe 71c4 da3d 82fe f0be f881 ed3d
000003d0: b3c9 b63c 0f6d 683e 8c77 b2bc a2c1 31be
000003e0: a84f 4ebd 0517 103e 3f27 123a b524 7bbe
000003f0: de16 ee3c 15d7 6cbd fcda c9bd 950e 09be
0.341105 0.24986415 0.012541982 0.11547613 -0.04889295 -0.23941691 0.1149386 0.043736655
0.0982685 -0.057249367 0.29446876 0.1550899 0.1787044 0.2097744 0.23115735 -0.009304832
-0.0043955175 -0.24006897 0.103944495 -0.055113938 0.19274512 -0.046842538 0.13417988 0.20741206
0.064529374 0.1740532 -0.027149422 0.15456797 0.33329833 0.51475614 -0.0043181446 0.038193814
0.17671302 0.16007756 -0.12238608 0.65318537 0.09775628 0.020867446 0.17228012 0.15115876
0.22692662 0.017613657 0.10929247 -0.15849441 0.20494838 0.021669768 -0.09547733 0.0002011798
0.18451953 0.12141085 -0.03752761 0.07225914 -0.16364403 -0.09800668 0.021412052 0.1830192
0.24943656 -0.31033725 0.25392443 0.09049167 0.29676062 0.2695336 0.11022291 -0.054868385
0.08259934 0.14808947 0.028292883 0.06414326 0.3401374 0.5703463 -0.03703524 0.5613037
-0.08882581 -0.1449478 0.038735505 0.20210573 0.08378312 0.04973453 0.31004354 0.0032842576
-0.23265491 0.061632242 0.55874366 0.104281135 -0.2720524 0.24909294 0.07411066 0.0630313
0.3153432 -0.09373625 0.4624517 -0.27917013 0.14365563 0.2159045 0.039804168 0.19074997
0.059688415 0.12988879 0.18647376 0.047530785 0.012674109 0.16581166 0.013276419 0.030396143
0.09590012 0.09562803 0.49972028 0.22876479 0.0732809 0.3743908 0.114819236 0.048187356
-0.26310176 0.21266381 -0.11356549 0.24748914 0.014357764 0.30102363 0.116879694 0.17686835
0.73566085 0.23047456 0.10418271 -0.0958959 0.14647098 -0.057540752 0.02906859 -0.11962276
-0.063311376 -0.077938884 -0.18797545 -0.0015594504 -0.08396376 -0.5247202 -0.07654846 0.017038481
-0.09367167 -0.04472996 0.03364225 0.1150452 0.048246663 0.151733 -0.1582456 -0.13061209
0.034331605 -0.24244364 -0.1190388 -0.08831504 -0.09366003 -0.3255085 0.09296029 0.10636008
-0.24116352 -0.17054823 -0.052534904 0.03476497 -0.10496192 -0.11421987 0.015619443 0.007446065
-0.008966193 0.08694253 -0.026603654 0.09360024 0.021885818 -0.030766884 -0.046699617 -0.12260504
-0.079381086 0.055693693 0.1363173 -0.17508376 -0.2077725 -0.17445642 -0.13546401 -0.16207078
-0.14618522 0.059189502 -0.018935768 0.087834254 -0.3762583 -0.1623079 -0.4057194 0.096416116
0.057744347 -0.362046 -0.11558126 0.16875872 -0.14330453 -0.19209585 -0.0013637516 0.07033784
-0.040513188 0.04257037 0.10471866 0.06980293 0.05318394 0.067563966 -0.034864407 0.030439133
-0.18677238 -0.20178941 -0.020773737 0.19819385 0.027102908 0.034964904 -0.022893993 -0.060207654
-0.15464656 0.06311352 -0.06972406 0.0110751325 -0.1405642 0.09064887 -0.045507085 -0.06056822
-0.24032128 -0.1695895 -0.19340433 -0.09481688 0.09864663 -0.20265198 -0.34204248 -0.11458
0.03453703 -0.10351198 0.0783414 -0.05795809 -0.07443136 -0.34021533 0.09162872 0.044946592
-0.18557316 0.041262943 0.013681111 -0.050180174 0.0029844902 -0.060529675 -0.018513594 -0.00023659081
-0.49418074 0.106819995 -0.47069174 0.11597055 0.022312975 0.22697853 -0.02178552 -0.17359021
-0.050368935 0.14071281 0.0005575306 -0.24525721 0.029063638 -0.057822306 -0.09856221 -0.13384469

lstm.weight_hh_l0 f4 [512, 128]
00000000: 6483 4a3d 7e71 44bd bac3 663e 1c38 58bd
00000010: 742e 49bd 386b 94bc 48d8 2e3d 08a9 a43b
00000020: 6512 983c 8d28 fc3d f7d6 b33d c37b 1cbc
00000030: 3942 983c b3a2 783e 6ede 97bd c926 54bc
00000040: 9193 653d dd37 ea3d 5936 dbbd f891 fe3d
00000050: 7836 543d 0c12 4fbd 4614 9dbd 035f 04be
00000060: d0c0 1f3e e44e 0abd a674 cb3c e56d 1b3e
00000070: 4991 aebd 3813 f9bb 9d45 f1bc 0d5f cdbc
00000080: 1705 a73c 72c5 9e3d f0ec 03bd 678e 57bd
00000090: 0411 bcbd d3d4 a83d f09c f33c 68f7 0abc
000000a0: bc90 283d 9e64 1abe 0ea3 093e 14cd 203e
000000b0: fe05 e1b9 bcae c63d 8aaf 6e3d 02d6 563d
000000c0: ce86 6cbd 2c3e 003d a039 ca3d d1f0 923c
000000d0: ffd9 a33d 9375 8bbd 40fe 763d f8e5 8c3e
000000e0: ad13 8d3c 3e34 dc3d 9abf e7bc ec03 953d
000000f0: 1390 5b3a fcbe 913d b42e e0bd 1d25 4bbd
00000100: a785 edbc 6377 0cbd e031 debd 74d0 7e3d
00000110: 38f4 3d3e 1a45 99bc 1bdf 86bd 63fe 12be
00000120: 694e 0c3e 4f58 e3bd cae0 c7bd d6fe 7abe
00000130: afa7 febd d4e2 98be b5ce 3fbe 4623 efbd
00000140: e27c 87bd c180 98bd eea4 babd 3b6c b43d
00000150: 397c a43d 1051 49bd 69ee 5a3d 5ff0 b4bb
00000160: 57bf 343c d221 ef3d d349 3abd 5d19 e1be
00000170: 1e84 75bd 37f9 ad3c e28e 14bd cf58 fcbc
00000180: df43 84bd 86cd 8ebd c8b0 243e 83b9 563d
00000190: f7e2 933d f69d 31bd 7968 133d b518 883b
000001a0: 79a1 a93c c79b ecbb f024 3e3e cac1 b4bd
000001b0: 7d8b 63bd 34c8 913e ee72 f6bd 39a4 ed3c
000001c0: 39df d7bd 4063 793d c68c 5cbe 7378 fbbc
000001d0: ee12 0f3d ca5f 86bd 9e37 04be 44ed e3bc
000001e0: 6464 68be 7012 6bbd d41b ccbd 5b68 89be
000001f0: d784 78bd 5235 043d 7006 353d b3c8 c2bc
00000200: 625e 99bd 3596 b1bd b378 1c3e f11e 1c3e
00000210: 9633 5a3e d78d aa3c 8c75 8d3e 3af3 7dbd
00000220: 17cb 44be 0db9 fc3d b507 0bbd 76b8 e83d
00000230: f0de 2abd e807 ee3d 2b59 333e 2dbf 11be
00000240: 7e52 26bc 62e5 023e 9277 dbbd fdaf c93d
00000250: 52f9 02bd 8633 b83c 2692 debc 2769 323e
00000260: 8187 d33a 49c3 373b 009f e53d 227e 53bd
00000270: 0c3d b1bc 08f8 5fbd 5f45 94bc 22c8 ffbd
00000280: b50b 09bd c40a b7bd 4174 07be 73f9 eebd
00000290: db24 cdbd 8c93 f33d 9d18 353d deb0 4b3c
000002a0: 30bc cabc 94a9 55be d401 643d e158 babb
000002b0: 695c d8bc 1544 023d 15a1 283e ebd7 de3d
000002c0: c6f6 e7bd 9398 823c f694 c73d bb7f 13be
000002d0: b45a 703c 8f0d 8dbd f050 063d 1da7 8f3e
000002e0: db18 4c3d 609a b13d d4d8 253e bfb2 c4bd
000002f0: 79ac 0bbd f3c5 46bc 0b8e b23b c47e 1abc
00000300: 73a3 323b 7520 a23c e868 ee3d 677a d73c
00000310: d05d 693e 42bf 3a3e bda3 1f3d fbcd b33d
00000320: 6edd 213d 43f1 47bd 931b ddbb 9c1d 53be
00000330: 49ac 1d3c 507f 5cbe 2906 983d 3d07 13bd
00000340: e185 52be 9381 0b3d f673 a13d 778e 6f3d
00000350: 7c94 2b3d 798e 2d3e e95e 21be 68bf 58ba
00000360: a81e 833d e963 673e 9a2c 23bd 95e2 39be
00000370: 6c69 b23d 47a8 a4bd fece 503c c558 4abb
00000380: 6517 16be 7949 10be 1142 a53d 54ff 11be
00000390: 4607 823d 5de5 08bd 5bd9 14be 9aec cd3d
000003a0: 88ae 47bc 3342 d9bd 365a babd 022a f2bd
000003b0: 7505 3cbd 5304 863e d7c6 01be 4797 2b3e
000003c0: 33b4 03be 68e3 98bd 0308 7dbd 534b cf3d
000003d0: 011a 673d ee8b c6bd db83 d1bc 3a36 873d
000003e0: 8864 5bbd 8c4f e2bd 5464 d03d 375d ccbd
000003f0: cb74 e33d 136f 7c3d 6b2c dc3d 5f97 0cbe
0.04944171 -0.047959797 0.22535601 -0.052787885 -0.049116567 -0.018117532 0.04268673 0.005025033
0.018563459 0.12312422 0.08781236 -0.0095509915 0.018586265 0.24280815 -0.07415472 -0.0129487
0.056048933 0.11436436 -0.10703725 0.12430185 0.051809758 -0.05055432 -0.076698825 -0.12926869
0.15600896 -0.033766642 0.024835896 0.1517864 -0.08523805 -0.007601168 -0.02945214 -0.025069738
0.02038817 0.077525035 -0.032208383 -0.05262604 -0.09182933 0.08243718 0.02973792 -0.008481838
0.041153654 -0.15077445 0.13441107 0.15703231 -0.0004291981 0.09701297 0.058272876 0.052450188
-0.057745747 0.03130929 0.09874272 0.017937096 0.08000564 -0.06809535 0.060301065 0.27519202
0.017221296 0.10752152 -0.028289605 0.07276139 0.0008375656 0.071165055 -0.10946408 -0.04959594
-0.028994394 -0.034293544 -0.10849357 0.062210515 0.18550193 -0.018709708 -0.06585523 -0.14354853
0.13701786 -0.11100828 -0.09759672 -0.24511275 -0.12434327 -0.29860556 -0.18731196 -0.1167665
-0.066156164 -0.07446433 -0.09113489 0.08809706 0.08031506 -0.049149573 0.053450022 -0.0055218185
0.011031947 0.116763726 -0.04548056 -0.43964663 -0.05994045 0.021236999 -0.036269076 -0.030804066
-0.06458258 -0.06972794 0.16083062 0.05242301 0.072210245 -0.043363534 0.035988305 0.004153336
0.020706879 -0.0072207185 0.18568778 -0.08826025 -0.05555295 0.28473055 -0.1203364 0.029008972
-0.10540623 0.060885668 -0.21538076 -0.030697083 0.034930162 -0.06561239 -0.12911841 -0.027823098
-0.22694546 -0.05739063 -0.09966245 -0.2683743 -0.06067356 0.032277413 0.044195592 -0.023777341
-0.07488705 -0.08671228 0.15280418 0.15246178 0.21308741 0.020819588 0.27628744 -0.061999537
-0.19218098 0.12339983 -0.033942897 0.11363308 -0.041716516 0.11622602 0.17514484 -0.14233084
-0.010151504 0.12782815 -0.107161656 0.0984802 -0.03197605 0.022485506 -0.027169298 0.17422925
0.0016138406 0.0028039983 0.112119675 -0.05163396 -0.021635555 -0.0546799 -0.018099485 -0.12489344
-0.03345843 -0.089376 -0.13227941 -0.116686724 -0.10016795 0.11893377 0.044212926 0.012432305
-0.024747938 -0.2086547 0.055665806 -0.0056868647 -0.026411252 0.03180321 0.16467698 0.10881027
-0.11326365 0.015941894 0.09745209 -0.14404194 0.014670063 -0.06887352 0.03279203 0.28057185
0.04982839 0.08672023 0.16195995 -0.096044056 -0.03410003 -0.012132156 0.0054490617 -0.009429637
0.0027258068 0.019790867 0.11641103 0.026303483 0.22789693 0.18237022 0.038974512 0.08779522
0.039517812 -0.04881407 -0.006747672 -0.20616764 0.0096235955 -0.21532941 0.0742305 -0.035895575
-0.20558883 0.03405912 0.07883446 0.058485474 0.041889653 0.1694888 -0.15758862 -0.0008268268
0.064023316 0.22596706 -0.039837457 -0.1815284 0.08711514 -0.08039909 0.012744663 -0.0030875665
-0.14657362 -0.14090528 0.08069242 -0.14257556 0.063490435 -0.033421863 -0.1453604 0.10054894
-0.012187608 -0.106083296 -0.090992376 -0.118244186 -0.04590364 0.26175174 -0.12673508 0.16756926
-0.1286171 -0.07465249 -0.06177522 0.10121789 0.056421284 -0.09694658 -0.025575569 0.0660214
-0.05356267 -0.110503286 0.10175386 -0.09978717 0.11106261 0.061629366 0.107506596 -0.13729618

lstm.bias_ih_l0 f4 [512]
00000000: 8997 8cbe 148e 77be 6d6b 0abe d560 0fbe
00000010: dc1d 93bd 504c 903e beaf 07bd 8010 b9bd
00000020: 7b1d 30be 82f5 87bd 0b17 9fbe 623f 34be
00000030: 1b7d babd f9c8 cabd 7b8b acbe 2cc6 733d
00000040: 3c55 cabd 79eb 0fbd 6bb6 90bd e189 613b
00000050: be97 4abe ad63 0e3d 2a5b 3ebd b7f6 a1be
00000060: 11f5 453e e36d bdbd b4d3 3cbd 64bd 99be
00000070: e334 e6bd d4ea 98be 1fa4 84bc 0586 1cbe
00000080: 7cc5 35be 061b a5bd a7e2 bebd ddf4 8dbe
00000090: 2fc9 25bd 2151 72bc 7167 eebd d70e d4bd
000000a0: 1f34 61bd cac0 c4bd 75e1 b5be a1d0 7d3e
000000b0: 2763 6bbe 6820 cfbd 6fd9 5cbd 6676 3cbe
000000c0: 9ba8 54be f8f8 50bd 41dc 87bd 0c35 70be
000000d0: d6b1 3f3e 2b7d 10be c087 953d 6b2f 9fbd
000000e0: 3da1 4bbe 2d63 b0bc 27ee 05be 8ed5 03be
000000f0: a120 41be 7fc5 c6bd 3c8c 3dbe a947 09be
00000100: 9ee7 b7bd b315 f9bd 08fb f6bd 69d8 3fbe
00000110: cd81 8bbe 99c7 0dbe dad6 edbd 166e d3bd
00000120: c2d8 043e 4cd1 be3b 6fe9 d3bd c15f 033d
00000130: dc4f 3fbe ac15 0ebe 683a ebbd f171 62be
00000140: bfce db3d bb4f 0dbe d3d1 2fbe c312 0bbe
00000150: faa3 e5bc 6762 74be 7e87 48be 15b5 37be
00000160: 71d9 14be 5a94 1ebd c4fa a5be 0fc0 123e
00000170: c6ac 11be 8a3a 2ebe 61bc 1f3e 3655 94bd
00000180: 45d5 ebbd 2fcc 41be f03c c13b 47df ddbd
00000190: 0a15 54be e3e0 72be cc18 4ebd 80d7 c6bd
000001a0: 20d6 0dbe a4fd 92bd cc32 41be aecf 23be
000001b0: 33b2 3fbe 7ba7 8fbe 3ca4 aabd 0bb5 0bbe
000001c0: a12b 10bd 63d1 0bbe 2077 d23c 8677 0bbd
000001d0: 7589 ebbd 475f 1cbe eda7 3ebe 3058 cabd
000001e0: 3959 54be e31f 9fbd 7b9b 50bd b1ca 06be
000001f0: fbc0 59be 2d32 e33b f06f 16be e0df 153d
00000200: 57c5 1d3d 4abe d2bd 7dcf 08be 0413 4fbd
00000210: 29dd 15bc aa72 3dbe f8b8 8abd bd0b 7bbd
00000220: 6240 993c 620c cabd 8309 5ebe ff92 4bbd
00000230: 2b19 8dbd 0f70 37be dffe cfbd 9754 00bc
00000240: 75d4 e7bd d5a1 80be 15e2 c8bd 616f 12be
00000250: cf96 393d 8262 a7bd baab 44be 8137 2bbe
00000260: ff04 bbbc 26ad 2dbd 766f f9bc 753c d7bd
00000270: 5dda d9bc ba00 cabd 1ff4 0d3c 5277 d2bd
00000280: b1df 08bd e3c3 a7bd 53bb 9dbd ef54 27be
00000290: d4f1 94bd ff76 c2bd 6280 debc 90d3 663c
000002a0: aeed 53bc 1345 a0bd c093 3fbe 5243 e3bd
000002b0: 6a73 8e3d d921 dcbd 2d99 58be 8a44 14be
000002c0: f9bd bd3d d0fb 493d 8f3c b3bd 9486 19be
000002d0: 7f8d cbbd 5c4c 65bc 8f30 13be fece 30bd
000002e0: d26d 3cbc 8b32 12be e91e 7c3d cecd 25be
000002f0: c371 7e3d ae34 8ebc 71e8 24bd d4f5 08bc
00000300: a4eb 19bd 55ff e9bd f476 66bd 992d 62be
00000310: ca09 d7bd 3ef6 d7bd b3d3 3cbd 538d 4abd
00000320: d66c 3fbd 4271 73bc a075 c9bd 3446 51bd
00000330: 9a67 a7bd a4c7 2bbe 149c a6bd f59b a0bd
00000340: e342 07be 6cef 65bd d6cd f2bd 0c4d 9b3b
00000350: 4456 93bd fef1 aabd b407 82bd f617 83bd
00000360: 1735 b33d 064e 9cbd aaa9 edbb 8e36 c5be
00000370: 39cc d4bd 78ea 593d 9ddb aabd 0c00 b9bd
00000380: 6d4c 313c 6caa 693d 3d68 7abe ed83 c63c
00000390: b303 41be f4a4 6cbd b682 e5bb f1e7 883c
000003a0: 9ad3 41be aea8 613d 3e07 27bd ba9e b2bc
000003b0: 1e31 0ebd f0d1 4abe 131c 87bc e5bd 573d
000003c0: fffa 23be 5f96 74bd 3b16 8fbc a197 87bd
000003d0: a83e 48bc 3f1e 23bc 4257 75bc 2001 a73d
000003e0: 9adc 46be 5cd6 b6bd 6555 243c 9784 a8bd
000003f0: a648 d6bd 54d9 a5bd 0863 1cbd 757f babd
-0.27459362 -0.24175292 -0.13517542 -0.14001782 -0.071834296 0.28183222 -0.033126585 -0.0903635
-0.17198746 -0.06638624 -0.31072268 -0.17602304 -0.09105893 -0.09901614 -0.33700165 0.059515163
-0.098795384 -0.035136674 -0.070660435 0.0034414458 -0.19784448 0.034763027 -0.04647366 -0.3163354
0.19331767 -0.09249475 -0.046100333 -0.30027306 -0.11240556 -0.2986666 -0.01619154 -0.152855
-0.17751116 -0.08061795 -0.09320574 -0.27725878 -0.040475067 -0.01478985 -0.11640824 -0.10354393
-0.054981347 -0.09607084 -0.35523573 0.24786617 -0.22987042 -0.10113603 -0.0539183 -0.1840454
-0.20767443 -0.051018685 -0.06633807 -0.23457736 0.18720183 -0.14110248 0.07301283 -0.07772716
-0.19885726 -0.021531666 -0.13079129 -0.12874433 -0.18860103 -0.09705638 -0.18510526 -0.13406242
-0.08979724 -0.12162342 -0.12059599 -0.18734898 -0.27247468 -0.13845672 -0.11613245 -0.103237316
0.12973312 0.00582329 -0.10347258 0.03207374 -0.18682808 -0.13875455 -0.114857495 -0.22113778
0.10732793 -0.13799946 -0.17169885 -0.13581376 -0.028032292 -0.23865663 -0.19582936 -0.17940171
-0.14536072 -0.038715698 -0.3241788 0.14331077 -0.14226064 -0.17014518 0.15599205 -0.07242815
-0.11515287 -0.18925546 0.005897157 -0.108336024 -0.20711151 -0.237186 -0.050316617 -0.09709072
-0.13851213 -0.07177284 -0.18867034 -0.15997192 -0.18720321 -0.28057465 -0.083321065 -0.13643281
-0.035197858 -0.13654093 0.025691569 -0.034049533 -0.11500827 -0.1527072 -0.18618746 -0.09880102
-0.2073716 -0.07769754 -0.050929528 -0.13163258 -0.21265022 0.0069334717 -0.14691138 0.036590457
0.038518276 -0.10290201 -0.133604 -0.050555244 -0.009146967 -0.18500772 -0.06773561 -0.06129049
0.018707458 -0.09865643 -0.21683316 -0.049700733 -0.06889566 -0.1791384 -0.10156035 -0.007832668
-0.1131982 -0.25123468 -0.09808747 -0.143003 0.045309838 -0.08173086 -0.19206133 -0.16720392
-0.02282953 -0.042401455 -0.030448657 -0.10509578 -0.026593382 -0.0986342 0.00866416 -0.10276665
-0.033416454 -0.08191659 -0.07701745 -0.16340993 -0.072726876 -0.09495353 -0.027160827 0.014088526
-0.012935085 -0.07825675 -0.18708706 -0.11096825 0.06955607 -0.107486434 -0.21152182 -0.1447927
0.0926475 0.049312413 -0.08751785 -0.14992744 -0.099390976 -0.013995256 -0.14373992 -0.043166153
-0.011500793 -0.14277093 0.061552916 -0.1619179 0.06212021 -0.017359104 -0.040260736 -0.008359391
-0.03757824 -0.11425654 -0.056265786 -0.22087707 -0.10499914 -0.10545014 -0.04610033 -0.049451184
-0.046734653 -0.014858546 -0.09836888 -0.05109234 -0.08174057 -0.16775376 -0.08135238 -0.078422464
-0.13209109 -0.056136534 -0.11855666 0.0047394093 -0.07194188 -0.083469376 -0.063491255 -0.064010546
0.087503605 -0.07632069 -0.0072528915 -0.38518184 -0.10390515 0.053202122 -0.08342669 -0.09033212
0.010821444 0.057047293 -0.24453826 0.024232829 -0.18849067 -0.0577745 -0.0070041073 0.01671216
-0.18928376 0.055092506 -0.04077839 -0.021804202 -0.03471481 -0.19806647 -0.016492879 0.052671332
-0.16013716 -0.059713718 -0.017466655 -0.06620718 -0.01222197 -0.009955942 -0.014974417 0.081545115
-0.1942009 -0.089276046 0.010030125 -0.082284145 -0.10463075 -0.08098093 -0.03818038 -0.09106342

lstm.bias_hh_l0 f4 [512]
00000000: 6165 7fbe 2194 acbe 4da9 02be f475 63be
00000010: 12ae 2fbe da81 a23e 731d 9c3c cbe7 09be
00000020: 3ef7 debc ac70 05be 147c 91be 94af 25be
00000030: 3ffa abbd 411d 59bd ac28 8fbe 33df d93c
00000040: d321 0ebe 5216 14bd a582 51be 0db2 c4b9
00000050: 5f52 1ebe b635 3e3e 1bbd 1cbe a344 65be
00000060: 9c21 0d3e 673e 4dbe 441e 18bd 6392 97be
00000070: 60b0 50bd 0462 23be 6c66 0bbc 7303 a9bd
00000080: fe9b f6bd 95cd 18be 16f5 47bc 385c c4be
00000090: 2a2b c3bc de7f 31be 94a0 f2bd b07f 3fbe
000000a0: 1013 01be eccc 7dbd 095f 8bbe 60f9 5d3e
000000b0: dc83 80be 48ba bbbd e539 58bc 1123 5ebe
000000c0: da79 f2bd d2fa 13be 5575 b3bc 813b 81be
000000d0: 8c0e d03d 4f59 a4bd 3484 fa3d bf5f f6bd
000000e0: 2f4c 0cbe f13a 333d d1e6 66be 17cd 8fbd
000000f0: f014 48bd f490 d7bd 979e 0abe 0321 21be
00000100: 49e3 f2bd baab fabd 502e ecbd 6c80 8cbd
00000110: 25ec 4dbe 2a6d 06be e68e 27be ec60 87be
00000120: 7b48 5e3d 1a7f b3bd 1583 833c 34f2 fdbd
00000130: ed63 72be 9447 9ebd e5f4 79be 2afc 2abe
00000140: a7f2 283d e738 4fbe da31 64be bfc0 83bd
00000150: b974 32be cc32 81be 99a1 06be 1824 b0bd
00000160: b7d3 05be 08a7 7dbd 6574 50be 129e d73d
00000170: af7e 82bd 5237 16be 6888 843d e038 0cbe
00000180: 8c35 d1bd 2ca7 93bd cb1c 81ba ba3b 47bd
00000190: e5c5 2abe 8349 1dbe 9820 77bd af39 f5bd
000001a0: 8ecc 43be b63f 5ebe c6ec 2dbe 782e 39be
000001b0: b12e 30be fe3e 6ebe 8320 98bd 4672 d0bd
000001c0: 3508 843d d8f7 7bbe 20d2 da3d 7880 00be
000001d0: 7d03 a7bc 8640 9dbd dbb7 0cbd 0e0b d4bd
000001e0: 102d 34be cf23 afbd dda0 61bc 4a5e 90bd
000001f0: af82 21be 8cb4 3fbd 5176 5fbc 3186 cabd
00000200: 7f02 24bd 74ad 12be 74bb 4bbe 7400 21bd
00000210: 1d28 8bbc 75c9 0fbe 39a9 a4bd 42ce e1bd
00000220: 9669 273d 2e6d d1bd 402a 50be 1ddc 8dbd
00000230: eb93 56bd e3ef 03be cf6b ca3b 0fa5 e0bd
00000240: 95fd 863c 9ea7 1abe defd afbd b59e 97bd
00000250: 588b b93d 3b05 243d 3211 2bbe d2ae 1fbe
00000260: f2b4 88bb 81c0 69bc 11c1 87bd 8b1f dcbd
00000270: b461 ea3d 2d4e a9bb a02d 09be f082 f0bd
00000280: e5d2 d8bd 0498 1ebe 3137 fbbd 034e 3cbe
00000290: 2089 333b 0991 973c b2f4 853d 4539 0e3d
000002a0: 52b9 22bd cc1d 813d e332 10be 4f1e 20be
000002b0: bf3d 13bd 8e00 9dbb 5295 6bbe 2c16 44be
000002c0: 0849 a33d 6757 11bd b24d f9bd 4a02 33be
000002d0: 811c 16be 85de cbbd 3342 29bd d7a0 d7bd
000002e0: 72ea 32be a462 33be 9f38 ce3c 065e 93bd
000002f0: 6671 063d 1650 9b3d f032 703d 0fdb 02be
00000300: 6096 4a3c b887 8ebd 1c06 ccbd a49b 0fbe
00000310: e451 eabd 7674 63be 3e69 a8bd 7014 00bd
00000320: 661b 19be 180b ebbd 88c3 573c e743 54bd
00000330: 76e5 063c 0d4d c6bd 124c 823c 252a 2dbe
00000340: 3ccf 18be 9405 8abc 0a0e 3bbe c2f6 01bd
00000350: 44b4 05be 5677 03bd 7cbf f2bd 6710 c9bd
00000360: b708 373d 18f5 143d 4881 c5bc 2f67 bebe
00000370: b37b 93bd d008 653d e475 7ebd 675c 94bd
00000380: 9fdc 59bd 7084 88bd 2a68 36be eeb8 2f3c
00000390: 39a5 40be f7d4 fbbc 3a20 b3bd 3064 193d
000003a0: 1c76 00bd 2b16 09bd b911 59bd 01bd 823d
000003b0: d2d2 403d 27d1 4cbe 6b33 363d d199 30bd
000003c0: c452 c9bd cbbe 0bbe 8af2 92bd a1b8 aebd
000003d0: 1fef 10be 36d9 e9bc 69a7 89bd 7a24 af3b
000003e0: 377a 80be 073c f6bd 0708 a2bc f7e6 e1bd
000003f0: b7b6 82bd 3e4c d7bd d28c e6bd 4133 03be
-0.24941017 -0.33706763 -0.12759896 -0.22212964 -0.17156246 0.31739694 0.019057011 -0.13467328
-0.027217504 -0.13031262 -0.28414977 -0.16180259 -0.0839734 -0.053006414 -0.27960718 0.026595687
-0.1388009 -0.0361541 -0.20459993 -0.0003751669 -0.1546111 0.18575177 -0.15306513 -0.22389464
0.13782352 -0.20043336 -0.03713824 -0.29603872 -0.050949454 -0.15955359 -0.008508306 -0.08252611
-0.12041472 -0.14922173 -0.012204429 -0.38351607 -0.023824293 -0.17333934 -0.11847034 -0.18701053
-0.12604928 -0.061963007 -0.27220944 0.2167716 -0.251006 -0.0916639 -0.013197397 -0.21693064
-0.118396476 -0.14451149 -0.021906534 -0.2524071 0.101590246 -0.08024847 0.12232247 -0.12029981
-0.13700937 0.043757383 -0.22548987 -0.0702154 -0.048848093 -0.105256945 -0.1353706 -0.15735249
-0.118597575 -0.122397855 -0.11532271 -0.06860432 -0.20109613 -0.1312758 -0.16363105 -0.26441133
0.05426834 -0.08764477 0.016053716 -0.12399712 -0.23670931 -0.07728496 -0.24409826 -0.16697755
0.041247036 -0.2023655 -0.22284642 -0.06433248 -0.17427339 -0.25234067 -0.13147582 -0.08600634
-0.13069044 -0.06192687 -0.20356901 0.105281964 -0.06371819 -0.1466954 0.0647133 -0.13693571
-0.102152914 -0.0720962 -0.00098505 -0.048640944 -0.16677053 -0.15360074 -0.06033382 -0.11973893
-0.19121 -0.21703991 -0.16984853 -0.18084133 -0.17205311 -0.23266217 -0.07428076 -0.10178046
0.06446878 -0.24606264 0.106846094 -0.12549007 -0.020387406 -0.076783225 -0.034355026 -0.10353671
-0.17595315 -0.08551752 -0.013771263 -0.07049234 -0.15772508 -0.046803042 -0.013639049 -0.09888876
-0.040041443 -0.1432398 -0.19895726 -0.039307073 -0.016986901 -0.14041694 -0.08040089 -0.11025669
0.04087218 -0.102259025 -0.20328617 -0.06926749 -0.05238716 -0.12884478 0.0061774026 -0.109689824
0.01647834 -0.15103003 -0.08593343 -0.07403318 0.09059781 0.04004405 -0.16705778 -0.15594032
-0.004171961 -0.014267088 -0.06628621 -0.10748204 0.11444417 -0.00516679 -0.13396311 -0.11743724
-0.105871 -0.15487677 -0.12266386 -0.18389134 0.0027394965 0.018501775 0.065408126 0.034722585
-0.039727516 0.063045114 -0.14081912 -0.15636562 -0.035947558 -0.004791326 -0.2300618 -0.19149083
0.07972914 -0.035483744 -0.12173022 -0.17481342 -0.14659311 -0.099545516 -0.041322898 -0.10528725
-0.17472246 -0.17518097 0.025173483 -0.07195668 0.03282299 0.075836346 0.058642328 -0.12778877
0.012364954 -0.0695948 -0.09962103 -0.14024216 -0.11441401 -0.22212395 -0.08223198 -0.03126949
-0.14951858 -0.11476725 0.013169177 -0.05182257 0.008233419 -0.09682665 0.015905414 -0.16910608
-0.14922804 -0.016848363 -0.18267074 -0.031729467 -0.13057047 -0.03209623 -0.11852929 -0.098175816
0.044686045 0.036366552 -0.024109498 -0.37188098 -0.07201328 0.055916607 -0.062124148 -0.07244187
-0.053188916 -0.066658854 -0.17813173 0.010725243 -0.18813027 -0.030741198 -0.08746381 0.037449062
-0.031362638 -0.033468407 -0.052995417 0.06383706 0.047076054 -0.2000166 0.04448263 -0.04311544
-0.098302394 -0.13647 -0.07175167 -0.08531309 -0.14153717 -0.028545957 -0.06721384 0.0053449245
-0.25093243 -0.12023168 -0.019779218 -0.11030381 -0.06382506 -0.10512589 -0.11257328 -0.1281252

fc.weight f4 [1, 128]
00000000: eca6 53bd 0809 713c f77f 1f3e f1c6 4f3d
00000010: f43f b93d 9224 9bbe 1358 1a3e 7f9f 83bd
00000020: a27d bcbd a357 f03d a5c0 e13b fcae 1dbc
00000030: c95a 283d 960c c43d 1316 38bd 5cbe 2ebe
00000040: fc8f 85bb 129e 403e 99fe 9dbd 391e 0b3e
00000050: f67e 2d3d 8ada 4fbe eae7 37bd fcc4 253d
00000060: 0f56 3b3e 1368 6b3d 2bb9 1c3e 14d7 c43d
00000070: 9d0a d1bd 0bda 25bc 4448 973d 1dd1 de3c
00000080: e2cc 29bd c1ae 81bc 58d6 ebbd 3270 f6bc
00000090: cd1f 75bd 6f5d 773d 7e46 0ebd 22d0 aa3d
000000a0: f121 e7bd 612b 15be 26d9 b8bc 5125 613e
000000b0: 5f81 bd3c 6df6 083e 899a ef3d c654 503e
000000c0: a0d3 77bd d69b babc dff4 d53d 21ad 26bd
000000d0: a35b 673e d51c ddbd 9675 713e 9a72 de3d
000000e0: 5c69 ac3b d484 273e 37a0 8c3d 3857 feb8
000000f0: 60f3 9bbd c075 52bd 135b 91bd 7562 29bd
00000100: 4e21 6f3d 17d5 e5bd db5e 43bd 6e0f ea3c
00000110: 7ca7 90bc d478 95bb f033 6abd 0469 e73d
00000120: d6bd 3d3e 925f 47bd e2f5 9abd 2ed4 c9bd
00000130: b7c0 8fbd 5646 25bd 2afa 173c 04cf d0bd
00000140: 3a3f fabd bff0 66bd add6 803c 92b1 6a3d
00000150: 9045 eb3d c2c3 7b3c 532b a2bd 5a4b 87bd
00000160: 9781 ce3d 7245 0c3e a5aa 10be 32ac 7cbe
00000170: 68a7 a9bc 0932 abbd d28d 41be 1040 25bd
00000180: a18e eabd 3990 9bbd a979 213e 62ca 45bd
00000190: bc03 033e 6d9d db3d 8742 52bd e02a 153d
000001a0: 888f 63bd 45ad 8dbd edfe 39be 3234 99bd
000001b0: 1c8a 8cbd 7661 95be 889f d0bd 9821 993d
000001c0: fa6e 4cbe 441b 9d3b ffa4 6ebe 8331 4a39
000001d0: f0f3 9c3d 7014 90bd e40f c0bd c351 2ebd
000001e0: 7a74 7c3c 87f6 38bc ac19 abbb 8a72 09be
000001f0: 6a16 723d 33b2 1f3d c225 013e 4a27 84bd
-0.05167286 0.014711626 0.15576158 0.050726835 0.09045401 -0.30301338 0.1507266 -0.06426906
-0.0920365 0.117354654 0.00688942 -0.009624239 0.041102204 0.09572713 -0.044942927 -0.17064804
-0.004076002 0.18810299 -0.07714576 0.13585748 0.042357408 -0.2029821 -0.044898905 0.040471062
0.18294547 0.0574723 0.15305011 0.096113354 -0.102071024 -0.010122786 0.073868304 0.027199322
-0.041455157 -0.0158304 -0.11515492 -0.030082796 -0.05984478 0.06039184 -0.034735195 0.083404794
-0.11285771 -0.14567329 -0.022564482 0.21986891 0.023132978 0.13375254 0.11699397 0.20344839
-0.060504556 -0.022779386 0.10447096 -0.040692452 0.2259355 -0.10796515 0.23580012 0.10861702
0.0052615833 0.16359264 0.06866496 -0.000121279096 -0.076147795 -0.051381826 -0.07097449 -0.04135366
0.05838137 -0.11222284 -0.047697883 0.02857181 -0.017657988 -0.004561523 -0.057178438 0.11299327
0.18529448 -0.048675127 -0.0756643 -0.09854923 -0.07019179 -0.04035028 0.009275952 -0.10195735
-0.12219091 -0.056381937 0.015727365 0.05729825 0.11487877 0.0153664965 -0.0791842 -0.06606169
0.10083311 0.13698366 -0.14127596 -0.24675062 -0.020709708 -0.08359153 -0.18901756 -0.040344298
-0.114529856 -0.07595868 0.15769066 -0.04828871 0.12794393 0.10723386 -0.051332977 0.036417842
-0.055556804 -0.06917814 -0.18163653 -0.074806586 -0.0686228 -0.2917592 -0.10186678 0.074771106
-0.19964209 0.00479451 -0.23305129 0.00019282666 0.07663715 -0.07035148 -0.09378031 -0.042558443
0.01540863 -0.011289245 -0.005221566 -0.134226 0.059103407 0.038988303 0.1261206 -0.06452806
