best_model.pth (torch, 270889 bytes, 5 tensors)

lstm.weight_ih_l0 f4 [512, 1]
000000 13 0d 13 bc a9 29 0b 3e c8 dc 2c be a5 8f 9a 3e
       -0.008975285 0.13590111 -0.16881096 0.30187717
000010 c0 ce 66 3d b0 9e 83 3d 4f 29 87 3e 0f b2 3b 3e
       0.056349516 0.064267516 0.26398703 0.18329643
000020 bd b7 49 3e df 28 67 be 4f 53 23 3e 6e 36 fc bb
       0.19698997 -0.22574185 0.15949748 -0.007696918
000030 f8 e2 6a 3d 24 58 8d be ce 0c a2 3e 3d e7 1e 3e
       0.05734536 -0.27606308 0.31650394 0.15517898
000040 86 c7 b3 3c 6b 5c 18 bd f4 f2 b1 3d 02 26 90 3e
       0.021945726 -0.03719751 0.08688918 0.28153998
000050 37 f8 70 3e 61 08 83 3c 0e 9a 91 bd 3b 01 b6 3d
       0.23532186 0.015995206 -0.07109462 0.088869534
000060 11 14 dc 3d 3c d6 54 3e 04 78 b1 3e ef 61 98 3e
       0.10746015 0.20784849 0.34661877 0.29762217
000070 36 16 f6 3d 1a f5 1e be 31 b7 4d 3d 42 3b 23 be
       0.12015955 -0.15523186 0.050223533 -0.15940574
000080 37 f1 19 3e a1 94 b4 3d 3d 00 86 3d a4 08 83 3e
       0.15033422 0.08817411 0.06543014 0.2559253
000090 7c 18 80 3e 24 18 eb 3d d9 0f 8d 3e 9a 7f 35 3d
       0.2501868 0.11479214 0.27551153 0.044311143
0000a0 19 39 cb bd 72 dc cc 3d 3e 92 41 3e b4 8d d9 3d
       -0.09923 0.10002984 0.18903443 0.10622731
0000b0 43 7a 2e 3e 7d 11 2c 3e 60 b9 44 ba 9e a8 81 3d
       0.17038827 0.16803546 -0.00075044297 0.06330989
0000c0 5a 7e 04 3e c1 57 17 3e 04 3d 1a 3e 4a 4c e7 3d
       0.12938824 0.14779569 0.15062338 0.11293848
0000d0 a4 f8 89 bc a2 bc 8d 3e c6 10 c2 bc 10 bc 6e 3d
       -0.016842194 0.27682978 -0.023689639 0.05828482
0000e0 b6 5c 1d 3e d6 d9 33 3e fd cb 37 be 7c 9a 47 3e
       0.15367398 0.17563567 -0.17948909 0.19492525
0000f0 5e c5 cb bd 8e 25 3c 3d 8b 89 c0 bd ce 62 dc 3d
       -0.09949754 0.045934252 -0.09401234 0.10761033
000100 f6 99 64 3d 14 47 db 3e 61 d7 e1 bc e1 c2 83 3e
       0.05581089 0.42827666 -0.027568521 0.25734618
000110 2b e6 a1 bd 04 51 2a 3e d4 e1 0d be b5 1f f3 3d
       -0.07905229 0.16632468 -0.13855678 0.11871282
000120 9f c6 c7 bc 92 e6 72 3c 9a 97 24 3e 92 54 06 3e
       -0.024386702 0.01482548 0.16073456 0.13118199
000130 e8 7e c4 bd cf a7 dc 3d 63 de 17 3e bf 09 ad 3d
       -0.09594518 0.107741944 0.14830928 0.084491245
000140 c8 66 04 3d fe 1c e2 bd 52 fd 45 3e 97 50 a7 3c
       0.032324582 -0.11040686 0.19334915 0.02042417
000150 b7 59 11 bd 05 4d 39 3e 4f 96 3f be c5 4c 2d 3e
       -0.03548595 0.18095787 -0.18709682 0.16923817
000160 7a 8b 0f 3e 70 cc 0a be 2e db b6 3d 1c 4e e5 ba
       0.1401805 -0.13554549 0.08928524 -0.0017494592
000170 9f b7 63 be 15 c2 4d 3c d0 98 5b 3e 45 36 f8 bd
       -0.22238015 0.01255848 0.21445012 -0.12119726
000180 0e f8 dc bc 8e fc 06 be a7 b8 5e be b3 fb 81 3e
       -0.02697375 -0.1318228 -0.21750127 0.25387344
000190 06 1e 2f 3e 9d c7 fe 3c 8b 76 e6 bd 43 c8 23 bc
       0.17101297 0.031101042 -0.11253079 -0.009996477
0001a0 38 31 82 3d e2 74 38 3e 05 f4 5d 3e 64 e1 5f be
       0.06357044 0.18013337 0.21675117 -0.21863323
0001b0 1c 31 c3 3e 37 97 3b bd 62 83 70 bc 7a 3e 83 be
       0.38123405 -0.045798507 -0.014679762 -0.25633603
0001c0 b5 6e 3d 3d 73 32 fc bd c6 68 b1 3c 14 7c 02 3e
       0.046248157 -0.1231431 0.021656405 0.12742645
0001d0 4d c2 19 bd 34 29 01 3e 3f 27 c3 3e 83 b1 b5 3d
       -0.037538815 0.12613374 0.3811588 0.08871748
0001e0 c6 a7 10 3c 0e e6 cf bd 76 02 10 be c5 7a 1e 3e
       0.008829063 -0.10151301 -0.14063439 0.1547652
0001f0 25 43 8b 3e 0e 1a ca 3d 2e 5d 16 3e 0d 76 10 3d
       0.27199665 0.09868251 0.14683983 0.035268832
000200 af c7 27 be 9d 8b 85 be 1b 5f 52 be 2d d4 ba bd
       -0.16384767 -0.2608308 -0.20544092 -0.091225006
000210 51 58 a8 3c 8d 7c 12 3e bd e2 10 be 80 09 16 bd
       0.020549925 0.14305325 -0.14148994 -0.036630154
000220 95 70 a1 bd a6 58 93 bd 41 84 78 be 0c 14 8b 3c
       -0.078828014 -0.07194643 -0.24269201 0.016977333
000230 8a 08 d6 bd 3a 08 9d be ba 76 b6 3d 3f 6e 9f 3d
       -0.104508474 -0.3067034 0.08909364 0.077847
000240 6d 10 9a bd e0 e3 be bd 8c 3d 73 be d4 6b 98 be
       -0.07522664 -0.093208075 -0.23753947 -0.29769766
000250 44 34 15 3e d8 e4 1e bd 14 d8 98 bd c6 ad 2c 3d
       0.14570719 -0.03879246 -0.07463089 0.04215791
000260 66 89 06 3d 68 83 0d be 34 ee b6 3c fa 1f cd be
       0.032845877 -0.13819659 0.022330381 -0.4006346
000270 b6 dc c7 bd 8d 34 0a be cc d0 28 3d 21 9e 26 be
       -0.09758894 -0.13496609 0.04121475 -0.16271259
000280 c3 01 14 be 5e 85 09 be 6c 56 e5 bd 20 77 b6 3d
       -0.14453797 -0.13429782 -0.11198124 0.0890944
000290 fe bd 55 bd 88 c0 8d bc fb 8a ba bc 65 d6 79 bd
       -0.052183144 -0.01730372 -0.02277135 -0.06099548
0002a0 a4 37 4d be ef b7 c8 bd eb cc b5 bd fc 05 63 3c
       -0.20040756 -0.098007075 -0.088769756 0.013856407
0002b0 64 80 be 3c 7d d9 25 3d 61 7d 01 bd c9 98 12 be
       0.02325458 0.040490616 -0.03161371 -0.14316095
0002c0 3b c3 eb bd ca f5 3d 3d 90 36 07 bc ae 1a 82 3d
       -0.11511847 0.04637698 -0.008252755 0.06352745
0002d0 cc 58 2d 3d 8f d0 ce bd 1a 09 60 bd df 25 b4 bd
       0.04232101 -0.10098373 -0.05469618 -0.08796286
0002e0 36 7a c3 3c 2c 2a 03 be 34 85 f5 bd 82 ab 5a bd
       0.023861986 -0.12809056 -0.11988297 -0.05338622
0002f0 cb 56 88 bc 3e cb 4c bd 97 1c 15 3d ee 6e e5 bc
       -0.016642949 -0.049998514 0.03640422 -0.028006997
000300 fa a9 9d bd 13 be 44 be 4e 08 b1 bd f6 fe e4 3d
       -0.07698436 -0.19213133 -0.08644162 0.111814424
000310 ed 62 32 bd 96 c6 d2 bc 7e 1b 7d be 37 76 77 3d
       -0.043551374 -0.025729459 -0.24717519 0.060415473
000320 3f ae 55 be 1e 04 d8 bd 58 3a ae 3d 99 7c 87 bd
       -0.20867251 -0.1054766 0.08507222 -0.06615562
000330 00 07 9f 3d 8b 65 74 be c9 6a a2 bd 98 fa 42 be
       0.07765007 -0.2386686 -0.07930524 -0.19040906
000340 e9 1e 25 3d 1b fe f3 3d 5c 2c 81 bd b8 9b 5b be
       0.04031268 0.11913701 -0.06307289 -0.2144612
000350 72 2f 96 bd 5b 21 72 bd b0 e5 1e be 40 68 84 be
       -0.07333268 -0.05911384 -0.15517306 -0.25860786
000360 b2 9a cf bd 35 b8 db bd ad e4 85 3d 03 64 28 bd
       -0.10136928 -0.10728494 0.06537757 -0.041111004
000370 88 f9 c3 bc 6a 7d a1 bd 54 aa 31 3d 00 0c 85 be
       -0.023922697 -0.07885249 0.04337533 -0.25985718
000380 8b 89 c0 3c 07 e0 57 be 33 69 d4 be 2e 15 4f be
       0.023503086 -0.21081553 -0.4148651 -0.20222923
000390 ae 97 21 3d 6a 8e aa bd 24 c3 51 bd 65 8d 27 bd
       0.039451294 -0.083279446 -0.05121149 -0.04090633
0003a0 c0 ab 08 3c 95 63 57 be 5c 17 15 3d d5 e1 e2 be
       0.00834173 -0.21034081 0.03639923 -0.4431292
0003b0 4a 19 30 bd 3b 25 00 3c 40 e1 d6 3c 3d 59 8b be
       -0.042992868 0.007821376 0.026230454 -0.2721652
0003c0 d6 b3 8e 3d 72 73 89 be 8b 58 2e 3c 28 7c ff bc
       0.06967895 -0.2684589 0.0106412275 -0.031187132
0003d0 c5 55 5a bd cb fd d1 bd 3e 32 9f ba 64 e8 4a 3d
       -0.053304452 -0.10253485 -0.0012145711 0.04953803
0003e0 fe 52 22 bd 8b f8 74 bd 38 aa b2 be f1 dc f5 bc
       -0.03962993 -0.05980734 -0.34895492 -0.03001258
0003f0 79 29 b1 bd b2 4a ac 3a f8 74 eb 38 15 ed 9d bd
       -0.086504884 0.001314482 0.0001122746 -0.077112354

lstm.weight_hh_l0 f4 [512, 128]
000000 88 74 d8 bd da 81 58 3e f1 f8 3e 3e 87 13 0d 3d
       -0.105691016 0.21143284 0.18649651 0.03444245
000010 40 b5 8a be f8 12 52 3e 14 f2 a4 3e 30 9c 8a be
       -0.27091408 0.20515049 0.3221594 -0.27072287
000020 6d 7f 89 bd 7f d5 64 be a0 3f b5 3e 9d 19 5d be
       -0.06713758 -0.22347067 0.35400105 -0.21591802
000030 f4 ee 87 be fd b7 06 3e f7 76 d9 3c 5d 70 8e bc
       -0.26549494 0.13156123 0.026545985 -0.017387563
000040 78 9b ce 3d c4 7a 0e 3e f9 6d 70 be a9 50 32 be
       0.10088247 0.13914019 -0.23479451 -0.17413582
000050 c6 13 14 3e 3e 23 87 3e 43 fa 70 3e 62 90 f7 3d
       0.14460668 0.26394075 0.23532967 0.12088086
000060 32 4a 0e 3e b2 c6 87 be b4 21 5d be 4f c3 06 3e
       0.13895491 -0.2651878 -0.21594888 0.13160442
000070 56 4e 88 be 34 69 e7 bd 83 4b 7c be 20 20 b5 bd
       -0.26622266 -0.11299363 -0.2463818 -0.08844018
000080 2b ee 8a 3e a4 b7 57 be 43 1c 6e be 25 fa 5e 3e
       0.27134833 -0.21066147 -0.23252968 0.2177511
000090 e9 5f b3 3e ad 5f 3f be 6c 82 9f 3e 1e 34 01 3e
       0.3503411 -0.18688841 0.31154191 0.12617537
0000a0 ba 32 46 3e 10 1c ec 3d 40 d7 93 3e 9c d6 42 be
       0.19355288 0.1152879 0.2887516 -0.1902718
0000b0 62 8c 6e be 33 94 53 3e 12 03 16 be 35 c7 2f 3e
       -0.2329574 0.20662002 -0.14649609 0.17165835
0000c0 11 56 30 3e bb 2c 60 bd 1d 3e c7 be b1 0e e7 3d
       0.17220332 -0.05473016 -0.38914576 0.11282099
0000d0 ca 7d 13 3e 9f df 8b 3e 39 71 0d 3e d6 29 18 3e
       0.14403453 0.27319047 0.13812722 0.14859709
0000e0 01 9f 8d be 7a 28 24 3e cf 99 0a 3e f9 c1 7a 3e
       -0.27660373 0.16031066 0.13535236 0.24488057
0000f0 e8 2e a4 bd 94 b0 27 be 81 76 98 bd d9 2b 56 be
       -0.08016759 -0.16375953 -0.07444478 -0.20915164
000100 e2 a1 98 be 66 79 8f 3e 05 63 5a 3e 15 33 9c 3d
       -0.29811007 0.28022307 0.21326835 0.076269306
000110 c9 da af 3d 91 ca f2 3d ea 0e 14 3e c4 18 9c be
       0.08586652 0.11855043 0.14458814 -0.30487645
000120 85 10 32 be 43 23 6a be f7 d8 5e 3e 14 2a db bd
       -0.17389114 -0.22865014 0.21762453 -0.10701385
000130 ed 42 71 bd da 7e 6b 3e ac 8c 39 3e bb cd 8f 3d
       -0.058901716 0.22997609 0.18120068 0.07021662
000140 11 02 92 be 61 ef e3 3d 28 89 25 be ed 8d 8c 3e
       -0.28517202 0.11129642 -0.16165602 0.2745203
000150 9c 7b f7 bc ad d4 90 be 59 88 77 3c ed 7c 7a 3e
       -0.030210309 -0.2828726 0.015108191 0.24461718
000160 a9 36 34 be 4f a7 56 3a ab da 84 3e ac 8a 3f be
       -0.17598976 0.0008188383 0.2594808 -0.18705243
000170 01 72 9d 3d 1b 22 30 be 9e 43 16 be 9a 39 8c be
       0.0768776 -0.1720051 -0.14674231 -0.27387697
000180 06 cb 12 3e c8 a8 af bd b3 af 64 be 41 f6 ae 3e
       0.1433526 -0.08577114 -0.22332649 0.34172252
000190 cf e1 30 3e 9a ca 24 3d 9b 50 98 bd fa eb 37 3e
       0.17273639 0.04023228 -0.07437249 0.17961112
0001a0 81 76 ff ba 09 c2 9c be 84 0e 84 be f8 a3 f2 3d
       -0.0019490273 -0.30616787 -0.25792325 0.11847681
0001b0 a5 5e 91 3e 11 83 08 be 74 9d ad bd 9a 8a 75 be
       0.2839252 -0.13331248 -0.084772974 -0.23978654
0001c0 23 f1 6f be fe 56 3a be 0b bc 69 be ce ed 8a 3e
       -0.2343183 -0.18197247 -0.22825639 0.27134556
0001d0 45 cf 97 3d 1e 00 c0 3d 78 15 b8 3e b5 bb bc bd
       0.074125804 0.09375022 0.3595388 -0.0921549
0001e0 11 a1 60 3e 4d e5 d6 ba 1b 43 5c 3e 39 86 08 3e
       0.21936442 -0.0016395241 0.21509974 0.13332452
0001f0 95 6f 45 3e 17 5a 98 bd c2 f2 6e be af 51 25 bd
       0.19280846 -0.07439058 -0.23334792 -0.040361103
000200 dd 27 46 bd 71 8a 82 3e 7a 57 86 bc 94 ec 16 be
       -0.04837786 0.25496247 -0.016399134 -0.14738685
000210 70 90 3b be 92 7d 96 bd f9 df 65 3e a8 6c e2 bd
       -0.18316817 -0.073481694 0.2244872 -0.11055881
000220 25 47 19 bd 4c d3 29 3e 61 09 38 3e 81 71 53 be
       -0.037421364 0.1658451 0.17972328 -0.20648767
000230 9b ec 65 be 4d d8 22 3c 1a 37 af bd dd e3 1e be
       -0.22453539 0.009939265 -0.08555432 -0.1551661
000240 f4 53 fc bd 8f f1 85 3e aa 29 90 bd 70 48 ae be
       -0.123207 0.26160857 -0.07039197 -0.3403964
000250 7b ca 7f 3d 31 79 4c 3e 19 37 4f 3e aa be 00 be
       0.06244896 0.19968106 0.20235862 -0.12572733
000260 8f a8 94 3e 97 de 78 be db c5 5d be 3a 1e 29 3f
       0.2903485 -0.24303661 -0.21657507 0.6606175
000270 ce 4f 30 be f1 6e 51 3d d5 d2 b9 3d 35 bf 88 3d
       -0.17217943 0.051131193 0.09073416 0.06677095
000280 fe 65 9e 3d dc a4 f3 bd c2 9a 79 be bd 97 26 3d
       0.07734297 -0.11896679 -0.24375442 0.040672053
000290 d0 0b 11 3c ef 76 c2 3d 7c c2 0f bd 80 a1 73 3e
       0.008852914 0.09495341 -0.035097584 0.23792076
0002a0 26 75 30 3e a9 54 7b 3e 0b 3a dd 3e fd c4 0e be
       0.17232189 0.24544014 0.43208346 -0.13942333
0002b0 d8 e4 a5 be 81 dd 86 3d 7e 65 7c 3d 4b 0c 3a 3e
       -0.32401156 0.06585217 0.061620228 0.18168752
0002c0 4a 4e 83 3e da 09 1a bd 13 41 a9 3c 43 db ea 3c
       0.25645667 -0.03760705 0.020660913 0.028669005
0002d0 9e b4 9a 3e e0 a3 af 3e b7 1b 17 3e f1 eb 68 3c
       0.30215925 0.34304714 0.14756666 0.014216409
0002e0 a1 d0 87 be 29 9d 5d bc 1a 31 c4 3e 54 08 47 3e
       -0.2652636 -0.013526239 0.38318712 0.1943677
0002f0 24 13 ad 3d e0 a2 89 be f0 cf b4 be 0a a2 bb bd
       0.084509164 -0.26882076 -0.35314894 -0.09161766
000300 b4 36 63 be 54 5d ca 3d a9 16 ad 3e 5a 64 1c 3e
       -0.22188836 0.09881082 0.3380635 0.15272656
000310 a3 e9 5e 3e bf 0f 62 3e f2 b5 ff 3b ba c9 04 be
       0.21768813 0.22076319 0.007803672 -0.12967578
000320 c8 f3 f7 3d c1 71 94 be 60 3e a2 3c f0 d0 ac be
       0.121070445 -0.28993037 0.019805133 -0.33753157
000330 d5 4b e6 bd a5 0d bc 3c cf 7b 89 3e 83 6a 09 be
       -0.112449326 0.022955725 0.2685227 -0.13419537
000340 30 8e de 3c cd ca 2b 3e 15 c0 84 be 18 57 b7 bd
       0.02716741 0.16776581 -0.25927797 -0.08952159
000350 7b 6b 81 3d 8a 6c 90 be 15 e0 35 3c 3d d5 74 3e
       0.063193284 -0.2820781 0.011100789 0.23909469
000360 4b 31 8d 3d 5b c9 56 3d ba 9b 1e 3e 8b ca a5 be
       0.068941675 0.05243812 0.15489092 -0.3238109
000370 ca 97 b4 3e 31 6e 47 be 5e 01 a0 be c3 5b 6b bc
       0.35272056 -0.19475628 -0.31251043 -0.014365139
000380 9d 33 b7 3e 10 a5 c7 3d d8 ff 96 3d 0b 0c ab 3d
       0.35781565 0.0974828 0.07373017 0.083519064
000390 d2 20 c5 3d dd fe 32 3e fd f4 45 be 4e 25 57 3e
       0.096254006 0.17480035 -0.19331737 0.21010324
0003a0 17 e1 11 be 39 b5 83 bd 78 35 49 be 16 b4 4d bd
       -0.14246021 -0.0643105 -0.19649303 -0.05022057
0003b0 ab 8e 5e 3e 49 cc 88 be 69 38 71 be 5d 29 f4 3d
       0.21734111 -0.26718357 -0.23556675 0.11921952
0003c0 a0 5a cf bc 1f 77 a9 bc fa a8 a2 be f2 14 a6 3e
       -0.025311768 -0.020686684 -0.31769544 0.32437855
0003d0 ef 2a af 3e 4c 98 4f 3e 29 7b 66 bc 57 fb d0 be
       0.34212443 0.2027294 -0.01406745 -0.40816757
0003e0 20 6e 65 3e 8f c1 0b 3e ae 25 17 be 65 5a 16 be
       0.2240529 0.13648055 -0.14760467 -0.1468292
0003f0 73 cd 39 3e c8 f7 97 ba 94 79 8e be 39 d9 59 bd
       0.18144779 -0.001159423 -0.27827132 -0.053185675

lstm.bias_ih_l0 f4 [512]
000000 f6 13 61 3d 87 9f 86 bc c9 02 e9 3c 85 4c 0b be
       0.054950677 -0.01643349 0.02844371 -0.13603409
000010 48 38 9b bd ec 37 dc bd 6f cf ee bd 51 3c 0a bd
       -0.07579094 -0.10752854 -0.116606586 -0.03374893
000020 a0 41 19 bc 7a 85 8e 3d 7a ce a5 3d 04 60 69 bc
       -0.009354025 0.069590524 0.08096023 -0.014244083
000030 ad 8a b2 bd e7 f2 b2 3d 04 e3 04 be b3 4e 64 be
       -0.087178566 0.08737736 -0.12977225 -0.22295646
000040 39 c2 bf bd 04 e0 20 3d 3b a7 e4 bd 5b 13 1c be
       -0.09363217 0.039276138 -0.11164709 -0.15241759
000050 42 07 b7 bd 40 80 96 bd da c2 10 3d 31 aa 75 bd
       -0.08936931 -0.073486805 0.035342075 -0.05997676
000060 b5 bf 82 3c 3a 22 9e bc 69 3a 93 bd db 91 ac bd
       0.015960554 -0.01930343 -0.07188875 -0.08426257
000070 e1 7a 17 3d cc 06 c1 bc 6c 22 a7 bd ea d2 f1 3b
       0.03698242 -0.023562811 -0.08160862 0.0073798792
000080 cc d8 17 be b8 fb 91 bd 71 2b d3 bc 19 b1 0e be
       -0.14828795 -0.0712809 -0.02577755 -0.13934745
000090 2a b6 4e be 58 c8 14 be 0f 8c 42 be 43 a3 40 3c
       -0.20186678 -0.1452955 -0.1899874 0.011757675
0000a0 c0 8e 94 bd e0 e6 17 bc 47 15 dd bd 68 5b 1e be
       -0.0725379 -0.0092713535 -0.10795074 -0.15464556
0000b0 82 ed 00 be 83 8c b0 bd 2c 7f 2b bc 7f 90 f4 bd
       -0.12590602 -0.086205505 -0.010467332 -0.11941623
0000c0 be 4c fa bd 54 f5 c6 bc 8d 9f 4b be 55 6b fa bd
       -0.12221669 -0.024286903 -0.19885083 -0.12227503
0000d0 0c fa f6 bb 81 85 2b 3d e5 f9 79 bd 0c d0 2d be
       -0.007537132 0.041875366 -0.061029334 -0.16973895
0000e0 bf ef d7 3c 76 06 b0 bd 60 be 1a bc fc 9a 1a be
       0.026359437 -0.08594982 -0.009444803 -0.15098184
0000f0 17 30 cc bd 37 43 25 bd 78 b6 86 bd e3 0d 84 bd
       -0.0997011 -0.040347304 -0.06577772 -0.06447961
000100 8e dd b3 bd 8d be 64 3a 3b 56 26 3d 36 a0 02 be
       -0.087824926 0.0008725904 0.04060958 -0.12756428
000110 d7 db 95 bd 2f bb a0 bd cb e4 10 3e d6 1a c6 bd
       -0.07317322 -0.078482024 0.14149778 -0.09673087
000120 ed e5 9e 3d 3a f0 10 3b c1 ff 6e bd dc c3 da bd
       0.077586986 0.0022115842 -0.058349375 -0.106818885
000130 9a 3b 02 be cc 47 0c 3e 93 58 b9 bc 2a 62 0e be
       -0.12718049 0.13699263 -0.022625243 -0.13904634
000140 39 99 7f bd 03 57 92 be df 14 28 bc 5b 0a 8b bc
       -0.062401984 -0.2858201 -0.010258882 -0.016972711
000150 f1 0e cc bc 1d b1 86 bd 55 1f 9b bd 6a 33 f3 bd
       -0.024909468 -0.065767504 -0.075743355 -0.11875041
000160 55 cc cf 3d 62 ee a7 3d 5f 13 f9 bc c8 de 5f 3d
       0.10146395 0.08199765 -0.030404745 0.05465582
000170 1a 5e 17 bc cd fe 07 be fb f1 55 3c f2 6a 06 bd
       -0.009238744 -0.13280793 0.013058181 -0.032816835
000180 c1 45 a1 bd c4 e0 db bc 4f c3 de 3b ed 12 6c 3c
       -0.078746326 -0.026840575 0.006798185 0.014408809
000190 b2 54 e4 bd 6f 82 ac bd 4f 82 cc bd 25 bc 86 bd
       -0.11148967 -0.08423316 -0.09985792 -0.065788545
0001a0 91 0a 05 be f8 f2 09 3d 5a 47 ae 3c 9d b5 81 3e
       -0.12992312 0.03367898 0.021274257 0.25333872
0001b0 e6 c0 d9 bd 53 8a fa 3c 44 f2 63 3d c8 fa bd 3d
       -0.106324956 0.030583536 0.055650964 0.09276348
0001c0 7a 2e 23 3d 49 37 c7 3c ee a6 00 be 44 0c 17 3d
       0.039839245 0.024318354 -0.12563679 0.03687693
0001d0 ca 67 5c bd f9 7d 02 be 7e 7d a6 bd 7c 3a 0c 3d
       -0.05380992 -0.12743367 -0.081294045 0.034235463
0001e0 66 30 3a 3d b7 de cd bd 9c 42 6c 3e 29 5e fb bd
       0.045456313 -0.10052245 0.23072284 -0.12273819
0001f0 c1 d9 2d be 4d 41 62 bd 68 40 49 bd de b6 9f bc
       -0.16977598 -0.055238057 -0.04913369 -0.019496378
000200 b9 a6 17 bd ab fb a7 bb 32 77 84 bb 96 3f 58 bd
       -0.037024233 -0.0051264367 -0.0040425295 -0.052795015
000210 c0 5d 30 3d c2 2f 9b bd 8c 25 9c 3d 0d c2 9a 3d
       0.043058157 -0.075774685 0.07624349 0.075565435
000220 0c 81 c1 3c 9b c5 2c bd 4b 9e ae 3d 07 65 2f bd
       0.023621105 -0.04218064 0.08526286 -0.042820957
000230 b1 79 86 bd 0c d4 55 3d ab 96 ca bd 2e ba 04 be
       -0.065661795 0.052204177 -0.09892019 -0.12961647
000240 f7 d7 5d bd eb d8 9d 3d 8c 9c 1e be f7 4e eb bd
       -0.05416104 0.077073894 -0.15489405 -0.11489671
000250 cb d1 dc bd f8 8c 8c bd 83 29 8f 3c 18 1a 0b be
       -0.10782202 -0.06862825 0.017475849 -0.13584173
000260 73 47 3e 3d 05 98 a9 3c 27 0d 89 bd eb 8d 99 be
       0.046454858 0.020702371 -0.06691962 -0.29991087
000270 cc 62 73 3c 5f 1a f3 bc 2e 76 6a bd 3d 02 e6 bd
       0.014855098 -0.02967566 -0.05724161 -0.11230896
000280 19 3e 45 3d 66 6c b9 3d ac 0b b5 bb 54 dc 06 be
       0.048154924 0.090538785 -0.005525073 -0.13169986
000290 27 b8 59 bd da 0b b3 bc f8 ce 97 3c d8 96 6c 3d
       -0.053154137 -0.021856237 0.018531308 0.057761043
0002a0 9d 51 07 be 3e c1 60 3d db 75 f4 3c 85 91 c5 bd
       -0.13214727 0.05487179 0.029841354 -0.09646896
0002b0 a1 25 53 bc 8b d5 ff bd 7d 51 6a bd 85 29 53 3d
       -0.012887389 -0.12491902 -0.05720662 0.051553268
0002c0 77 81 68 bd c0 8a 9e bd 8e a1 1c be 73 45 20 bd
       -0.056764092 -0.07741308 -0.15296003 -0.039128732
0002d0 5b 87 37 bd 3e b9 53 bd 1d b0 40 3d f3 99 f5 bd
       -0.04480682 -0.051690333 0.047042955 -0.11992254
0002e0 c6 ba ad bd a2 7d c4 3c 11 09 19 be 85 41 a7 3c
       -0.0848289 0.023985688 -0.14944865 0.020416984
0002f0 06 1c d5 bc 7d 17 7f 3d 93 45 2b bd 37 a7 4b 3d
       -0.02601434 0.06227826 -0.041814398 0.049720015
000300 4f 2e 37 bb cc 6e cf bc a7 8e a6 bd cf 19 1f bd
       -0.0027951186 -0.025321387 -0.081326775 -0.038842972
000310 98 8e f1 bd 29 36 bd 3d 5e 48 c3 bd f2 17 c0 bd
       -0.11794776 0.09238846 -0.09535287 -0.09379567
000320 d4 90 02 3d df 31 55 3d 1e 84 d0 bc 11 8f 62 bd
       0.0318764 0.052049514 -0.025453623 -0.05531222
000330 a5 33 fc 3c 6c 43 fd 3d 8f e5 7d 3d 25 0e 06 bd
       0.030786345 0.12366375 0.061986502 -0.032728333
000340 1b a5 a9 bd 97 a2 ff be b4 3d 8a bd 85 cc cd bd
       -0.082834445 -0.49928734 -0.0675005 -0.10048775
000350 08 ac d8 bd 58 0a e6 bc 8d 1e b5 bd 91 0a 75 bd
       -0.10579687 -0.028081104 -0.08843718 -0.05982453
000360 4a bf 0d be fb 54 97 bd ea d7 53 3d 2f 51 05 be
       -0.13842502 -0.073892556 0.051719584 -0.1301925
000370 de f9 83 bc 07 36 a7 3b 80 92 9c 3d b9 ce 9e 3c
       -0.016110357 0.005102876 0.0764513 0.019385682
000380 5b 0c d2 bd 01 9c 06 be a3 22 00 3d f7 ce 74 3c
       -0.10256263 -0.13145448 0.031283032 0.014941922
000390 2a 74 66 3d a0 f2 b9 bd bc fa d3 bd c1 d4 af bd
       0.056263126 -0.0907948 -0.10350558 -0.085855015
0003a0 07 49 ab bd 6d cd 54 3d 81 19 f5 3c 17 99 10 be
       -0.08363538 0.05195372 0.029919388 -0.14120899
0003b0 80 21 91 3c 60 59 ca bd 47 e3 c1 bd 5c 93 9b bd
       0.01771617 -0.09880328 -0.09467178 -0.07596466
0003c0 09 07 dd bd 67 31 98 bd c4 46 19 3b 62 33 90 3c
       -0.107923575 -0.07431298 0.0023388127 0.017602626
0003d0 ba d7 92 bd 2d 0c e1 3c 71 4a 9d bd a0 6f ff 3c
       -0.07170053 0.027471626 -0.07680214 0.031181157
0003e0 1d b7 3e 3c 90 df c9 bd 95 ed 4a bc e5 44 dc bd
       0.011640337 -0.09857094 -0.0123857455 -0.10755328
0003f0 dc a5 44 3d da 32 5b bc f4 fd a2 3c b3 d8 ae 3b
       0.04800974 -0.013378823 0.019896485 0.005335891

lstm.bias_hh_l0 f4 [512]
000000 5b 44 95 3c d7 3d b6 bd 13 dd c7 3d af 11 2f be
       0.018221071 -0.08898514 0.097589634 -0.1709659
000010 f7 b7 3c be 25 f8 1d be 65 39 01 3d d6 6d 5c 3c
       -0.18429552 -0.15426691 0.031548876 0.013453921
000020 5b 20 f4 bd b5 47 4f 3d d7 6d 5c 3d 79 de eb bb
       -0.11920234 0.050605495 0.05381569 -0.0071981517
000030 2e 7f be bd d8 46 04 3e c7 dc 37 be 07 8d b6 be
       -0.09301601 0.1291765 -0.17955314 -0.3565447
000040 3f 3a 45 3d a6 35 e7 3c 23 94 24 be 87 fe 2e be
       0.04815125 0.028223824 -0.16072135 -0.17089282
000050 47 b9 18 be 1a 48 92 bd bb b6 54 bd bb a6 17 be
       -0.14914428 -0.071426585 -0.051932078 -0.14809696
000060 ee 61 02 be 41 1e c3 bd ef 73 fa bd ac f1 2e be
       -0.1273267 -0.09527255 -0.12229144 -0.17084378
000070 5e 00 11 bd 2f 2f f2 bc 90 2a f3 bd 67 92 26 bc
       -0.03540074 -0.029563515 -0.118733525 -0.010166741
000080 0b a0 1d be b3 a1 06 3d 15 a6 1c bd 91 83 3c be
       -0.15393083 0.032869052 -0.038244326 -0.18409564
000090 62 14 10 be 57 cb 89 bd e3 2d 5c be 87 f9 2f 3d
       -0.14070275 -0.06728237 -0.2150188 0.042962577
0000a0 f0 e7 81 bd 95 e9 c5 bd 14 be f5 bd a5 93 ac bd
       -0.06343067 -0.09663693 -0.11999145 -0.084265985
0000b0 c2 ca 5f bd 72 56 0c bd 44 02 64 3c d7 aa 64 bd
       -0.054636724 -0.03426213 0.013916556 -0.055826988
0000c0 8c 3a 50 bd 16 c9 8d bd 93 8d 55 be 6d e0 49 be
       -0.050837085 -0.0692312 -0.20854788 -0.19714518
0000d0 2c 04 23 be 31 0c 05 bd fe 92 f8 bc d2 87 7a bd
       -0.1591956 -0.03248233 -0.030343529 -0.061164685
0000e0 d6 44 fb bd f4 f4 c3 bd af 1c f6 3d 0a 6a b5 bd
       -0.12268989 -0.095682055 0.1201719 -0.08858116
0000f0 56 7b f3 bb f4 ba fe bc b8 a0 75 3c 30 e6 44 bd
       -0.0074304743 -0.031095006 0.014991932 -0.048071086
000100 dd b4 af bd 89 7b 11 be e5 46 6b 3d 0b 0c 4e bd
       -0.08579419 -0.14207281 0.057440657 -0.050304454
000110 ea 9d b0 3b 90 37 bd bd 4d e1 64 3e 5e af 2d be
       0.0053899186 -0.09239113 0.2235157 -0.16961429
000120 50 a7 e5 bb 5b 5a 6d 3d 9c 7e a3 bd 34 3d 98 bd
       -0.0070084706 0.057947498 -0.07983133 -0.074335486
000130 6d 9f a6 bb 4b 25 66 3d 9c 1e 9e bd 78 a6 1e be
       -0.005084923 0.05618791 -0.07720682 -0.1549319
000140 49 7e eb bd b8 3b 77 be 2c 69 a2 bd 8e 6e 48 3d
       -0.11498696 -0.24143875 -0.07930216 0.04893356
000150 67 e5 e1 bd c1 44 e3 bc 40 69 18 be 3f db 0f bc
       -0.11030083 -0.027742745 -0.148839 -0.0087803
000160 fe 67 a2 3d c9 8d 98 3d bb fb fe b9 78 d6 e7 3c
       0.07929991 0.07448918 -0.0004863421 0.028300509
000170 84 3b 84 3d 96 e8 b9 bd 3d 2e b5 bc 47 83 90 bc
       0.06456664 -0.09077565 -0.022116775 -0.017640723
000180 fd 8a a2 bd dd 08 6e 3d 16 08 9a 3c 50 11 9c bd
       -0.07936666 0.05811392 0.018802684 -0.076204896
000190 14 35 17 bd 39 be 5c bc 98 0e 92 bd 55 be 14 bd
       -0.036915854 -0.013473087 -0.0713169 -0.036314327
0001a0 d0 70 b9 bd 83 80 b9 bc e9 ce 1c bd 2a fe 62 3e
       -0.090547204 -0.022644287 -0.038283262 0.22167268
0001b0 77 30 b2 bd d8 c7 1f 3d 85 6b 9b 3d ed 08 d1 3d
       -0.0870065 0.039008945 0.07588867 0.102067806
0001c0 15 b9 95 bd a0 fa 75 3d b7 e7 d2 bd 5a 1a 7d 3c
       -0.07310692 0.060053468 -0.10298102 0.015448177
0001d0 8c 73 d5 bc e2 36 6f 3c 4f 07 58 be f8 54 94 bd
       -0.026056074 0.014600487 -0.21096538 -0.07242769
0001e0 55 64 b8 bc c7 8b d8 bd 32 57 81 3e 51 aa c2 bd
       -0.02250878 -0.105735354 0.25261837 -0.095051415
0001f0 41 b5 17 be 77 2f ef bd 47 ce 69 bd 0a eb cf bd
       -0.14815237 -0.11678975 -0.057081487 -0.10152252
000200 dd aa 71 3c fb 7a 83 bb 10 68 e7 bc 87 d6 8f bd
       0.01475021 -0.004012463 -0.028247863 -0.0702334
000210 41 0d c3 bc ad cb 50 bd 98 ac c4 bb ee d0 85 3d
       -0.02381003 -0.05097549 -0.00600202 0.06533991
000220 a9 0f ad bd 33 92 8b bc a9 74 04 3d 3b 3d 70 3d
       -0.084502526 -0.017037487 0.03233782 0.058652144
000230 6d b5 bb 3c 90 1f 88 bc 2f d0 10 3d fa 25 2a be
       0.022913659 -0.016616613 0.03535479 -0.1661605
000240 b5 a6 93 bd 8c 8c 02 bc d5 af a5 bd ee 45 f1 bd
       -0.07209531 -0.007968079 -0.08090178 -0.11780916
000250 9f c4 9d bd 02 4a 55 3d a1 34 3c bd f8 b1 39 bd
       -0.07703518 0.052072532 -0.04594863 -0.04533574
000260 49 76 65 bd 48 8d 0f bd b9 b5 b8 3d 44 ee 92 be
       -0.05602101 -0.035046846 0.09019036 -0.28697407
000270 c5 80 68 bd 68 a6 d0 bd a7 98 c0 bd 51 82 b6 bc
       -0.05676343 -0.101879895 -0.09404116 -0.022278937
000280 20 3b ff bc d9 37 a0 3b 4e 80 72 bc a9 45 96 3b
       -0.031156123 0.00488947 -0.014801098 0.004585941
000290 87 f3 b7 bc 42 90 d0 bd 5a ce 9e bd 2d 85 88 bd
       -0.02245499 -0.10183765 -0.07754202 -0.06666026
0002a0 96 06 af bd e1 d4 44 bd b2 d0 0f bd da 41 d8 3c
       -0.08546178 -0.04805458 -0.035111137 0.026398588
0002b0 17 f8 1d 3d b4 a2 44 bc 0f f8 c1 bd 95 5b 0d bd
       0.038566675 -0.012001682 -0.094711415 -0.034511168
0002c0 29 52 6c 3b 7f 15 4f 3b 2a 0b 0e be a6 73 2f be
       0.0036059713 0.0031598506 -0.13871446 -0.1713396
0002d0 56 43 30 3d 83 08 87 3d d0 2a 56 bc 1d ee 93 bd
       0.043032967 0.0659342 -0.013071731 -0.07223151
0002e0 ae e0 87 bd 93 af a5 3d 31 99 c7 bd 88 78 c1 bc
       -0.06634651 0.08090129 -0.09746016 -0.023617044
0002f0 b1 1a 2f be e4 5f ef bc 6b 47 f5 bd 6c 4b 5b 3d
       -0.17100026 -0.029220529 -0.119765125 0.053538725
000300 32 36 c8 bd a2 8b 0a bd d4 1f b2 bd dd 93 3f be
       -0.09775962 -0.03382457 -0.08697477 -0.18708749
000310 49 6b 86 bd 0c 89 6e bd fe 9b 8e 3d ac 34 fd bc
       -0.06563432 -0.058236167 0.06963347 -0.030908905
000320 74 9f 15 3c 19 cb 09 bd 5f bf 5f 3a 93 8d b1 3d
       0.009132255 -0.033640955 0.00085352914 0.08669581
000330 1c 2c 9e bd e7 4c 53 3d 83 1d 97 bd bd 6f 0b be
       -0.07723257 0.05158701 -0.07378676 -0.13616844
000340 c5 c2 00 be ae 8a b9 be 73 b1 d7 bd 74 12 6c bd
       -0.12574299 -0.36238617 -0.10531893 -0.057634786
000350 16 54 11 bd 88 1f d4 3b 28 50 94 bd 05 eb 2a 3d
       -0.03548058 0.0064734854 -0.07241851 0.04172804
000360 b1 ac 70 bd 17 38 8f bd 71 e0 09 bd b2 32 aa bd
       -0.05875844 -0.0699312 -0.03366131 -0.083104506
000370 9b 07 19 be 34 7c 98 bd df 87 5d bd 58 46 0d bd
       -0.14944308 -0.07445565 -0.054084655 -0.034490913
000380 e3 fe b8 bd 1c 84 bb bd 49 dc be bd 38 2b 4b 3d
       -0.09032991 -0.09156057 -0.0931936 0.049601763
000390 19 f6 b1 bd dd b7 b2 bd 9f 53 e1 bc 1a f5 4b bc
       -0.086895175 -0.087264754 -0.027505694 -0.0124485735
0003a0 50 19 81 3a 8f e4 fa bc cb 02 e5 bc 6a 02 da bd
       0.0009849463 -0.030626563 -0.027955433 -0.10644992
0003b0 56 66 dd 3d 52 f8 7c bd 14 fc d0 bd 81 9f c5 3c
       0.10810535 -0.061760254 -0.1020433 0.024123909
0003c0 58 3c 56 bc dd 68 f7 bc 61 d4 ca bb fe 7b fb 3c
       -0.0130759105 -0.03020137 -0.0061898683 0.030698773
0003d0 f7 21 41 bc d0 09 18 bc 3e 6e 5a 3c 44 c4 69 bd
       -0.011787883 -0.009279683 0.013331948 -0.05707194
0003e0 62 65 13 3d b2 b8 c4 bd d9 80 1b bc 48 2f 91 bb
       0.035985358 -0.0960554 -0.009491169 -0.004430685
0003f0 ad c0 ef 3c 64 cd d4 bd 2d a7 89 bc 73 ee bb bd
       0.02926668 -0.10390738 -0.016803348 -0.0917634

fc.weight f4 [1, 128]
000000 65 02 bd 3d bf 17 d0 3d 9a b0 21 be 41 2b 01 3d
       0.09228972 0.10160779 -0.15790024 0.03153539
000010 df 28 92 bd ac f0 39 bc 58 e0 de 3d c7 e2 ad bd
       -0.07136702 -0.011348885 0.10882634 -0.0849052
000020 12 4e 2b bd 2e 53 3b 3e 19 c1 a6 bd 5a 37 00 be
       -0.0418225 0.1829345 -0.08142299 -0.12521115
000030 79 34 92 bd ba e5 28 be 25 9e e4 bc 4f 8c b3 bc
       -0.071389146 -0.16493884 -0.02790744 -0.02191749
000040 e9 d6 fc bd ec 12 0a 3e 5f 1b 86 bd 80 a1 00 be
       -0.12345678 0.1348378 -0.06548189 -0.12561607
000050 48 72 95 3c 54 fe b8 3d a9 92 0f 3e e7 cb 10 bd
       0.01824297 0.09032884 0.1402079 -0.035350706
000060 2a ad c1 3d 54 2c ef bd 70 61 cb bd 2b 33 74 3e
       0.094568565 -0.11678377 -0.09930694 0.23847644
000070 e1 63 f6 bd 12 a2 e4 3d 69 6f aa 3d 01 07 11 3e
       -0.12030769 0.11163725 0.08322031 0.14162828
000080 43 e9 01 be c0 16 74 bd 4a 3d 0c be 4d e4 65 3c
       -0.12686639 -0.05959201 -0.13695255 0.014031482
000090 f9 c4 96 3d 92 f9 de 3d 7a 15 95 3d 61 70 cb 3d
       0.07361788 0.108874455 0.07279487 0.09933544
0000a0 3c aa 1e 3e 99 72 85 3d da 18 ca 3d 61 a5 a4 bd
       0.15494627 0.065159984 0.09868021 -0.08039356
0000b0 69 4f 76 bd 4c ef d2 3d 5c 10 29 3d 48 07 b7 3d
       -0.060134325 0.102995485 0.041275367 0.08936936
0000c0 e5 41 c1 3d 44 29 e2 bc 06 f9 4a bd 12 8c c9 3c
       0.094363965 -0.027607568 -0.049553894 0.024602924
0000d0 02 21 99 3d a1 20 02 3e 0d 8f f3 3d 78 d4 0e 3d
       0.07476999 0.1270776 0.11892519 0.034870595
0000e0 7f 97 f4 bd f8 aa be bd d7 f4 31 3e a0 88 9c 3d
       -0.11942958 -0.093099535 0.17378555 0.07643247
0000f0 a8 de ba 3d 22 8e 34 be a7 ca 2b be 0e 96 65 bd
       0.091244996 -0.17632344 -0.16776524 -0.056051306
000100 9f 76 07 be 82 fb c8 3d 7a 22 30 3e b5 7a 31 3c
       -0.13228844 0.09813596 0.17200652 0.010832478
000110 32 17 f3 3d 72 23 8f 3d c6 74 59 be 00 89 56 bd
       0.118696585 0.069891825 -0.21235952 -0.052376747
000120 5f a2 0b 3e 55 0e f6 bd e8 e1 e7 3c d2 0a ed bd
       0.13636158 -0.12014452 0.028305963 -0.115743294
000130 e4 d2 ae bd b2 90 02 be 41 39 fd 3d 5b 58 9b bb
       -0.08536318 -0.1275051 0.12364436 -0.0047407574
000140 75 32 7b 3c 0c d4 18 be f0 e3 be bd a1 fa 32 be
       0.015331854 -0.1492464 -0.093208194 -0.1747842
000150 43 6b 06 3e f5 37 be bd 04 2e 18 be 3e 7b a6 3d
       0.13126855 -0.09288017 -0.14861304 0.08128975
000160 61 ce 42 3e ef 05 06 3e a0 df c0 3d a9 fb 26 be
       0.1902404 0.13088201 0.09417653 -0.16306938
000170 7a 53 0c 3e e6 94 a7 bd f1 e3 ff bd ec 72 53 3e
       0.13703719 -0.08182697 -0.12494648 0.20649308
000180 c5 1f 8a 3d c9 9c 17 3e e8 47 43 3e a2 33 f5 3d
       0.06744341 0.14805903 0.19070399 0.11972739
000190 83 f3 98 3d 7f 28 75 3d c3 fb 1f be 28 0a d8 3d
       0.07468321 0.059853073 -0.15623383 0.10548812
0001a0 1e be fc bc 4b 49 0e 3d a0 df c7 bd b8 af 54 be
       -0.030852374 0.034737866 -0.0975945 -0.20770156
0001b0 de 5f e2 3d a5 22 ca bd e3 4f db bd 60 1a 33 3e
       0.110534415 -0.09869889 -0.107085966 0.1749053
0001c0 20 7d 8f bd c6 f4 1e 3e c4 0c 8a bd 7e 13 29 3e
       -0.070062876 0.15523061 -0.06740716 0.16511342
0001d0 d8 01 05 3e 04 b0 6c 3d 9d 1f 9e 3d c1 f6 c8 bd
       0.12988985 0.05778505 0.077208735 -0.098126896
0001e0 ae 7e 1c 3e 6a 65 fe 3d cc b3 35 be 06 d7 89 3b
       0.152827 0.12421687 -0.17744368 0.004206541
0001f0 34 bc 87 3d a4 b8 af 3c ec 21 75 bd 92 cc f2 bd
       0.06627694 0.021450348 -0.059846804 -0.11855425
