best_model.pth (torch, 71929 bytes, 5 tensors)

lstm.weight_ih_l0 f4 [256, 1]
0.45025188 0.069183156 0.21526934 0.23532225 -0.01780774 -0.078875795 0.040183056 0.031589646
-0.090294234 -0.067838244 -0.091239884 0.026690314 0.09984096 -0.13304095 0.0021171384 -0.19454947
0.12214173 -0.06532512 -0.26135847 -0.10674872 0.28368986 0.09126624 -0.07654225 -0.14347298
0.040852662 -0.047226354 -0.052073497 -0.09972434 0.034168433 -0.08069868 -0.047143564 0.02033145
0.052938133 0.0074135456 -0.034888484 0.03940592 -0.020928746 -0.14936532 -0.12967747 0.11107492
-0.09538121 -0.026696647 0.10897141 0.16549297 -0.051793355 0.00035185704 -0.007017918 -0.07890157
0.13353904 0.05760073 0.080130234 0.02640256 -0.042252187 0.14911968 0.0958211 0.015188937
0.1736102 0.2712235 -0.0840122 -0.01416137 0.05413277 0.10721118 0.06191023 -0.15150216
0.27570543 0.08413008 0.12215328 0.18149461 -0.08762348 -0.046226483 -0.05399364 -0.016551714
-0.07737022 0.050486032 -0.021827016 -0.10857988 -0.023896867 -0.31038323 -0.14722596 -0.13880107
0.1563825 -0.06395572 -0.117989086 -0.13338324 0.20827435 0.005761939 -0.039744627 -0.3244935
-0.13805903 0.080288805 -0.10837694 -0.0027270326 -0.08709806 0.0083533265 -0.22303829 0.09012337
-0.07274006 -0.063221954 0.11812264 -0.124799654 -0.18312435 -0.33075318 -0.04568851 0.116896585
-0.14309847 -0.11964188 -0.015692754 0.07973597 0.0232462 -0.11298801 0.0053761187 -0.31004244
-0.1616121 0.055266812 -0.0031765634 0.0892445 0.10340048 0.046116997 -0.14878272 -0.4350707
-0.09209025 -0.077593155 -0.123422615 -0.019180581 0.03380551 0.013607166 -0.38465536 -0.2850237
0.26618198 0.01225917 -0.19626509 -0.12261541 -0.11699524 0.06955378 -0.031370495 -0.09598442
0.101398595 -0.1081623 -0.007025609 0.1119011 0.042573158 0.23627843 0.0756361 -0.37836793
0.02568681 0.039963026 -0.08890697 3.1128002e-06 0.24043667 -0.017743755 -0.12910599 0.29010305
0.046409097 0.032847386 -0.078055754 -0.04361676 -0.22168486 -0.025230557 -0.4317677 -0.08942758
-0.038061593 0.040089685 -0.10664942 0.1353594 0.22800736 0.1939877 -0.14220935 0.035636842
-0.14034745 0.020623187 -0.014990777 0.06126956 -0.09032865 0.013626842 0.029305236 -0.14325064
-0.08947361 -0.022749057 0.08731369 -0.10388049 -0.08692189 -0.028239794 -0.24747387 -0.40831393
0.069492646 0.16235632 -0.016411636 0.10073706 -0.01880468 -0.087283514 -0.4718781 -0.08127028
0.43628094 -0.068228915 0.34533352 0.3352482 -0.14798363 -0.1970678 0.10087094 0.0220776
-0.12327908 0.022574956 0.054070204 0.0021444396 -0.004486789 -0.22207366 -0.05344234 -0.15610471
0.105812244 0.030321576 -0.12951906 -0.12399735 0.26436588 0.063681796 -0.15787861 -0.17018184
-0.006418093 0.0042002774 -0.19760686 0.042461116 0.22699812 -0.13411827 -0.22134167 -0.06630479
0.04972233 0.2106223 -0.11338454 0.057891402 -0.121315345 -0.25756544 0.07276743 -0.09700262
-0.072807774 0.13243759 -0.0024740594 0.054515846 -0.046009403 0.057131838 0.09346844 -0.010149149
-0.0019277729 -0.13769987 -0.15270507 -0.109531775 -0.100680284 -0.022648966 -0.18621872 -0.24877289
0.2333018 -0.038324624 -0.14346917 -0.053193234 0.051781397 -0.093470395 -0.045362845 -0.02823567
00000000: 6a87 e63e e6af 8d3d 916f 5c3e 51f8 703e
00000010: 8ae1 91bc a289 a1bd fd96 243d 2564 013d
00000020: 2fec b8bd c7ee 8abd fadb babd a5a5 da3c
00000030: 6b79 cc3d e33b 08be b0bf 0a3b fa37 47be
00000040: 7125 fa3d 2dc9 85bd c7d0 85be 139f dabd
00000050: cc3f 913e cbe9 ba3d 2fc2 9cbd 95ea 12be
00000060: 1f55 273d 6c70 41bd 054b 55bd 463c ccbd
00000070: 33f4 0b3d 5945 a5bd 9c19 41bd 248e a63c
00000080: a8d5 583d 54ed f23b 3ae7 0ebd 1a68 213d
00000090: c372 abbc 39f3 18be 2cca 04be 3f7b e33d
000000a0: 3957 c3bd edb2 dabc 672c df3d fd76 293e
000000b0: 4525 54bd 7479 b839 90f6 e5bb 2597 a1bd
000000c0: 75be 083e beee 6b3d 521b a43d 2e4a d83c
000000d0: a110 2dbd d4b2 183e da3d c43d 05db 783c
000000e0: dfc6 313e cedd 8a3e 970e acbd 1705 68bc
000000f0: 53ba 5d3d 8991 db3d 9595 7d3d 6223 1bbe
00000100: 4329 8d3e 644c ac3d 802b fa3d b9d9 393e
00000110: f073 b3bd fb57 3dbd 6f28 5dbd 7697 87bc
00000120: 4774 9ebd 71ca 4e3d 92ce b2bc 215f debd
00000130: 5dc3 c3bc 8dea 9ebe 67c2 16be de21 0ebe
00000140: bc22 203e 37fb 82bd 43a4 f1bd 9e95 08be
00000150: df45 553e a6ce bc3b 43cb 22bd 0324 a6be
00000160: 595f 0dbe 756e a43d bbf4 ddbd 04b8 32bb
00000170: 7860 b2bd 64dc 083c 2664 64be 9a92 b83d
00000180: bef8 94bd 837a 81bd 48ea f13d f696 ffbd
00000190: f384 3bbe 7b58 a9be e023 3bbd 7a67 ef3d
000001a0: 6888 12be cd06 f5bd 178e 80bc 9d4c a33d
000001b0: d16e be3c 4266 e7bd 272a b03b e2bd 9ebe
000001c0: a47d 25be 745f 623d e42d 50bb d2c5 b63d
000001d0: a1c3 d33d 2de5 3c3d 7f5a 18be 96c1 debe
000001e0: d099 bcbd 29e9 9ebd ffc4 fcbd 9820 9dbc
000001f0: a577 0a3d 97f0 5e3c 8cf1 c4be a0ee 91be
00000200: 0149 883e b0da 483c b7f9 48be ca1d fbbd
00000210: 339b efbd 3672 8e3d 597e 00bd 7b93 c4bd
00000220: 11aa cf3d 3284 ddbd 1437 e6bb 672c e53d
00000230: 3161 2e3d f9f2 713e 19e7 9a3d 71b9 c1be
00000240: 256d d23c 45b0 233d dc14 b6bd 80e5 5036
00000250: 0835 763e 5a5b 91bc 5c34 04be 6388 943e
00000260: 7717 3e3d fb8a 063d b2db 9fbd 7da7 32bd
00000270: 5b01 63be 50b0 cebc a810 ddbe cf25 b7bd
00000280: 79e6 1bbd 1535 243d 036b dabd a89b 0a3e
00000290: c37a 693e b6a4 463e 549f 11be f0f7 113d
000002a0: 3eb7 0fbe f5f1 a83c e09b 75bc caf5 7a3d
000002b0: 3afe b8bd 1e43 5f3c 8911 f03c 4cb0 12be
000002c0: f13d b7bd 3b5c babc 85d1 b23d 4bbf d4bd
000002d0: 1b04 b2bd 2457 e7bc ca69 7dbe 860e d1be
000002e0: 2952 8e3d bc40 263e b271 86bc 3b4f ce3d
000002f0: 460c 9abc b3c1 b2bd 029a f1be 0871 a6bd
00000300: 3760 df3e 9abb 8bbd 8ecf b03e a7a5 ab3e
00000310: 0589 17be 24cc 49be 6c95 ce3d 15dc b43c
00000320: be79 fcbd 1def b83c b878 5d3d ba89 0c3b
00000330: ea05 93bb 4767 63be 5be6 5abd ead9 1fbe
00000340: 17b4 d83d f464 f83c a5a0 04be 53f2 fdbd
00000350: f75a 873e 9a6b 823d eeaa 21be 2644 2ebe
00000360: de4e d2bb 7ba2 893b 7459 4abe b5eb 2d3d
00000370: 3272 683e 4d56 09be 64a7 62be ceca 87bd
00000380: a4a9 4b3d 5fad 573e 2736 e8bd 891f 6d3d
00000390: 2e74 f8bd 9edf 83be 1707 953d 4fa9 c6bd
000003a0: 3e1c 95bd b89d 073e d423 22bb 024c 5f3d
000003b0: 5b74 3cbd 1303 6a3d 626c bf3d 9e48 26bc
000003c0: 53ad fcba 3201 0dbe b85e 1cbe 3252 e0bd
000003d0: 7731 cebd 538a b9bc 1fb0 3ebe 52be 7ebe
000003e0: abe6 6e3e 48fa 1cbd 95e9 12be 26e1 59bd
000003f0: bb18 543d 686d bfbd 64ce 39bd 7e4e e7bc

lstm.weight_hh_l0 f4 [256, 64]
-0.009201866 -0.0112572145 -0.062167067 -0.14081345 -0.050927613 0.0044197333 0.14554141 -0.045344546
0.03216747 -0.11501769 -0.16777903 -0.047780618 0.011997628 -0.35013363 0.19776775 -0.0017621462
0.07368552 -0.1299553 0.20600511 0.12685986 -0.019425225 0.18114074 -0.038577795 -0.2757801
-0.360813 0.06456186 0.024087807 0.18505017 0.05308902 0.031200603 0.1570528 0.07705278
-0.1656716 0.023650099 0.005643765 0.38493174 0.044379067 -0.23432009 -0.06563841 0.03519518
-0.1897794 0.28332388 -0.19017005 -0.2702926 -0.011373232 0.09587771 0.116557196 0.14281608
0.29709047 -0.20978895 0.11338672 0.24056764 0.0027902983 0.033132993 0.28732568 0.16650437
0.017291304 -0.2627528 0.13507658 0.095722176 -0.0308374 -0.006131045 0.021083808 0.115201786
-0.0120529635 -0.1020291 -0.12058592 0.019991627 0.014018856 -0.09037601 0.075921535 0.10231772
0.042639926 -0.117872335 0.09502419 -0.02967246 -0.03854112 0.09172218 0.06558905 -0.18470831
0.13248624 0.08261861 -0.13150156 -0.027440337 0.0045653526 -0.055721834 -0.15649363 0.11948443
0.11287938 -0.06302914 0.023568291 0.06698141 -0.018575614 -0.07196496 -0.2082662 -0.013296104
0.10573601 0.1577138 0.08209928 -0.08317758 0.030580863 -0.043548055 -0.10051922 -0.110164285
-0.030320413 -0.0010609466 -0.12539223 -0.04139228 0.10520419 0.04916696 0.0392271 -0.06439739
-0.02910737 -0.1223017 0.04149066 0.101099685 -0.103582434 -0.018663311 -0.10649894 -0.12420083
0.03365908 0.15404768 0.04354364 -0.025123326 -0.028955467 0.065004915 -0.10782566 -0.12778784
-0.13350785 0.048483793 0.07594327 0.006275284 -0.013349233 0.01820321 -0.04671008 -0.04694066
0.0387297 -0.06660617 -0.109109424 -0.09804275 0.06478437 0.003597159 0.15695427 0.09522012
-0.056630626 -0.016398527 -0.11094451 0.17851436 -0.09937807 -0.079627104 -0.020286648 -0.13867916
-0.17235932 -0.042306975 0.06996969 0.01895388 -0.0141120255 0.027078336 -0.040767528 -0.07307615
-0.08549932 0.080852926 -0.024118844 0.15547074 0.051158495 -0.20105371 -0.09526136 0.16318892
0.044400934 0.049786676 0.030925551 0.007179867 0.00931452 0.11402514 -0.13333139 0.05744762
-0.05194179 -0.033354755 -0.07915303 0.019258197 0.013947457 -0.027445976 -0.021256305 0.12288334
-0.039056756 -0.0017492161 0.11528965 0.15736581 0.09090177 0.054443706 0.17088 -0.04474919
-0.19142538 -0.0023190656 0.09195108 0.034887113 -0.07427536 0.057918377 -0.025131674 -0.06551929
-0.049857497 0.017267175 -0.07270529 -0.019616846 -0.055214353 -0.23948401 0.08694368 0.026047057
0.05128553 -0.0034916885 -0.011147879 0.03870547 -0.17579739 0.03651649 -0.048662327 -0.24401414
-0.28884324 0.010086245 -0.050368983 0.0036923145 0.2408932 -0.009792305 0.08991775 -0.007381067
0.0994527 -0.023686137 -0.013392643 0.04393533 0.029927338 -0.10953897 -0.023767501 -0.06639988
-0.021500561 0.051083528 -0.12814291 -0.038996313 0.0004259555 0.08143199 -0.15344197 0.08712261
0.18025471 -0.11805266 -0.0030587842 0.17443566 0.024394538 -0.089613505 0.073244676 0.15884747
-0.06691294 -0.14289671 -0.06798256 -0.038189046 0.019151464 0.11229524 0.24012734 0.064870924
00000000: 6cc3 16bc 2e70 38bc e5a2 7ebd 6731 10be
00000010: 7999 50bd 69d3 903b cf08 153e 34bb 39bd
00000020: 09c2 033d 658e ebbd 44ce 2bbe 9cb5 43bd
00000030: b391 443c b744 b3be a183 4a3e d1f7 e6ba
00000040: 6fe8 963d 0113 05be 01f3 523e 8de7 013e
00000050: a621 9fbc f57c 393e c003 1ebd 0d33 8dbe
00000060: 7bbc b8be 0239 843d cb53 c53c cb7d 3d3e
00000070: df73 593d 6898 ff3c 73d2 203e d9cd 9d3d
00000080: d1a5 29be dabd c13c 55ef b83b c615 c53e
00000090: d3c6 353d 9bf1 6fbe 6e6d 86bd d228 103d
000000a0: 8855 42be d40f 913e f0bb 42be cb63 8abe
000000b0: cb56 3abc 885b c43d 8ab5 ee3d 613e 123e
000000c0: 3e1c 983e ead2 56be 4c37 e83d 5d57 763e
000000d0: 70dd 363b 76b6 073d 5a1c 933e 1f80 2a3e
000000e0: 7ea6 8d3c 8987 86be 8451 0a3e fd09 c43d
000000f0: b79e fcbc efe6 c8bb f3b7 ac3c eaee eb3d
00000100: cb79 45bc a2f4 d0bd c0f5 f6bd 7bc5 a33c
00000110: 58af 653c 0f17 b9bd c07c 9b3d f48b d13d
00000120: 34a7 2e3d 0d67 f1bd 0b9c c23d a913 f3bc
00000130: 4bdd 1dbd d7d8 bb3d 8d53 863d 2d24 3dbe
00000140: 79aa 073e f233 a93d 58a8 06be 8fca e0bc
00000150: f498 953b 943c 64bd de3f 20be 41b4 f43d
00000160: 4e2d e73d 6c15 81bd 4a12 c13c 8d2d 893d
00000170: e32b 98bc 5d62 93bd bc43 55be e7d7 59bc
00000180: 1f8c d83d ba7f 213e ab23 a83d 0259 aabd
00000190: b884 fa3c 725f 32bd 05dd cdbd d09d e1bd
000001a0: 8462 f8bc 760f 8bba d266 00be f48a 29bd
000001b0: 4b75 d73d 4b63 493d 98ac 203d c7e2 83bd
000001c0: 9472 eebc 5079 fabd 1cf2 293d 5a0d cf3d
000001d0: 0723 d4bd cde3 98bc 1e1c dabd 015d febd
000001e0: 1ade 093d adbe 1d3e d15a 323d 6fcf cdbc
000001f0: 0434 edbc 4c21 853d b3d3 dcbd d1da 02be
00000200: 48b6 08be f196 463d 2588 9b3d e6a0 cd3b
00000210: beb6 5abc e61e 953c 1253 3fbd d944 40bd
00000220: 09a3 1e3d d168 88bd c374 dfbd a3ca c8bd
00000230: abad 843d 50be 6b3b 9fb8 203e c402 c33d
00000240: 84f5 67bd 3456 86bc e036 e3bd 78cc 363e
00000250: bb86 cbbd 8913 a3bd 2f30 a6bc e901 0ebe
00000260: f67e 30be 144a 2dbd 454c 8f3d 2b45 9b3c
00000270: 2036 67bc 63d3 dd3c dafb 26bd f3a8 95bd
00000280: 441a afbd 3896 a53d e294 c5bc b933 1f3e
00000290: 928b 513d 06e1 4dbe 6318 c3bd ff1a 273e
000002a0: c1dd 353d 1ded 4b3d 9557 fd3c 1745 eb3b
000002b0: ee9b 183c 0386 e93d 0688 08be 324e 6b3d
000002c0: eac0 54bd ff9e 08bd fc1a a2bd 5ec3 9d3c
000002d0: e083 643c 62d6 e0bc b421 aebc 43aa fb3d
000002e0: faf9 1fbd f445 e5ba fb1c ec3d 8124 213e
000002f0: b52a ba3d 5d00 5f3d 2bfb 2e3e ed4a 37bd
00000300: 0405 44be 77fb 17bb d950 bc3d cae5 0e3d
00000310: ae1d 98bd d23b 6d3d f1e0 cdbc fa2e 86bd
00000320: 6037 4cbd e473 8d3c 83e6 94bd 82b3 a0bc
00000330: 7228 62bd 4c3b 75be 870f b23d a360 d53c
00000340: c710 523d d0d4 64bb 98a5 36bc a089 1e3d
00000350: 3b04 34be 5192 153d 2652 47bd d8de 79be
00000360: 43e3 93be c740 253c b54f 4ebd c2fa 713b
00000370: b5ac 763e e76f 20bc cc26 b83d e1dc f1bb
00000380: dbad cb3d 6e09 c2bc d16c 5bbc 88f5 333d
00000390: 2d2a f53c f855 e0bd 10b4 c2bc a9fc 87bd
000003a0: f221 b0bc f63c 513d e537 03be 99ba 1fbd
000003b0: c852 df39 d1c5 a63d e41f 1dbe 576d b23d
000003c0: b194 383e 98c5 f1bd e275 48bb 439f 323e
000003d0: 0ed7 c73c 4987 b7bd 4e01 963d e9a8 223e
000003e0: a709 89bd 8453 12be 713a 8bbd 1e6c 1cbd
000003f0: 88e3 9c3c 0cfb e53d f1e3 753e 0cdb 843d

lstm.bias_ih_l0 f4 [256]
0.06593509 -0.030853715 0.0060698595 -0.081174985 -0.06769723 -0.090878546 -0.0323202 -0.0017503182
-0.01037695 -0.02808015 0.009053087 0.089796305 0.052820485 0.044223066 0.15248184 0.10907172
-0.1655459 -0.09637888 0.050311115 0.00361908 0.11755992 -0.16375208 -0.013362009 0.024376502
-0.04890007 0.12383769 -0.077386566 -0.06406005 -0.118769616 0.030765567 0.16235933 0.012417066
0.055311017 -0.032131422 0.0013399285 0.07914028 0.10333847 0.14653403 -0.048847564 -0.088557735
0.1248686 -0.0072230846 -0.014774162 0.12816705 0.02844466 0.028294368 -0.02759598 0.17469332
-0.043244213 0.03183217 -0.006183095 0.09827274 -0.0058808425 0.065098085 -0.022086216 0.18499607
0.064719625 -0.06078659 0.101717114 -0.11943935 0.021239463 0.027587948 0.30549267 -0.015028927
-0.038873803 0.049232677 -0.023848077 -0.02618006 -0.0002930603 0.048580963 -0.1613716 0.1412671
0.056261946 0.06142006 -0.042988513 0.049189817 -0.08290841 -0.080339596 0.13479295 0.034869246
0.048061922 0.121764295 -0.1403406 0.112962335 -0.15358236 -0.09084417 0.08261552 0.02933664
0.07665597 -0.093230285 -0.09062514 0.06725666 -0.068565875 0.032154035 0.091111496 -0.1176644
-0.10108953 -0.04015121 0.124530874 -0.015615119 0.09712695 -0.0053369375 0.029398395 -0.09059771
0.030177243 -0.15070936 0.08590415 0.09666627 0.12774965 0.14374492 0.04619474 -0.047012307
-0.09026822 -0.09082599 0.010509558 0.14716674 0.05965514 0.104688145 -0.059401643 0.0091801835
-0.041655846 -0.1214586 0.09033389 0.0022218318 -0.034491416 0.09593922 -0.07302654 0.11097639
0.13768288 0.12646984 -0.12392882 -0.048735887 0.17153277 -0.042784933 -0.09606095 -0.11766237
-0.16208443 0.059708696 0.08982349 -0.050117243 -0.07475485 0.05312276 -0.049604814 0.035902444
0.016822305 0.06484596 0.05346863 -0.019504562 0.14529844 0.034024514 -0.03668163 -0.038879156
0.10648525 -0.020538237 0.12191493 0.087786876 -0.014744015 -0.111248195 -0.008694732 0.15787362
0.07190415 -0.019931167 0.15652998 -0.06893 -0.037845325 0.056401275 0.124612436 -0.16296488
0.0033902896 -0.03144697 -0.03585221 0.16360185 -0.1565832 -0.12096765 0.06280002 0.047228232
-0.0077860877 0.029696308 -0.17084706 -0.05521902 0.08183871 -0.028669527 -0.15725864 -0.07241203
-0.023231227 -0.038131185 -0.14930038 -0.13113353 -0.17041244 -0.038933653 0.052234586 0.04461459
-0.049793433 0.07346119 -0.048891574 0.082180865 0.07525909 0.040420014 -0.18725576 -0.009236386
0.073461816 0.05269974 0.034158673 -0.07308092 0.06992285 0.21061017 -0.03706383 0.1731998
0.072514705 -0.1317621 0.015945256 0.041991096 -0.07659275 0.04005044 -0.09041557 -0.025216112
0.08762363 -0.08395868 -0.0027759066 -0.13106929 0.08417278 -0.11976621 0.21899596 0.084447525
-0.024230557 -0.114050716 -0.03959365 -0.03901119 0.21655704 0.07622739 -0.08611334 0.054872088
0.106017046 0.12914848 -0.054956753 0.0051236236 -0.090648174 -0.07328683 -0.044465218 -0.09503267
-0.1413985 -0.0415796 -0.04240995 -0.0880994 0.06347419 0.12070313 0.09425489 0.07011888
-0.038419265 0.095438786 0.099462286 0.050708678 0.11505875 -0.102009214 0.24810335 -0.022318514
00000000: fa08 873d eec0 fcbc ace5 c63b 123f a6bd
00000010: d8a4 8abd 881e babd 3062 04bd ef6a e5ba
00000020: 1504 2abc 5808 e6bc 6653 143c 20e7 b73d
00000030: 4b5a 583d 3f23 353d 3324 1c3e fe60 df3d
00000040: dd84 29be 4a62 c5bd 0713 4e3d 162e 6d3b
00000050: 41c3 f03d a0ae 27be 54ec 5abc 3bb1 c73c
00000060: 714b 48bd 9d9e fd3d d97c 9ebd ea31 83bd
00000070: 7c3d f3bd 1208 fc3c 8641 263e f370 4b3c
00000080: ce8d 623d 3d9c 03bd 8aa0 af3a 4d14 a23d
00000090: 1fa3 d33d 040d 163e 6214 48bd c25d b5bd
000000a0: 1cbb ff3d a0af ecbb 540f 72bc 393e 033e
000000b0: c704 e93c 97c9 e73c f710 e2bc cee2 323e
000000c0: d820 31bd 7362 023d 8f9b cabb 3843 c93d
000000d0: 15b4 c0bb 2552 853d 27ee b4bc 9c6f 3d3e
000000e0: b98b 843d 5cfb 78bd 1051 d03d 9e9c f4bd
000000f0: 62fe ad3c 1f00 e23c 8969 9c3e e33b 76bc
00000100: 233a 1fbd 34a8 493d 0b5d c3bc 9177 d6bc
00000110: e3a5 99b9 d5fc 463d 993e 25be 53a8 103e
00000120: ed72 663d 9a93 7b3d b914 30bd 437b 493d
00000130: e2cb a9bd 1689 a4bd 2a07 0a3e 0ed3 0e3d
00000140: 94dc 443d 8f5f f93d 72b5 0fbe cc58 e73d
00000150: b244 1dbe 820c babd 5332 a93d 6553 f03c
00000160: cefd 9c3d 85ef bebd ac99 b9bd dcbd 893d
00000170: 446c 8cbd f3b3 033d aa98 ba3d 08fa f0bd
00000180: 0708 cfbd 9875 24bd 0b0a ff3d 8ed6 7fbc
00000190: 7fea c63d 7ae1 aebb e7d4 f03c 4b8b b9bd
000001a0: 4436 f73c 8e53 1abe 84ee af3d f7f8 c53d
000001b0: ced0 023e de31 133e b236 3d3d fa8f 40bd
000001c0: 8bde b8bd fa02 babd 4830 2c3c e1b2 163e
000001d0: f358 743d bd66 d63d 234f 73bd 7b68 163c
000001e0: 529f 2abd 49bf f8bd f900 b93d 279c 113b
000001f0: df46 0dbd c87b c43d f08e 95bd 9747 e33d
00000200: befc 0c3e 4f81 013e 65ce fdbd 489f 47bd
00000210: 49a6 2f3e 413f 2fbd 9abb c4bd f8f8 f0bd
00000220: 76f9 25be 1b91 743d 61f5 b73d bd47 4dbd
00000230: 1219 99bd 4097 593d 6b2e 4bbd 710e 133d
00000240: eece 893c f5cd 843d ec01 5b3d 08c8 9fbc
00000250: 1dc9 143e 4a5d 0b3d 7a3f 16bd c03f 1fbd
00000260: f014 da3d ce3f a8bc 89ae f93d 9bc9 b33d
00000270: e290 71bc 18d6 e3bd 5974 0ebc 9fa9 213e
00000280: 7c42 933d b046 a3bc 6549 203e 2c2b 8dbd
00000290: b303 1bbd 0605 673d ce34 ff3d 44e0 26be
000002a0: 9f2f 5e3b 8ace 00bd c4d9 12bd 3e87 273e
000002b0: 5957 20be e3bd f7bd 4c9d 803d 6472 413d
000002c0: 7022 ffbb ac45 f33c 88f2 2ebe 572d 62bd
000002d0: 0e9b a73d 5bdc eabc 6908 21be c24c 94bd
000002e0: 6a4f bebc 722f 1cbd 33e2 18be de47 06be
000002f0: 9980 2ebe e578 1fbd eff3 553d cabd 363d
00000300: 33f4 4bbd d272 963d 8842 48bd 714e a83d
00000310: 7021 9a3d 758f 253d f9bf 3fbe 3654 17bc
00000320: 2673 963d afdb 573d f7e9 0b3d 73ab 95bd
00000330: b633 8f3d 31aa 573e 3ed0 17bd 4a5b 313e
00000340: 9782 943d a5ec 06be a09f 823c dbfe 2b3d
00000350: a9dc 9cbd ee0b 243d cc2b b9bd 0592 cebc
00000360: 0574 b33d 87f2 abbd fceb 35bb 0737 06be
00000370: c762 ac3d fd47 f5bd 7a40 603e d3f2 ac3d
00000380: 297f c6bc 6c93 e9bd f32c 22bd 33ca 1fbd
00000390: 21c1 5d3e 1b1d 9c3d 315c b0bd 8ec1 603d
000003a0: 771f d93d 803f 043e 551a 61bd 12e4 a73b
000003b0: c0a5 b9bd 6817 96bd 2921 36bd 7da0 c2bd
000003c0: c5ca 10be 5f4f 2abd 0eb6 2dbd 756d b4bd
000003d0: c2fe 813d 3433 f73d b508 c13d 7d9a 8f3d
000003e0: 855d 1dbd 6975 c33d e2b2 cb3d e7b3 4f3d
000003f0: eca3 eb3d 35ea d0bd ce0e 7e3e 51d5 b6bc

lstm.bias_hh_l0 f4 [256]
-0.049182683 -0.08543776 0.055955306 0.079484716 0.13165896 0.124781884 -0.11108109 -0.0045980117
-0.032529484 0.101952806 0.085770324 0.12169104 0.028089052 0.10559195 0.017840011 0.114262834
-0.10101719 -0.06647196 -0.11580149 0.10449148 0.006069351 -0.08548048 0.10130067 0.05883647
0.016737428 -0.033709034 0.09627878 0.0815701 -0.019522434 0.03725318 0.19171065 0.034940083
-0.088036574 -0.14603259 -0.034014627 0.044483162 0.07167079 0.21172395 0.10785256 0.080627784
0.0516497 0.1818743 0.032829516 0.04353565 0.11714604 -0.031906586 -0.009686549 0.12622644
0.048242398 -0.07011462 0.09869755 0.08954716 -0.106965594 -0.0132271955 0.13843928 0.21956669
-0.08249266 -0.08422654 -0.0724449 0.01687244 0.15325035 0.058285337 0.09224285 0.08537572
-0.03566886 -0.07641426 0.026250461 -0.07833059 -0.0025730403 -0.064329796 -0.09197452 0.026998766
0.07484988 -0.03428883 0.05281205 0.08744851 0.05775254 -0.015304358 0.06645639 0.02622437
-0.16104008 0.09318412 -0.13574913 -0.06298173 -0.0023441904 -0.04612399 0.0011582545 -0.18609443
0.035751287 -0.009539121 -0.03149162 -0.069587216 -0.109662905 -0.06444376 -0.1027993 0.041078493
0.07565387 -0.03546918 0.02391123 -0.13297035 0.14660604 0.063070044 -0.09023043 0.04954489
0.086296305 0.03270152 -0.11848892 0.044607263 -0.05247016 0.08750235 -0.08922091 0.15528814
-0.04819197 -0.06734857 0.11763228 0.12748747 0.12172103 -0.039740983 0.017396135 -0.06657817
-0.025408039 0.048267093 -0.024026442 0.03252236 0.122008935 0.00014237725 -0.10824837 0.14588165
-0.013252137 0.07714253 -0.13328366 -0.010410489 0.016772935 -0.026288075 0.024010336 -0.1791542
-0.14156878 0.030939538 0.057338692 0.063523814 -0.08523695 0.15815794 -0.14360578 -0.054091837
0.014482086 -0.1085904 -0.056426235 -0.09586882 0.05347458 0.011396765 -0.00022874982 0.16769189
0.11241826 -0.115407266 0.06571553 -0.023962973 -0.06352429 -0.055520557 -0.09870691 -0.061281312
0.09228338 0.026273182 0.12366959 -0.04474238 0.054667618 0.058494452 0.13385107 -0.029965898
0.14938074 -0.18106341 0.13441932 0.042647455 -0.1813835 -0.14038007 0.13791478 -0.043293245
-0.017290749 0.124639824 -0.12813127 -0.1293391 0.033316262 -0.16381961 0.020553939 -0.047818344
0.031517163 0.16094464 -0.17070691 0.040550407 -0.08698262 0.09430221 -0.05704953 -0.020419044
0.038870715 -0.03638663 0.017433483 0.054607294 0.05878077 -0.12262122 -0.18106885 0.15425262
-0.05208051 0.09184744 0.1086973 -0.07490323 -0.0024275924 0.093801126 -0.0618933 0.014017783
-0.017667403 -0.058722496 -0.13025129 -0.017845454 0.08643326 -0.095008075 0.0036668782 0.13957924
0.112254106 0.016996788 -0.0027348683 0.0385025 -0.14503129 -0.0054446813 0.09032147 -0.033766747
0.029671405 -0.119502515 0.08523383 0.017772779 0.20828229 0.07147411 -0.043558136 -0.013787248
0.09949457 0.21530609 -0.08209211 -0.04050896 -0.041107133 -0.018642748 -0.047465388 -0.041073073
0.023058582 -0.07753927 0.0568851 -0.02452432 0.003617624 0.13390522 -0.072514646 0.15690911
0.08083287 -0.016068164 0.0705498 -0.089524366 0.021058327 -0.121148 0.21349642 0.08751036
00000000: c873 49bd fef9 aebd 6431 653d e2c8 a23d
00000010: 9bd1 063e a58d ff3d 7c7e e3bd ebaa 96bb
00000020: a33d 05bd a2cc d03d 5aa8 af3d 2739 f93d
00000030: 031b e63c 9840 d83d 3725 923c a202 ea3d
00000040: 1ae2 cebd 7322 88bd 5529 edbd a1ff d53d
00000050: 68e1 c63b 6410 afbd ba76 cf3d 83fe 703d
00000060: ee1c 893c 7c12 0abd cf2d c53d 390e a73d
00000070: 83ed 9fbc ca96 183d cc4f 443e 551d 0f3d
00000080: 854c b4bd 9189 15be ec52 0bbd fa33 363d
00000090: 23c8 923d 2ace 583e cee1 dc3d 2e20 a53d
000000a0: a38e 533d 423d 3a3e 3e78 063d 7052 323d
000000b0: 43ea ef3d 7bb0 02bd 55b4 1ebc 8141 013e
000000c0: d299 453d 4198 8fbd f121 ca3d 8064 b73d
000000d0: c710 dbbd e1b6 58bc 07c3 0d3e 17d6 603e
000000e0: e9f1 a8bd f77e acbd fe5d 94bd 1238 8a3c
000000f0: a9ed 1c3e 9bbc 6e3d d2e9 bc3d 77d9 ae3d
00000100: 8319 12bd 147f 9cbd 350b d73c ca6b a0bd
00000110: 74a0 28bb 57bf 83bd 235d bcbd 842c dd3c
00000120: e54a 993d 7272 0cbd 7351 583d 3418 b33d
00000130: ed8d 6c3d 21bf 7abc 4a1a 883d 7dd4 d63c
00000140: b1e7 24be 51d7 be3d d201 0bbe 91fc 80bd
00000150: fda0 19bb 82ec 3cbd 92d0 973a 8a8f 3ebe
00000160: f16f 123d f949 1cbc 5bfd 00bd be83 8ebd
00000170: f296 e0bd 17fb 83bd 7088 d2bd ec41 283d
00000180: 6bf0 9a3d 2248 11bd 7ce1 c33c 6129 08be
00000190: e51f 163e de2a 813d bbca b8bd 95ef 4a3d
000001a0: 1ebc b03d 07f2 053d 52aa f2bd 1bb6 363d
000001b0: f3ea 56bd 6f34 b33d 74b9 b6bd db03 1f3e
000001c0: f164 45bd 0cee 89bd 31e9 f03d 138c 023e
000001d0: e048 f93d 71c7 22bd 5782 8e3c 235a 88bd
000001e0: 8524 d0bc b7b3 453d 1ad3 c4bc 2b36 053d
000001f0: d2df f93d 1a4b 1539 52b1 ddbd 0062 153e
00000200: 7e1f 59bc e7fc 9d3d 837b 08be c190 2abc
00000210: 6567 893c 175a d7bc 53b1 c43c 3374 37be
00000220: 68f7 10be ea74 fd3c fadb 6a3d c618 823d
00000230: b690 aebd 28f4 213e 650d 13be 678f 5dbd
00000240: 4546 6d3c a564 debd 321f 67bd df56 c4bd
00000250: 2908 5b3d 7fb9 3a3c 90dc 6fb9 6cb7 2b3e
00000260: 8b3b e63d a55a ecbd dd95 863d ff4d c4bc
00000270: 0619 82bd 8669 63bd d926 cabd 1d02 7bbd
00000280: 12ff bc3d db3a d73c 7b46 fd3d c943 37bd
00000290: 27eb 5f3d e197 6f3d 4110 093e 0b7b f5bc
000002a0: 44f7 183e b068 39be 38a5 093e 19af 2e3d
000002b0: 99bc 39be cbbf 0fbe 8839 0d3e 4254 31bd
000002c0: 54a5 8dbc 2a43 ff3d d834 03be 7871 04be
000002d0: a276 083d 54c0 27be bc60 a83c 2bdd 43bd
000002e0: 2418 013d acce 243e cbcd 2ebe 2f18 263d
000002f0: f223 b2bd 8421 c13d c5ac 69bd d745 a7bc
00000300: e636 1f3d 260a 15bd aad0 8e3c e6ab 5f3d
00000310: 1bc4 703d d620 fbbd 1d6a 39be 66f4 1d3e
00000320: 5f52 55bd 831a bc3d b19c de3d dd66 99bd
00000330: 3e18 1fbb ce1a c03d d483 7dbd d8aa 653c
00000340: 3bbb 90bc 0087 70bd 9860 05be a130 92bc
00000350: ec03 b13d 9893 c2bd 0250 703b dced 0e3e
00000360: 7be5 e53d d93c 8b3c 7a3b 33bb ccb4 1d3d
00000370: 1583 14be 4c69 b2bb 76fa b83d 004f 0abd
00000380: 7211 f33c bcbd f4bd 138f ae3d 3898 913c
00000390: f447 553e 0561 923d 046a 32bd e9e3 61bc
000003a0: cfc3 cb3d 3379 5c3e e81f a8bd b9ec 25bd
000003b0: f45f 28bd adb8 98bc 116b 42bd 3d3c 28bd
000003c0: 5ae5 bc3c e9cc 9ebd 5a00 693d 3ae7 c8bc
000003d0: a915 6d3b 731e 093e 8f82 94bd c8ac 203e
000003e0: b48b a53d 62a1 83bc 6a7c 903d 8d58 b7bd
000003f0: 8382 ac3c 711c f8bd ce9e 5a3e a238 b33d

fc.weight f4 [1, 64]
0.05044462 -0.09228716 -0.00076245226 -0.1606006 -0.1302663 0.09698731 -0.036099605 0.13417861
0.1680599 -0.096284896 -0.119959585 -0.04404292 0.07653965 -0.026151812 0.15939552 -0.14852987
0.10460543 -0.0031860517 -0.036511354 0.055214085 0.060957175 0.017489556 -0.066568255 0.11218655
-0.18307315 0.010846394 -0.1087743 -0.023206707 -0.1684394 0.1007992 -0.116025254 -0.115782596
-0.09404659 0.09562906 -0.068650626 0.19533516 0.18517447 0.04694261 -0.100077316 0.09039985
-0.12631549 0.19600117 -0.11725165 -0.14911462 0.1292449 0.0656676 -0.029266724 -0.11315702
0.034940813 -0.100539245 0.1267742 0.061142605 -0.06960188 0.084497735 -0.062002208 -0.1481222
0.17448595 -0.08443588 0.16420947 0.098629706 0.09958993 -0.04013972 -0.1951413 -0.10700826
00000000: 059f 4e3d 0d01 bdbd 4edf 47ba 7c74 24be
00000010: 8764 05be 48a1 c63d 2edd 13bd 1e66 093e
00000020: e517 2c3e 0431 c5bd 5fad f5bd 5966 34bd
00000030: d2c0 9c3d 533c d6bc 9438 233e 3718 18be
00000040: 5f3b d63d 14cd 50bb ee8c 15bd 2a28 623d
00000050: 3bae 793d 4246 8f3c f054 88bd 10c2 e53d
00000060: 8777 3bbe 13b5 313c 0fc5 debd fe1b bebc
00000070: 617b 2cbe d06f ce3d a69e edbd 6d1f edbd
00000080: 809b c0bd 2bd9 c33d b398 8cbd f105 483e
00000090: 609e 3d3e e546 403d 56f5 ccbd 8e23 b93d
000000a0: d958 01be 88b4 483e a221 f0bd 81b1 18be
000000b0: c658 043e bc7c 863d c5c0 efbc debe e7bd
000000c0: 191e 0f3d 85e7 cdbd 19d1 013e ab70 7a3d
000000d0: 6e8b 8ebd 260d ad3d 07f6 7dbd 59ad 17be
000000e0: 72ac 323e b8ec acbd 8726 283e 5ffe c93d
000000f0: cef5 cb3d 8c69 24bd 1fd3 47be 2627 dbbd
