best_model_LSTM.pth (torch, 204428 bytes, 9 tensors)

lstm.weight_ih_l0 f4 [256, 1]
00000000: 1421 a73e 00c7 923e 054b 093c 3f3b 2dbd
00000010: 5991 e7bd b7c7 8f3e d8c0 55bd 2bff 12be
00000020: 74ec 3dbd 03e7 d53d cc2b ce3e 72b5 1cbe
00000030: 540e 833d ff78 d13c f760 4c3e d1db 743e
00000040: fca2 fc3d 42c9 953e 6254 e43d 3be5 49bd
00000050: 9e4f 9fbd a0d8 743e 9107 203e ff1c 5f3e
00000060: 59f7 35be a620 b53e ffcf c6bc 1ce2 c13e
00000070: 0ecd e5bd 25a8 6bbc 5ca9 253b f074 203e
00000080: 664e a93d 868b 7d3e 5676 853d 79e1 123e
00000090: f8c2 873e fead 7ebc 0177 b63d 853f 573e
000000a0: e4d8 933d 6774 c9bd 9790 093e 313f 9bbd
000000b0: 30cb debb 7e2b 4c3e 30c6 a03c 2c86 653e
000000c0: ff43 6fbd 3ef4 763e 3368 083d e2c0 6dbb
000000d0: 9777 17bd 7e51 1a3d e418 663e 32c9 0a3d
000000e0: 2680 c93d b582 213e f96e 68bd 96e2 283d
000000f0: bbc8 823e 4bb9 0abe 151e 543e 1691 04bd
00000100: 2b30 d03c ce94 69be 4b60 9ebe 35e6 0d3d
00000110: 11e4 69be bcf7 f23d 35d5 6cbe 62ba 51be
00000120: 141c 83be 24fc 0cbe d6ab b93d b68d 06be
00000130: e774 3fbc fa21 393d f940 97bd cc89 f3bd
00000140: b261 cb3d 28a8 4abe bbd7 49be d043 0abe
00000150: 4b79 96be 011d a7bd 734d a8bd 090c ee3b
00000160: 0266 90be 1448 c63b 71de 37be fc31 0f3e
00000170: f568 69be 3565 e73d d796 25be d29e 47bc
00000180: 906d 28be fbc1 4c3e 4f13 1dbd d76e 273e
00000190: 846f d43d 40c0 aabd 9071 f8be a429 51be
000001a0: 14f9 b7be ed6e 92bd dc64 e5be a6c4 abbe
000001b0: e53a e2bd 2b5b fabc 322e 0bbe 8ed2 303e
000001c0: ad78 c3bd db83 d0bc 773f b43d a150 62bd
000001d0: 6411 0ebe 47fd 29be 31db 203d 5893 eebc
000001e0: 97da 07be ee34 dbbb fbb1 4cbd 5873 0ebe
000001f0: adad b1be 4ae7 fabd 091d 0abe 2a38 01bd
00000200: 52c7 cdbe 0ca1 d2be 96ed a53e 5b11 dcbd
00000210: 28b7 60be 6524 673e efec ee3d a4a8 94bd
00000220: 85d6 54bd 6a5a a93e 51d1 d6be d633 4c3c
00000230: f091 273e 1b32 373d 5f88 81be 86b1 943e
00000240: b5a7 2e3e dfce b03e e37e 5b3e c0c0 8d3d
00000250: 2b15 433e 58e1 ac3e 93dc ccbd fe7c d2be
00000260: d49b 0ebe cf46 ac3e 8992 3d3e 7549 89be
00000270: f324 23be cb6b 073e 1ceb ca3d 992f abbe
00000280: 673c 60be eff2 783e f472 8ebe 26e1 9ebe
00000290: 4235 c8be 6cb0 173e 07a6 9a3e 7693 433e
000002a0: 8174 9d3e 5b6d 4d3d c0ea a6be d5c5 c8bd
000002b0: 6c6d e53d 3ec5 913e 1f46 5b3e 75a2 9cbe
000002c0: b33b 0e3d b791 45be 0bd7 83be a0db 9b3e
000002d0: 66af 573e f6cf 723e 97d2 aa3e 9407 8cbe
000002e0: 9f21 8f3e 8f25 96be baf8 a8bd e947 3dbd
000002f0: c726 7b3e 010b 2b3e 804b c1be 80ab 943e
00000300: 8b9e 913e d819 f0bd 10ac 76bd 9aba a8bc
00000310: 37e2 97be 53e7 833e f69b 883c e876 a7bd
00000320: f976 bfbe 84f3 1e3e 1c2b a83e 5afe 84be
00000330: 4efb a0bd 69c2 713e 884f b63e b7c2 2f3d
00000340: 505f f03e 283a 3a3e 7494 993d 5b88 96bd
00000350: 5c2c 45be 817f 2e3e fbe9 863e 4371 503e
00000360: 3898 b1bd edfe b43e a5f6 07be 484f 8d3e
00000370: 5544 95be 2e55 da3d b0a6 243e 0384 333e
00000380: da1a 3c3d e1dd 8f3e cd4e 13be e573 da3d
00000390: 523b cb3e 10ab 0b3d ccbf 87bc cc55 233e
000003a0: 5eb0 b6bc 6420 a03e 1c8d 87be 5bea 09be
000003b0: e1eb 6bbd 5535 ca3d 503f 183d f3ad a03e
000003c0: c094 9e3d cf96 ab3e 2fa1 a6bd b150 8fbd
000003d0: 2ae2 e1bd cd57 babd 2ee0 ce3e 408c 7cbe
000003e0: 9b4f 693e 1dcd 093e 8150 dabe 421c 403e
000003f0: 2dba 953d 08cb a9bd be11 b23d 0909 18bc
0.32642424 0.2866745 0.008379702 -0.04229283 -0.1130702 0.28082058 -0.052185863 -0.14355151
-0.046368077 0.104444526 0.4026779 -0.15303591 0.06399217 0.02557039 0.19958864 0.23911978
0.12335774 0.2925511 0.11148907 -0.049290877 -0.07778858 0.23910761 0.15627886 0.21788405
-0.17770137 0.3537647 -0.024269102 0.3786782 -0.11220752 -0.0143833505 0.0025277948 0.15669608
0.082669064 0.24760255 0.065167114 0.14343823 0.26515937 -0.015544413 0.08909417 0.21020325
0.07219103 -0.09836655 0.13434063 -0.07580412 -0.006799124 0.19938466 0.019625753 0.22414464
-0.058414456 0.24116609 0.033302497 -0.0036278297 -0.036979284 0.037675373 0.22470433 0.03388328
0.098388955 0.15772517 -0.056746457 0.041231714 0.2554377 -0.13547246 0.207146 -0.032364927
0.025413593 -0.2281067 -0.3093284 0.03464337 -0.22840907 0.11863658 -0.23128207 -0.20481256
-0.2560736 -0.13768059 0.09065978 -0.13139996 -0.011685587 0.04519842 -0.073854394 -0.11891517
0.09930743 -0.19790709 -0.19711201 -0.13502431 -0.29389414 -0.08159829 -0.08217897 0.0072646183
-0.28202826 0.006051073 -0.17955948 0.13983911 -0.22793944 0.112986006 -0.16170822 -0.012183862
-0.16448045 0.19995873 -0.038348492 0.16350876 0.103728324 -0.0833745 -0.4852414 -0.20426041
-0.3593222 -0.07150064 -0.44803512 -0.33548468 -0.110463895 -0.03056105 -0.13591841 0.1726782
-0.095445015 -0.025453499 0.088011675 -0.055252675 -0.13873821 -0.16600524 0.039271537 -0.029122993
-0.13266979 -0.0066896593 -0.049974423 -0.13911188 -0.34702817 -0.12251146 -0.13487639 -0.031547703
-0.40191132 -0.41138494 0.32407826 -0.10745498 -0.21944869 0.22572477 0.11666285 -0.07258728
-0.051962394 0.33076793 -0.4195657 0.0124635305 0.16364264 0.04472552 -0.25299355 0.2904169
0.17056163 0.3453283 0.21435122 0.0692153 0.19051044 0.33765674 -0.10003009 -0.41110986
-0.13926631 0.33647773 0.1851293 -0.26813856 -0.15932064 0.13224714 0.09908125 -0.33434752
-0.21898042 0.24311422 -0.27822077 -0.3103115 -0.39103132 0.14813393 0.30204794 0.1909922
0.30752948 0.050153118 -0.32600975 -0.098033585 0.11202511 0.28470796 0.21413468 -0.30592695
0.034724902 -0.19293867 -0.25750002 0.30440998 0.21063003 0.23712143 0.33363792 -0.27349532
0.27955338 -0.2932553 -0.08250566 -0.046211157 0.24526511 0.16703416 -0.37752914 0.29037094
0.2844127 -0.11723679 -0.060222685 -0.020596791 -0.29664776 0.25762424 0.01667593 -0.081769764
-0.37395456 0.15522581 0.3284539 -0.25975305 -0.078604326 0.23609318 0.35607553 0.042910304
0.46947718 0.18186247 0.07499018 -0.073502265 -0.19255203 0.17040826 0.26350388 0.20355706
-0.086716115 0.35350743 -0.13277681 0.2759955 -0.29153696 0.10660778 0.16079211 0.17530827
0.045924045 0.28098968 -0.14385529 0.106666364 0.39693695 0.034098685 -0.016570948 0.15950698
-0.022300895 0.31274712 -0.26474845 -0.13468306 -0.057598 0.098734535 0.037169755 0.31382713
0.077432156 0.33513495 -0.08136212 -0.069978125 -0.110294655 -0.09098778 0.4040541 -0.24662876
0.22784273 0.13457151 -0.42639545 0.1876078 0.07310901 -0.08290678 0.0869479 -0.009279498

lstm.weight_hh_l0 f4 [256, 64]
00000000: 4a68 d23e afa8 b03d 476f b5be c165 4b3e
00000010: f619 ab3e 200a a3bd 59e9 c9be f934 73be
00000020: 3ad9 803b 52f5 10bf fc40 be3e 2706 b33d
00000030: 5682 85be fa55 9a3e 6174 a4bd ce26 a8be
00000040: 1481 a63e 6d60 32bf 1e9c 913e 9ab8 f8bd
00000050: 5b8d b2be 35a3 8dbe cd63 82be 4c1d ef3e
00000060: 62ab db3e e606 c6bd 355c 0fbf 15db 563e
00000070: 3520 763d c46f ff3d 612f 9c3d 3cd5 123f
00000080: 3372 e03d fe26 8fbb c2a1 933e 2155 4b3e
00000090: afad 553e 8612 e7be 9aa6 c5be 849e bb3e
000000a0: e680 b8be 9a60 1f3e cd32 3b3e 6828 823d
000000b0: f2a7 9ebe d66c a5be 1c14 4ebe 89e8 b3bd
000000c0: 4ff7 203e 3f68 1fbe ac99 393e ebcc 00bf
000000d0: ec76 6abe 6e97 f7be ff9f 2fbe e2d8 a13e
000000e0: 8649 d2be beab f23e 1fb3 d9bc df08 863e
000000f0: 8361 53be 4540 a63d 1e7d 9f3e e3ae d1be
00000100: a758 7b3e 9dfb f43d 80e9 e7be 4950 d1bc
00000110: 85af 9e3e a9d3 17be b7e3 93bd e5ef c7bd
00000120: f293 933b 910e a9be c96d 9a3e 6816 113d
00000130: edd0 a7bd fcdb 633e eaa4 96bd 1341 83bd
00000140: 8e49 843e 6fa5 0abf ffc6 093d 9514 c7be
00000150: 5fcb 86bd b80b 70be f185 a9be bf86 503e
00000160: e6ab 0c3e c29a 43be 2135 80be a1c9 2a3e
00000170: 8921 893c 6560 9a3c b079 c83c eb9c 783e
00000180: da08 2d3d aa7a d3bd 1f41 353e 2c47 093e
00000190: 7fef 3e3e a07a 76be bf88 58be c55d ad3d
000001a0: bbcd fcbe 1c70 ca3e a5b6 f43d f75e 373e
000001b0: fee0 60be ec80 81be bc88 1bbd 7a89 4ebd
000001c0: d9ae a03e 431e 593d e9e2 443e 7767 4abe
000001d0: 1cb2 86bd 15e9 56be 20e1 4dbc 0687 e1bc
000001e0: 7843 bdbe 1d99 953e c963 fcbd c5af 023f
000001f0: 3675 2cbe c428 213d d4b1 a23e 2188 b4be
00000200: df0c adbb 2c09 9a3d 078e c1bd aa72 2c3e
00000210: 6a70 253d e365 9b3d d495 52be c488 8abe
00000220: a8bb b6bd 7546 c3be dcde 683e f5e6 f93d
00000230: bc29 fcbd 8731 1d3e b392 97be fc42 7dbe
00000240: 04d1 f93d fc49 bdbe 315b 863e 1b76 53bd
00000250: d3d5 c6bd 4e9d 16be 6545 3cbe a61e 0b3d
00000260: 117f ba3d 75e0 833e f829 79be 3d8b cc3d
00000270: e7c4 a93d 5f28 b3bc e006 0c3e d15e 723e
00000280: e595 c8bd ff23 043e 2e3a 0e3e 86db f83d
00000290: e15b a2bd 481c aebe c460 dcbc bdff 323e
000002a0: b95a 7cbe 81e7 8e3e 40ae b2bd bd04 27be
000002b0: 698d 82be 74a1 06be 7b48 a6bd 0eaa 9d3b
000002c0: ccc7 833e 0944 3bbe ffb6 12bd 8f52 9ebe
000002d0: e560 36be 8ba2 c3be 2cf0 62bc 7337 5c3d
000002e0: ca82 20be 368d 663e c171 e23d f61a 033e
000002f0: 7402 ff3c 051f 4a3e f732 b6bb cd58 39be
00000300: 4961 a4be de65 6cbe 9865 b73d b67a 65bd
00000310: 55e4 0ebe 639e 643e 3932 07be 223e f63d
00000320: 4cfe 17be c54c d83d 9571 f2bc 5fb8 483d
00000330: 5621 c83d 16e3 8d3a 168c 12be e9a1 a13e
00000340: 04f0 4b3e 8673 993d 3d34 1f3e df7d 1cbe
00000350: dc1b 953d d319 2c3e f85d bcbb 95f4 80be
00000360: c1ac 51bd fd51 b03e b1bc 833c c9eb f2bd
00000370: 799a 7f3d ca9c e53d e1c7 8f3d c529 43be
00000380: 11a6 0cbe 87fe c9bc 494d 56be 135f 5a3c
00000390: e16e 8cbe 66d5 d53d 3c89 073e ec18 2b3e
000003a0: 7266 6d3e 2433 333d 0ba6 83be 490f 58be
000003b0: 897a 0abd d133 a73d 28ae 5a3e 0c1b 20be
000003c0: eb4b a63d 3508 00be b322 703d 71ad c03c
000003d0: f0d5 f83d 7306 3e3d 4b6d df3a 6325 923d
000003e0: 3479 963e 21e2 37bc bb2e 043d 493b 323e
000003f0: d744 3f3e e5c7 0b3e e5f3 7cbe 3d87 833d
0.4109519 0.08625924 -0.3543646 0.19863035 0.33418244 -0.079609156 -0.39435843 -0.23750676
0.0039321454 -0.5662433 0.37158954 0.08741408 -0.26076 0.3014372 -0.0803001 -0.32842106
0.32520354 -0.69678384 0.2843942 -0.12144585 -0.3487347 -0.2766358 -0.25466767 0.4670204
0.42904192 -0.096692845 -0.5600007 0.2098201 0.06008931 0.124724895 0.07626224 0.5735662
0.10959282 -0.004368662 0.2883435 0.19856693 0.20867036 -0.4513132 -0.3860367 0.36644375
-0.36035842 0.15564194 0.18281098 0.06355363 -0.30987507 -0.32309598 -0.20124859 -0.08784587
0.1571934 -0.1556711 0.18125027 -0.5031268 -0.22896928 -0.4835772 -0.17150877 0.3161078
-0.4107172 0.47396654 -0.02657467 0.26178643 -0.20642667 0.08117727 0.31150144 -0.4095374
0.24545537 0.11962054 -0.45295334 -0.025550978 0.30993286 -0.14826836 -0.072211675 -0.09762553
0.0045037204 -0.33018926 0.30161884 0.03542176 -0.08194146 0.22251886 -0.073556736 -0.06408896
0.25837368 -0.5415868 0.033637043 -0.3888289 -0.06581759 -0.2344197 -0.33110002 0.20363902
0.13737449 -0.19102004 -0.25040534 0.16678478 0.016739624 0.018844793 0.024472088 0.2427861
0.04224477 -0.10326131 0.17700623 0.13406056 0.18646048 -0.24070215 -0.21145914 0.08465151
-0.4937571 0.39538658 0.11948899 0.1790732 -0.21960828 -0.25293672 -0.037972197 -0.050424077
0.31383398 0.053007375 0.19227184 -0.19766031 -0.065769404 -0.20987351 -0.012565881 -0.027530205
-0.36965537 0.2921838 -0.1232372 0.51049453 -0.16841587 0.039345518 0.31776297 -0.35260108
-0.0052810754 0.07521281 -0.09450918 0.16840616 0.04039041 0.07587793 -0.20564967 -0.2705747
-0.08922511 -0.38139692 0.22741264 0.12202255 -0.12312648 0.15350924 -0.2960411 -0.24732584
0.1219807 -0.36970508 0.2624145 -0.051626306 -0.097087525 -0.14708444 -0.18385847 0.033964776
0.09106267 0.25757185 -0.24332416 0.09987495 0.08289509 -0.021869836 0.13674498 0.23668982
-0.09794215 0.12904356 0.13889381 0.12151246 -0.07927681 -0.34005952 -0.02690161 0.17480369
-0.24643983 0.27910998 -0.08724642 -0.16310401 -0.25498512 -0.13147527 -0.08119293 0.004811532
0.2573837 -0.18287672 -0.03581905 -0.30922362 -0.178104 -0.38209948 -0.013851207 0.053763818
-0.15674892 0.22514805 0.11056853 0.12803254 0.0311291 0.19738396 -0.0055602747 -0.18100281
-0.32105473 -0.23085734 0.08954924 -0.05602523 -0.1395429 0.22326045 -0.13202752 0.1202357
-0.148431 0.105615176 -0.029595176 0.049003955 0.09771983 0.0010825123 -0.14311251 0.3156884
0.19915777 0.074927375 0.15547271 -0.15282391 0.072807044 0.16806726 -0.0057485066 -0.251866
-0.05119014 0.34437552 0.016081186 -0.11861379 0.062403176 0.11211546 0.07020546 -0.19058903
-0.13735224 -0.0246575 -0.2092792 0.0133283315 -0.27428344 0.10441093 0.13235945 0.16708726
0.23183611 0.043749943 -0.25712618 -0.21099581 -0.033808265 0.0816418 0.21355498 -0.15635318
0.08119949 -0.1250313 0.05862684 0.023520203 0.1215018 0.04639287 0.0017046122 0.07136037
0.29389346 -0.011223347 0.03227113 0.17405428 0.18678604 0.13650472 -0.24702413 0.06422279

lstm.bias_ih_l0 f4 [256]
00000000: a342 c33d 4ebe dc3b 9f9f d83c d61d 9bbc
00000010: 86c1 c7ba dba9 90bd 407f 0d3d 146e 64be
00000020: 0923 7dbd 03e8 713d c66d 153d 9689 64be
00000030: 6378 9abd 52f9 b93d 3250 813c 2401 55bd
00000040: 95d5 343d 0418 023d 30ed f13c f275 28be
00000050: ed55 d0bd 75f6 f93c 7d12 fa3c 2e91 a03d
00000060: d3d6 62be cee2 6e3d 0161 0fbe 4748 033e
00000070: e5b0 5bbd cc2c d4bd ce6a 77bc c843 57bd
00000080: daae c7bd 6256 37bd b4e1 21bb 8b78 adbd
00000090: a168 523d 4206 3abe f7ff ba3c 86a0 9abd
000000a0: 159b 8cbc c2c2 ab3c 9e91 a8bb a410 213d
000000b0: 1bd0 0abe fe45 d03d 1c05 cabd 764b b0bd
000000c0: e83a b5bd 4271 01be 9bd2 773c 772f 1c3e
000000d0: 440a 073d 76a5 f0bd 674e ca3b 5a91 ef3c
000000e0: d1fd 03bc a6ab d9bd 0173 c3bd a838 60be
000000f0: 31d5 003d 57a3 3b3d 23ef ce3d 3fac 1bbe
00000100: 5da5 3fbe f66e 0abe d687 1cbe c614 1f3b
00000110: f929 d9bd f629 21be 12e6 b43d d175 70be
00000120: cadc aebd 542c c53d db84 423d 134f 853c
00000130: fbd5 e0ba 3997 e33c 01a9 0abe 1483 0e3d
00000140: 2f91 09be 32b0 dfbd 0f49 09be d787 f0bd
00000150: 7637 14be d6e7 94bd be64 d13d eaf2 6ebc
00000160: 17c0 b3bd c835 7ebe a4ac 31bd 14ba 6b3b
00000170: 0ee1 f0bd abd8 57bc bf52 b0bd f171 a1bd
00000180: b63d b4bd 1e72 353d 263f a83d 247b 273d
00000190: 7164 103c e14a e1bd 82ad 373d a7a2 9e3d
000001a0: 117a d5bd 1ec3 86bc 4fbe 833d 7405 6fbd
000001b0: b266 8c3d d971 563d 8af6 fb3d 517d 8e3c
000001c0: 9d80 efbc 90eb ab3b 14b8 59bd eae4 0bbb
000001d0: fdf7 2dbd a2d6 063e a41c 34be ed9a cb3d
000001e0: c444 7bbd 2d24 a2bd b237 fb3d 60bb 253d
000001f0: 3596 d9bc 0fd2 05be 6c55 c0bd 8aee 0d3e
00000200: de6d 843d 6f47 1e3d ba29 d9bd bbbd e2b9
00000210: f092 303d 379c 8a3d f2cd 88bc 80b9 cc3c
00000220: 9ea4 853d e2fa 683d 3ab7 b13d 7872 96bc
00000230: 6a4c 48bd aebf 4c3d 19d8 4b3c 0e4c c9bd
00000240: 72b9 003d b4a1 92bd 7a73 78bc b7d4 8abd
00000250: e0e7 b83c d2dd 6abd c8be b2bc b409 e13c
00000260: a7ad 0ebd 71b6 59bd bcda 2dbc cba1 3c3c
00000270: 3a5b 6f3d 87f8 33bb f324 313d 6b53 f73b
00000280: ef21 103d f934 3fbd a12a 9339 cd0d 1f3d
00000290: 217b 413d f91b 943d 9a5a 9ebd 6357 9b3c
000002a0: 5cdf 78bd 6d3f e2bc 77ed dc3c c09b 143e
000002b0: e22f 8f3c 3700 2ebd c60b 40bd 1c11 be3d
000002c0: 854b da3c 442c 47bd 1171 873b 7d46 b23b
000002d0: 58b8 b3bd 296b d9bc 08ae fcbc 91db 013d
000002e0: 9af6 043d 925d 1eba 13dc 923d e03a 9a3d
000002f0: 415a 143c 9ddc 183d 4b83 803d f87b 43bd
00000300: 6d33 073e e676 b23d 18fe 17bc a7c6 533c
00000310: d19c f3bc e3ec 573d 472d ec3c b885 2abe
00000320: b71b dbbd c112 933c 7bb2 30bc 4e55 a8bd
00000330: 7b0f 49bd 0f20 11bd 54c4 123c cbc5 19bd
00000340: 9842 c7bd ade4 a23d 1cec b1ba ff4c 82be
00000350: 8a7d bdbd d28d cf3c b603 27bd 5b8b 333e
00000360: e58c 68be e985 4c3e 07cb 963c 4e50 4a3d
00000370: 49d9 2bbe 5082 0a3d 2294 b2bd 6ac4 8d3d
00000380: 4a78 b13d ef7d 83bd 0c5a c4bd 2545 3b3d
00000390: d94f 913d ddc1 37be afa8 9e3d c5bb 32bd
000003a0: 743a 1dbd 8599 9d3c ac64 6a3d 9bd3 5fbd
000003b0: 9b5c b9bd 8885 ac3d 2298 2abe 9306 babd
000003c0: 710e 10be 1537 223c 3566 78bd 1068 ce3d
000003d0: 414c 39be 6d57 853c 0bfd c2bc 20ff 21be
000003e0: 1c5f f5bc 45ed 9f3d ea30 21bd 1cc8 84bd
000003f0: c29e 2dbd 848e 31be 9fe7 4a3e 9f2a f5bd
0.09534194 0.0067365533 0.0264433 -0.018935125 -0.001524017 -0.07063647 0.034545183 -0.22307616
-0.06180099 0.059059154 0.03648164 -0.2231811 -0.07542493 0.09080757 0.01578531 -0.05200304
0.044149 0.031761184 0.029532045 -0.16451243 -0.10172639 0.030513028 0.030526394 0.07840191
-0.22152261 0.058321767 -0.14001848 0.1282054 -0.053635497 -0.10360107 -0.015101148 -0.052554876
-0.09750147 -0.044760115 -0.002470118 -0.08470257 0.051369313 -0.1816645 0.022827132 -0.07550149
-0.017163793 0.020966891 -0.005144312 0.03932251 -0.13555948 0.101696 -0.09864256 -0.08608143
-0.08849126 -0.1264086 0.015125896 0.15252481 0.032968774 -0.11750309 0.006173897 0.029244114
-0.00805612 -0.106284425 -0.0954342 -0.21896613 0.031453315 0.04581007 0.101042055 -0.15202425
-0.18715425 -0.1351889 -0.15286192 0.0024273857 -0.10603709 -0.15738663 0.08832945 -0.23482443
-0.08538206 0.096275955 0.047489982 0.016273057 -0.0017153615 0.02778207 -0.13541032 0.034792975
-0.1343429 -0.109222785 -0.13406776 -0.117446594 -0.14474282 -0.07270782 0.10224293 -0.014584282
-0.087768726 -0.24825203 -0.043377534 0.0035969066 -0.11761676 -0.013174216 -0.086095326 -0.07883061
-0.08800833 0.044298284 0.082151696 0.04088892 0.00881301 -0.1100061 0.044843204 0.07745867
-0.10423673 -0.016450461 0.06432783 -0.05835481 0.06855525 0.052354667 0.12302883 0.01739374
-0.029236132 0.005246587 -0.053154066 -0.002134616 -0.04247283 0.13167813 -0.1758905 0.09941659
-0.061344877 -0.07917056 0.122664824 0.040461898 -0.026560882 -0.13068412 -0.09391293 0.13860527
0.06466268 0.038642343 -0.10603662 -0.0004324744 0.04310888 0.06768077 -0.016699765 0.024990797
0.06525539 0.056879885 0.08677526 -0.01836513 -0.048901 0.049987487 0.012441658 -0.098289594
0.031426854 -0.07159749 -0.0151642505 -0.067788534 0.022571504 -0.05734045 -0.021819487 0.027470447
-0.034833577 -0.053152505 -0.010611232 0.011513184 0.05843661 -0.0027461366 0.04324813 0.007547786
0.03518861 -0.046681378 0.00028069786 0.03883152 0.047236566 0.07231898 -0.077321246 0.018962568
-0.060759887 -0.027618134 0.0269687 0.14512539 0.017478887 -0.042480674 -0.046886228 0.09280607
0.026647339 -0.0486262 0.0041333516 0.0054405318 -0.08775395 -0.026540356 -0.030844703 0.031703535
0.03246174 -0.0006041165 0.07170882 0.07530761 0.009054721 0.03731977 0.06275042 -0.047725648
0.13203211 0.08714084 -0.009276889 0.01292578 -0.029737862 0.052716147 0.028830184 -0.16652572
-0.106986456 0.017953278 -0.010784741 -0.082193956 -0.04908703 -0.035430964 0.008957941 -0.037542146
-0.097294986 0.07953773 -0.0013574394 -0.25449368 -0.0925246 0.02533618 -0.040775023 0.17533629
-0.22709997 0.19972958 0.018407358 0.04939299 -0.16782106 0.033815682 -0.0871966 0.06922229
0.086655214 -0.06420504 -0.095874876 0.04572024 0.07095308 -0.17945047 0.077470176 -0.043636102
-0.038385823 0.019238243 0.057224914 -0.054645162 -0.09050866 0.084239066 -0.16659597 -0.09083285
-0.14068009 0.009900828 -0.060644347 0.10078442 -0.18095495 0.01627704 -0.0238023 -0.15819979
-0.029952578 0.078089274 -0.03935329 -0.0648348 -0.04238773 -0.17339522 0.19814919 -0.1197102

lstm.bias_hh_l0 f4 [256]
00000000: 207d 023e 1bc7 fe3d e116 08bd 54d3 c4bd
00000010: 754a 39bc a0bb 8f3d 1eab ccbc ecfb 72bd
00000020: 9608 9cbd 1a57 143c a158 343e 45f8 4ebe
00000030: d829 8dbd c0c7 2d3c 97f8 a33c 956d b33d
00000040: b50c d2bd 852a 303e 50ca f33c 758f 80bd
00000050: 41a6 90bd 45ed ddbc 823e 1d3c 19e8 be3d
00000060: 16dd 1fbc 1514 2cbd 4443 2abe 7c9c 113d
00000070: 86e8 4ebe fa96 1dbe 9934 51be e981 3f3d
00000080: cfc5 cbbc c319 cdbd 2cbf d73d 95ae 81bc
00000090: 71c1 843d ebc2 db3c b779 363d 0ab6 d03d
000000a0: e411 a83d b139 313c d4c9 b13d d648 e7bd
000000b0: c072 e83b ebe0 b23c dad9 eebc 97a3 083e
000000c0: 10a6 3abe 7c6e 703d 1f72 993d 2af0 d7bc
000000d0: fb5b 833c b0c9 02be e187 ee3c 2872 0dbd
000000e0: 127f a43d 91ba a23d a5d5 b3bc a738 17bd
000000f0: 2905 6ebd cc1b 3bbd 918d f33d 5bfa 32bb
00000100: 0c74 3fbe 1447 45bd 29fc 523d 3d44 cb3d
00000110: 17be 48be 1543 793c e187 02bc 98e2 1abe
00000120: f562 89bd 7eec e83d 9012 03be 2c18 8ebc
00000130: d03c d0bd 4eab 1cbd 0171 90bd eb20 d9bb
00000140: a92f e9bd a1c8 aabd 823b cabd 778a 17be
00000150: 71e8 d43c 36aa 0cbe 95d5 8abc f99c abbd
00000160: 15d0 923d 0ee6 b7bd 258e 9a3d 560e 3abc
00000170: d488 85bd ad49 a2bd 3d38 2abe 5bbe 353c
00000180: 280a 07be 9355 e2bc b5d8 46bd 4f63 9dbd
00000190: 86da 9ebd d356 ef3c b571 ba3c e22c 34bb
000001a0: b632 7a3d b754 583d b376 9abd 068b 783d
000001b0: 6037 0fbc 364c ac3d 441a 8ebc d28f 463c
000001c0: f8ea 723d ca80 05be b1ce 35be 1a7d b33a
000001d0: c3c7 bb3d 3c1f 383e 6622 033d 3165 6abd
000001e0: 16cc b2bd 1a49 2a3d daaf b63c 78c5 403d
000001f0: 43fe f6bc aa47 90be f6da 1bbe 468f eb3d
00000200: 2cb0 823a c435 d73c a3de 073d fa68 3dbc
00000210: 1cc9 ccbc d93f 01be 1260 26bd 9e5a 65bd
00000220: fcd8 37bc afc3 33be 5ee0 a13d af6d 27bb
00000230: 69e4 23bd 2a97 583c 6ea0 233d 748c 3cbd
00000240: 3f79 69bb 1380 1dbd 2f67 873b 470f 16bb
00000250: 228d 03be 54ce 28bd d07c 9c3d b3c1 0f3c
00000260: 0869 d53d 25aa cf3b 2715 0dbd a8f1 653d
00000270: 04c7 d2bc 3cb5 4c3d 7ad3 a4bd 006f ba3d
00000280: 5bd0 b83d 37dc 883c 32fe c83d 1d3a f13c
00000290: a8e0 913d 8811 01be 84b5 34be 162f cebd
000002a0: 76eb b0bd 5e63 7d3d 9a6b 1e3e a62c 28bd
000002b0: c00b 9abd 2137 27bd 573a 60bd 4543 c23c
000002c0: 6a73 a23c ea93 9c3d 1308 06bd 3a9c 9abd
000002d0: 3d4e b23c 1684 91bd 3304 18bc c169 d83c
000002e0: afc9 e5bd 8adb eb3d 0408 c4bd 28db db3c
000002f0: 15f9 f0bd 5b28 86bd b4f1 143d 90de 99bd
00000300: 7682 673e ab2b 443e 54ff 04be aa48 54bd
00000310: f4af 04be 630f 84bd ec4c 19bd cd9e 57be
00000320: 5698 58be ca0c 193d 370a ef3d c604 4ebe
00000330: a8c4 2e3d 56ad fa3c 545b 7fbd 5c97 c8bb
00000340: 3232 ceba f277 2a3e 2996 8bbd 6361 57be
00000350: 4910 6cbd ee20 0a3e c1fe f73d 38d8 ff3c
00000360: 1fca 3dbe 16c5 87bc d13f efbd 91bb b13c
00000370: 4450 6cbd 902d 4abd 0e5d 1dbe 7a3e a33d
00000380: bc99 01be 5f90 dcbd 2527 6e3d 62b8 263d
00000390: 7883 0c3e 633a 37be 045e 303e 7d10 aa3d
000003a0: e910 05bd 147b 87bd 15a6 c63d 6fb7 44be
000003b0: 79ca 1b3d b4de dc3d b3e3 f6bd 680d c73d
000003c0: 6bc0 3ebd b0ef 03be 7552 cebd eece f33d
000003d0: f4d6 373d 189c e7bd b81b 523d 9d13 84bd
000003e0: 9f2c 8ebb 912a a63d 86ec f9bd 174b c0bd
000003f0: a952 6abd 0daa 50bd 277b a13d ef18 54bc
0.12743044 0.1244032 -0.033224944 -0.0961062 -0.011309256 0.070182085 -0.024983939 -0.059322283
-0.07618825 0.00905397 0.17611934 -0.20211895 -0.06892747 0.010606706 0.020015998 0.087611355
-0.1025633 0.1720372 0.029759556 -0.06277362 -0.070629604 -0.027090678 0.009597423 0.09321613
-0.009757301 -0.04201134 -0.16627222 0.035549626 -0.20205888 -0.15389624 -0.2043022 0.04675475
-0.024874596 -0.10014679 0.1053451 -0.015830318 0.064822085 0.026826343 0.04454967 0.10190971
0.08206537 0.010816977 0.08681074 -0.11293189 0.0070937574 0.021835765 -0.029156614 0.13343655
-0.1822741 0.058699116 0.0749247 -0.026359636 0.01603507 -0.1277225 0.029117526 -0.034532696
0.08032049 0.07945741 -0.02195246 -0.036919262 -0.05811039 -0.045680806 0.11892236 -0.0027309868
-0.18696612 -0.04816349 0.05151001 0.09925125 -0.19603764 0.0152137475 -0.007966966 -0.15125501
-0.06708328 0.11373232 -0.1280005 -0.01734551 -0.10167849 -0.038249306 -0.07052804 -0.0066262386
-0.113860436 -0.08339048 -0.098746315 -0.14798914 0.025989743 -0.13736805 -0.016947547 -0.083795495
0.07168595 -0.08979426 0.07546643 -0.011355957 -0.065202385 -0.07924209 -0.16623016 0.011092748
-0.13187468 -0.027628696 -0.04854651 -0.07684957 -0.07756524 0.029216206 0.022759298 -0.0027492573
0.061083518 0.052815165 -0.07542171 0.060679458 -0.00874123 0.084129736 -0.017346509 0.01211925
0.059306115 -0.1303741 -0.17754628 0.0013693899 0.09168961 0.17980665 0.032015227 -0.05722541
-0.087303326 0.04157362 0.02230065 0.04706332 -0.030150538 -0.28179675 -0.15220246 0.115019366
0.0009970716 0.026270755 0.033171307 -0.011560673 -0.02499824 -0.12622012 -0.040618964 -0.055994622
-0.011221167 -0.17555116 0.07904123 -0.0025547554 -0.04001275 0.013219634 0.03994792 -0.046032384
-0.0035625247 -0.03845222 0.0041321735 -0.002289729 -0.12846807 -0.041212395 0.076409936 0.008774209
0.10420424 0.0063374215 -0.034444 0.056138664 -0.025729664 0.049977526 -0.080481485 0.09103203
0.09024116 0.01670657 0.09814109 0.029446656 0.07122928 -0.12604344 -0.17647368 -0.10067575
-0.086386606 0.061862342 0.15470734 -0.041058205 -0.075217724 -0.04082406 -0.054743137 0.023713717
0.019830424 0.076454 -0.032722544 -0.07549329 0.021765823 -0.071052715 -0.009278345 0.026417615
-0.11220109 0.11516483 -0.09571841 0.0268379 -0.117662586 -0.06550666 0.03636332 -0.075131536
0.2260836 0.19157283 -0.12988025 -0.05182711 -0.12957746 -0.06448247 -0.037426874 -0.21056671
-0.21151862 0.037365712 0.1167187 -0.20119008 0.042668015 0.030600231 -0.062342957 -0.006121559
-0.0015731512 0.16647318 -0.0681575 -0.21033244 -0.05763272 0.13489124 0.12109137 0.03123103
-0.18534134 -0.01657347 -0.11682094 0.021695884 -0.057693735 -0.049359858 -0.15367529 0.07970901
-0.12656301 -0.10769724 0.0581428 0.040703185 0.13722026 -0.17893367 0.17223364 0.08303926
-0.03248683 -0.06615272 0.096996464 -0.192106 0.03803489 0.10784665 -0.12055149 0.09719354
-0.046570223 -0.12884402 -0.10074321 0.11904703 0.04488273 -0.113090694 0.051295966 -0.064490534
-0.0043388153 0.08113588 -0.122033164 -0.09389322 -0.057207737 -0.050943423 0.078848176 -0.012945398

lstm.weight_ih_l1 f4 [256, 64]
00000000: 51ef efbd c80f c0bd 0aac ea3d db56 31bd
00000010: 27d9 87bd daec 5e3e bbc0 02be 23a7 29bd
00000020: dac1 49bd 4a85 443e 741f 80be fbcf 67bd
00000030: 15c9 ffbd b3a5 5d3e 3a67 d2bb a6d3 493d
00000040: 8309 bd3d 1af6 ae3d 9d3f 173e 3301 ab3d
00000050: 38b0 373d ec67 293e 0bf7 a73a 1fe8 23be
00000060: 38e0 efbd e4d0 413e 1ab2 d13d 61bd 84bd
00000070: 7c8a 56be 2b82 643d 1753 c13d 04b0 82be
00000080: 9e02 bebc 89f1 553e 1f87 54bd 19bf b5bd
00000090: 67ee 8bbe 3d0a 3ebd db53 513e 6bbf 1c3d
000000a0: 16f1 573e ec96 ea3d be3a 3bbe 499d 6dbd
000000b0: bb72 25be 3fa7 be3d 6d5f b6bd 743a 6abc
000000c0: 5e71 bb3c e349 00be c64e 05be 0d8e 6c3d
000000d0: fa5b 763c e106 17bc 9c93 203e a5f7 cebb
000000e0: 77d2 0b3d ad64 2ebe e1e3 903d 9f1a 61bc
000000f0: 8706 f93d 3cbf 49bd 8a99 06be 4125 d63d
00000100: c677 1ebe 1aad dfbc b837 0c3e 5404 f2bd
00000110: 2868 b2bc 6915 3e3e 9292 3dbd 633c 893e
00000120: 81a6 8abd 8a31 dfbb a6f9 15be dae1 10be
00000130: d7f7 dc3d 9a89 eebd 12f4 153e 7d15 a33d
00000140: f2d2 413d d591 0b3e c74c e6bd 246f 7fbc
00000150: b964 103d 6369 1e3a 2bb3 fc3b f54b fabd
00000160: 8ce2 80bd 7ce2 8d3d e470 7b3e 43d2 003d
00000170: 5771 85bc dc1f 74bd d198 3abe dc3f e1bd
00000180: 82f5 d5bd a10a ccbb d9e1 bc3c d064 3abe
00000190: 6df1 0cbe 4b8b c63d ec97 1bbb e81b f7bd
000001a0: b384 313e 3be1 d6bc 974b d33c 2787 f8bd
000001b0: 27c8 b8bc 90d3 713d 4a73 a13c ec78 e5bd
000001c0: 0fa4 4dbe e7c0 2e3e b740 99bd 2e91 cb3d
000001d0: 160a f5ba 7c5d 353d 86a5 ce3d d757 88bd
000001e0: ed16 413e 9b3f 2cbe 0755 8f3b dfab 8ebd
000001f0: 8417 143d 1de2 58be b4d0 0abd 3fd9 763d
00000200: 53a2 f9bd 32f8 ddbc 7767 a63c b4af 003d
00000210: 249e 8abc 68e1 a8bd abee 18bd 59ad 673e
00000220: e61d 02be 84ca 853e e775 acbd 510d 103d
00000230: cd87 1b3d 6293 29be 5739 353e 83c9 2e3d
00000240: 39f1 bfbd 0605 923e 52b1 583d 6cbb 4b3b
00000250: ebf9 523e bf9b 243d ba53 043d 0f3f 3bbe
00000260: 1ef9 15be 2570 7dbd bc89 843e c409 6c3d
00000270: 54dc 43bd 72d2 91bd 9d67 cebd 9c9d 59bd
00000280: 7057 dbbb 73ee 0cbe ebb6 02be 8318 36bd
00000290: ac24 20be 3848 f13c 1250 54bc 4563 a6bc
000002a0: 90c6 f83c e0d2 c9bd a3e7 1bbe b5f8 c53d
000002b0: 0a05 893d 3ed4 c8bc fc38 0e3c 6837 8ebd
000002c0: 6a5f 1fbd 7fc5 f03d 2afe cbbd 2a8d 3a3d
000002d0: 3bd9 f4bc 7b89 8b3d 6507 34bd d1dd 883d
000002e0: eb29 ae3d 8f3a 8ebd d0e5 e0bc 7b1f bebd
000002f0: 9b40 da3d a214 863c 632c 49be 17f7 b83d
00000300: 0f0f 4abe 0d15 37be a0e6 693c 7b2a 6b3d
00000310: 645e db3b 1427 883d 837f 5bbd 1fd7 303c
00000320: 9ae7 93bd 0199 c53d d1da 1bbe a790 933d
00000330: 62fa 5cbc b61d 1a3e 8daf e9bd 7da5 873d
00000340: ce6c 3b3e 155c 7a3d b6e9 a63e 8ca7 c8bc
00000350: 9785 8dbb 9688 2c3e d0af 71bd 5aa5 cf3c
00000360: 7e62 c7bd 9b7d 843e 7cde 823d 8bf3 aebc
00000370: b274 12be 272b 8e3d c44b 4e3e 5a71 d2bd
00000380: 13d8 fdbc b66f b5bd 5219 d63d b72d 61bd
00000390: 5a72 2abe f4d5 21be 1ce5 403e 5698 b93c
000003a0: 5d86 b13d 649a 6cbd 8e61 22be affa afbd
000003b0: f11a b7bd b681 bfbd d408 283e 5f5c 1bbe
000003c0: 7b01 c93d 7cd4 5c3d cc47 9abc cb30 cc3d
000003d0: e573 8b3d 330b ea3c 818b d13d ecd9 40bd
000003e0: a42d 273d c56b 07be 2019 283e 55f2 833d
000003f0: c7d6 893d e0a7 60bd f8cc b0be 09c0 d83d
-0.11715568 -0.0937801 0.11458595 -0.043295722 -0.066332154 0.21770039 -0.12768833 -0.04141916
-0.049257137 0.1919147 -0.25023997 -0.05659483 -0.12489525 0.2164524 -0.006420997 0.04927411
0.0923033 0.08543034 0.1477036 0.08349838 0.04484579 0.1654355 0.0012814713 -0.16006516
-0.11712688 0.18927342 0.10239048 -0.06481434 -0.20951265 0.0557882 0.09439676 -0.25524914
-0.023194607 0.2089292 -0.051886674 -0.088743396 -0.27330324 -0.046396483 0.20442145 0.038268488
0.2108806 0.11454567 -0.18284127 -0.058011327 -0.16157047 0.093092434 -0.0890492 -0.014296163
0.022881206 -0.12528186 -0.13018331 0.057752658 0.015036577 -0.009217949 0.15681309 -0.0063161426
0.03413626 -0.17030592 0.070747145 -0.013739257 0.12159448 -0.04925464 -0.13144508 0.10456324
-0.15475377 -0.027304221 0.1369313 -0.11817232 -0.021778181 0.18562855 -0.04628236 0.26803884
-0.06770039 -0.0068113254 -0.14646015 -0.14148656 0.10789459 -0.11647339 0.14643887 0.07963083
0.047320314 0.1362985 -0.11245113 -0.015590463 0.035252307 0.00060429255 0.007711788 -0.12221519
-0.062932104 0.06927964 0.24554783 0.03145052 -0.016289396 -0.059600696 -0.18222357 -0.10998508
-0.104472175 -0.006226853 0.023056911 -0.1820252 -0.13763972 0.09694537 -0.0023741676 -0.120658696
0.17335777 -0.026230445 0.02579288 -0.12135153 -0.022556378 0.059039652 0.019708294 -0.11204705
-0.20082115 0.17065774 -0.074830465 0.099398 -0.0018695022 0.044278607 0.10090165 -0.06657379
0.18856402 -0.16821139 0.0043741497 -0.069663756 0.03615524 -0.21180005 -0.03389044 0.060265776
-0.12189164 -0.027095888 0.020313008 0.031417564 -0.01692111 -0.08246118 -0.037336987 0.2262472
-0.12706718 0.2613107 -0.084209256 0.03516895 0.037971307 -0.16560128 0.17697655 0.042672645
-0.093721814 0.28519458 0.05290348 0.0031087054 0.20603149 0.040187594 0.03230641 -0.18285774
-0.14645812 -0.061874527 0.25886333 0.0576265 -0.047817543 -0.071202174 -0.100783564 -0.053128824
-0.006693773 -0.13762836 -0.1276509 -0.04445697 -0.15638989 0.029453382 -0.012958543 -0.020311007
0.03036812 -0.09854674 -0.15225081 0.09666578 0.06690414 -0.024515267 0.008680578 -0.06944162
-0.038909353 0.117564194 -0.09960587 0.04554478 -0.02988874 0.06813332 -0.043952364 0.06682933
0.08504089 -0.06944763 -0.027453333 -0.09283348 0.10656854 0.01636726 -0.19645838 0.09031504
-0.19732307 -0.17879124 0.014276177 0.05741356 0.006694602 0.066480786 -0.0535884 0.010793476
-0.07221909 0.09648324 -0.1522019 0.072053246 -0.01348743 0.15050396 -0.11410437 0.06623361
0.18303224 0.061122973 0.32600182 -0.024493955 -0.0043189037 0.16848978 -0.05900556 0.0253474
-0.09735583 0.2587708 0.06390092 -0.021356365 -0.14302328 0.069418244 0.2014609 -0.10275526
-0.030986821 -0.08859198 0.10454048 -0.054975238 -0.16645184 -0.15804273 0.18837398 0.022655647
0.08668206 -0.057764426 -0.15857527 -0.08592736 -0.089406855 -0.09350912 0.16409618 -0.15171956
0.098147355 0.05391358 -0.018833064 0.09970244 0.068092145 0.028569793 0.102316864 -0.047082826
0.04081501 -0.13224705 0.16415834 0.064427055 0.06730419 -0.054847598 -0.3453138 0.10583503

lstm.weight_hh_l1 f4 [256, 64]
00000000: e9a9 cabd 78d7 89be f5e7 0cbe 8e14 26bd
00000010: 20cd aebd 3bb1 903e f390 bcbd 1b35 25be
00000020: d4b8 2dbd 7623 0fbc 84ab 213d 53fb 7a3e
00000030: f298 bfbe aba6 9abd 9131 c3bd 9e5f 603d
00000040: 4b69 10bc 1a0c 003e b881 bebd 18ea e6bd
00000050: e292 a33d 2be5 b6bd ca6d b3bc c170 d6bd
00000060: dae9 6dbe 1b2c 883d 6b17 d33d 51ea 98bd
00000070: 2feb dcbd b627 253d bb0e ab3d bbe8 fa3b
00000080: be07 163d a092 923d 6a70 89be 705b 04bd
00000090: 8031 d2bd 09d3 d83c 0123 d1bd 0d38 acbd
000000a0: a408 6cbe ce3d b53c f4f5 b5bd c603 ec3d
000000b0: 1be2 88bd 71a1 613d 1abd 03bd d8e9 0ebe
000000c0: 7298 1bbe efcd a23c 60c6 773d d881 68bd
000000d0: 6583 a93e 8fec 973d 1369 b7bd 32fc 063e
000000e0: 3951 8fbb 3c6a d23d d5bb da3b 927a d03d
000000f0: 71fd 7d3d d768 373d 06f3 273c bed6 3abe
00000100: 1455 e13c f8fe 89be 350d d7bd b442 043e
00000110: 77c6 5abe 9413 9f3d 8ca5 50be 9df4 e6bd
00000120: 95af 3939 e50b 03bf bd46 42be 6e82 813d
00000130: cfee e9be 1afa 13be 44c9 a3bc 2e14 f13d
00000140: 9a5a 50bd 5071 1dbe 610a 103e 402c d23d
00000150: fbd1 c1bd 9910 37be 8dac 093e 8c5c 38be
00000160: 5729 733d 9dc2 473e aafe 87bc 69cf b3bc
00000170: 3fc5 3a3e 7736 c43d be63 c03e 2f3d 1b3e
00000180: 2f7f 90bc 29d6 56be bd69 dfbe 64f8 1abd
00000190: e582 57be a471 32be 1fa0 07be 0564 01be
000001a0: 08d9 6c3e 0543 013e a3d0 c7bc b1c4 e13d
000001b0: f9db 393e 38f9 c7bb 41ba 003e ab15 403c
000001c0: c56b 313d b0bc d9bd f07a 633e b96d 05be
000001d0: ba86 be3d ac7b febb ef2d 243e 1cb8 2c3d
000001e0: d736 81bd 373c 923e 6f3e b13d 7272 fd3d
000001f0: 32b1 953c 07e9 813d 755d ffbd b613 fcbe
00000200: 1a88 9ebd 6b0d c93d 4da5 53be b4e3 82bd
00000210: 75bd cf3c 5734 b83d 2eff 62be f864 30be
00000220: 4182 0fbc bae6 acbd eb47 c9bd 5af4 d93d
00000230: 11b7 06be 1b36 c5bd 0573 8bbd 1f15 86be
00000240: 617e 1cbe 3951 27bc 3408 183d 2833 61bd
00000250: baed 29bd 7e7f da3c 907c 453e 556d 053c
00000260: 76f8 2ebc b1fe 013e e04c edbc 35f8 83bd
00000270: c82e a7bc 7242 153e d787 db3d 2692 aa3e
00000280: 573c 8e3d 2d21 8cbd a534 1dbe 9db1 913d
00000290: 2348 2c3d 4722 40bc 74c6 813a bd79 98bd
000002a0: b790 403d e427 2f3e 7cd0 b2bd 771c 833d
000002b0: 4051 c93d c07d 903b b16e ba3d a38d a43d
000002c0: c6e4 0e3e fd39 5abd 4069 133d 6867 d0bd
000002d0: e870 aa3d 7776 253c 21be 58bb 8187 843d
000002e0: 187a 163e 0350 4ebd 0a61 ff3c 007a 03be
000002f0: 5f1b 173e bd88 84bd 4c02 0cbe 98d4 10be
00000300: 4efe 1a3d 4572 25be 3507 7ebe adc0 ae3c
00000310: a67d 78be 7d89 ac3d 9fa4 2cbe 14ec 94be
00000320: 65a5 a2bb c1ed fcbd d09f fbbd 035a 923e
00000330: ef05 74be f342 1d3d 0856 03be ede5 c23d
00000340: 083a 7b3d 2369 b03d 6eb3 ecbd babe 7bbd
00000350: 7c38 efbb 7221 c3bd 42e1 3a3e 21ec 1fbd
00000360: 3e5d 89be 61d1 fa3d fccb 1f3e 00b3 86bd
00000370: 6c55 3b3c 362b 123e e7b9 b9bc fd23 edbe
00000380: 25bf a13d c5f0 313e 9c37 a13a f1f0 51bc
00000390: 6a7b 8ebd 528e c3bd f573 b53d c201 2dbd
000003a0: 3fc6 cc3b cb1e e9bd 5b05 723d 641a 013e
000003b0: 7a98 00be 8400 503d 28f2 85bd 8b6e ebbd
000003c0: ba94 12be 57d2 b8bd f5f8 c13d c560 083e
000003d0: a333 cb3e 4257 f63c 7c0f 3d3c 302e 823d
000003e0: 1338 833d f654 b43d 54fe be3c c64d 8d3d
000003f0: 85c7 3c3e eb2b 8d3d a0f6 2f3e 3f8d 7bbe
-0.09895689 -0.26922202 -0.1376036 -0.040546946 -0.08535218 0.28260216 -0.09207334 -0.1613354
-0.042412594 -0.008736482 0.03947021 0.24509935 -0.37421376 -0.07551321 -0.095309384 0.054778688
-0.008814166 0.12504616 -0.09302086 -0.112751186 0.07987 -0.08930429 -0.021902937 -0.10470725
-0.23233739 0.066490375 0.10307201 -0.07466567 -0.10787045 0.040321074 0.08352419 0.007657138
0.036628477 0.07156873 -0.26843578 -0.032313764 -0.102633476 0.026467817 -0.102117546 -0.08409128
-0.23050171 0.022124197 -0.088848025 0.11524157 -0.06683751 0.055085603 -0.032162763 -0.13956392
-0.15194872 0.019873587 0.06049192 -0.056764454 0.3310806 0.07418167 -0.08955588 0.13182142
-0.004373696 0.10274169 0.0066752234 0.101796284 0.06200928 0.044777717 0.010250812 -0.1824598
0.027506389 -0.26952338 -0.10500566 0.1291607 -0.21364771 0.07767406 -0.20375651 -0.11277125
0.00017708384 -0.51190025 -0.18972297 0.063237056 -0.4569001 -0.14450875 -0.019993432 0.11771427
-0.050867654 -0.15375257 0.14066459 0.10262346 -0.09463879 -0.17877425 0.13444729 -0.18004054
0.059365597 0.19507833 -0.016600925 -0.021949487 0.18239306 0.09580701 0.37576097 0.15160058
-0.01763877 -0.20980133 -0.4363536 -0.03783454 -0.21046026 -0.17426163 -0.13244675 -0.1263581
0.23129666 0.12623222 -0.024391478 0.11023844 0.18150319 -0.0061027072 0.1257105 0.011723916
0.043315668 -0.106316924 0.22214866 -0.13030137 0.09303041 -0.0077662077 0.16033147 0.042167768
-0.06309288 0.28561565 0.086544864 0.12375344 0.01827297 0.063432746 -0.124689974 -0.49233788
-0.07740803 0.098170124 -0.20668526 -0.06391087 0.025358895 0.08994358 -0.22167656 -0.17226017
-0.008759082 -0.08442445 -0.098281704 0.106423095 -0.13155772 -0.096294604 -0.068090476 -0.2618799
-0.15282585 -0.010212236 0.037117198 -0.054980427 -0.04148648 0.026672121 0.19285798 0.008143743
-0.010679355 0.12694813 -0.02896732 -0.06443826 -0.02040805 0.14576128 0.10719269 0.33314627
0.06945103 -0.06842265 -0.15352114 0.07113955 0.042060982 -0.011726922 0.0009901063 -0.07445095
0.04701301 0.17105061 -0.087311715 0.064019136 0.0982995 0.004409522 0.09103144 0.080348276
0.13954458 -0.05327796 0.035989046 -0.10175973 0.083223164 0.010099045 -0.003307231 0.06471158
0.14695013 -0.050369274 0.031174202 -0.12839508 0.14756535 -0.06471393 -0.13672751 -0.14143598
0.03784018 -0.16156872 -0.24807437 0.02133211 -0.24266681 0.08424661 -0.16859673 -0.29086363
-0.004963564 -0.123500355 -0.12286341 0.28584298 -0.23830388 0.038393926 -0.12825787 0.09516511
0.06133464 0.08613803 -0.11557661 -0.061461188 -0.0073004346 -0.095278636 0.18249992 -0.03904355
-0.2682895 0.12246967 0.15605158 -0.0657711 0.01143394 0.14274296 -0.022671653 -0.4631652
0.07897786 0.17377003 0.0012299898 -0.012813793 -0.06957133 -0.0954863 0.08860008 -0.042238005
0.0062492187 -0.113828264 0.05908714 0.12607723 -0.12558165 0.05078174 -0.06540328 -0.11495694
-0.14314547 -0.09024494 0.09471313 0.13318165 0.39687833 0.030070905 0.011539336 0.06356466
0.0640718 0.088052675 0.023314632 0.068996 0.18435486 0.06893142 0.17183924 -0.245656

lstm.bias_ih_l1 f4 [256]
00000000: dd82 95bd 0397 97bd 001f 523c 4280 51bd
00000010: cfc9 44be 075b a03c 381e b7bd d9f5 12be
00000020: 9206 bdbd 63fe 92be 1f48 8bbd 4ee8 e23d
00000030: c165 8abe a295 6ebd a427 dfbd 2ac1 05be
00000040: a8f5 dfbc cf6b 45be 1a63 d1bd 15a7 f0bd
00000050: 57ff b3bc 1f8b 613d be90 f3bd 6c4e 21be
00000060: 303b 83bd c1ae 7a3d b5ab a83d 06cf 00bd
00000070: 65b8 2cbd 97e0 ffbd 390d 09bd 7ab4 4abe
00000080: 3d74 bf3c 8af1 e5bd d1d2 30be 21bb 0fbe
00000090: 4168 6f3d 5768 f5bc 70df c53d 82fa 03be
000000a0: 7e0b 63bc 2eda 36be 1144 ff3c 90b8 213d
000000b0: 8da4 53bd da87 6bbd 3db1 eabd abaf a7bc
000000c0: 75ca b63d 2435 d93c e84f ecbd d010 68be
000000d0: 3115 053e 8cae 203d 7944 d6bd 2d25 3abe
000000e0: 6340 4a3d 81d2 bdbd 16ed 0dbe ac8e 8f3d
000000f0: 138b d5bd 2e59 28be bfc6 b3bd 22a4 37be
00000100: dc9a dabd 3289 1e3c 7a6b edbc 309f 12bb
00000110: 1314 f83d c187 67bc 815f b8bd 68ca ed3c
00000120: b1ea aa3d cb68 84bd 6c95 2bbd 97f9 02bd
00000130: 62fb ae3d 89c5 3c3d b670 44bd b5dc 193c
00000140: 9b4f 493d 8e7b 5fbd d6d7 10be 8e57 f1bd
00000150: b4bf 633d 539f 543d 78a6 87bb 17b0 73bd
00000160: fe5c 02be 47dc 263d fdba cebc 1db2 b0bd
00000170: dd3f 19bc 0163 e43d 0ccd bebc d598 fcbd
00000180: 300d 0abe 7e6d 4ebe 02ab a5bd f258 c53d
00000190: ce1c e6bd 387d e7bc 5e3b 7f3d 54ab 08be
000001a0: 54de 50be f714 5fbd 8678 f33d 5e38 8c3d
000001b0: e6a5 2fbe 0ce6 11bc 8e24 dfbc 4cca 67bd
000001c0: f045 2bbd a8f3 ecbd 9ba6 4bbe 068c 673b
000001d0: 2526 56bc 1c66 f1bd 9242 2bbe 713f 2fbc
000001e0: e291 293d 1780 19be 6212 9c3c 88c2 97bd
000001f0: 5358 29be a378 b73b de0d aabd 52b6 49bd
00000200: 8ecb ef3d 3b65 c8bd d055 9c3d ef43 94bd
00000210: 33a4 b73a 517a b43d cf10 0fbe 9241 cabc
00000220: 94ee 7b3d 0a60 a3bd 448e 933d 6ab7 3a3d
00000230: 7905 4ebd 774f a9bd 1c5c 93bd 28d1 9abd
00000240: c43b 493d d18e 4c3b e6a8 5e3d 3539 443d
00000250: df82 ae3d c645 9b3d 0a08 8f3d c429 05bd
00000260: 9a1a ee3c ab76 c03c c67a d1bb a191 1abe
00000270: 394b 5cbc fece b33d 1354 313e 7d16 10bc
00000280: e787 e3bc 53b7 7b3d 82ad f8bd 35f9 4b3d
00000290: 5800 223d 70ff 093c 55fb 1abd fcb8 10bd
000002a0: f475 213d 8c63 67bd 813f 1f3e 0ea0 a23d
000002b0: 6860 b73d d630 a8bd b7b0 593c 3921 12be
000002c0: e614 9abc 8091 173d c381 f8bc fd5a 3f3d
000002d0: 826a b1bc 7363 0cbe c2f5 4b3d d4b0 78bc
000002e0: 2d8b 38bd 3e61 223e 9a90 2abd 93b1 133e
000002f0: 3dc8 2ebd 3ca7 a6bd 80d9 f5bc 5333 4dbc
00000300: ce0e ddbd 01de 413d 6294 30be 47e5 59bd
00000310: 3c3a 52be 6f0d 06be 66e0 f73b 3a78 a9bd
00000320: f0db b83d 9e75 70be a500 b5bd 0cf4 f83c
00000330: 6f1f 79be 4644 08bd e065 2bbd ab3e 84bd
00000340: 341b 8d3d a9d1 313b 4604 00bd 2b48 96bd
00000350: 516c 95bd e3d6 943c 25c2 80bb a73e b1bd
00000360: 09dd 943c c2d1 04be 369e 9f3d aa9c 4fbd
00000370: 6fcb 84bc 09c7 24be b107 cd3d 9dbb 52be
00000380: 979e 39be 3d21 f4bc 9791 a7bd d057 d53c
00000390: 45c7 e9bd d3aa 48be 3303 cc3d 7afc d0bc
000003a0: 8f3c 71be 776f 31be 815d 973d f73a f2bd
000003b0: a7c0 18bd bfa5 4e3d 1a42 3abd 5000 a63c
000003c0: 34bb 5abd da62 6b3d 1c4b 68bd ee81 993c
000003d0: def7 c33d 4584 c3bd 841b 57bc 6b20 19be
000003e0: b5b5 9a3c 2592 d23c feda 3cbe 7417 963d
000003f0: c9d8 c63c cc2d c53b 4d1d b5bd 99e1 39be
-0.07300351 -0.0740185 0.012824774 -0.051147707 -0.19217609 0.019574655 -0.08941311 -0.14351596
-0.09229769 -0.28709707 -0.068008654 0.11079465 -0.27030757 -0.05824817 -0.10896233 -0.13061967
-0.027338818 -0.19279407 -0.1022398 -0.11750618 -0.021972341 0.055064317 -0.11892842 -0.15752572
-0.064077735 0.061201815 0.082358755 -0.031447433 -0.04216804 -0.12494009 -0.033459876 -0.19795409
0.023370856 -0.112277105 -0.1726792 -0.14036228 0.058449034 -0.02995698 0.09661758 -0.1288853
-0.01385772 -0.17856666 0.031160386 0.039482653 -0.0516706 -0.057502605 -0.11459587 -0.020469507
0.08925334 0.026514597 -0.115386784 -0.22662663 0.12996365 0.03922896 -0.10462279 -0.18178244
0.04937781 -0.09268666 -0.13859972 0.070096344 -0.10426917 -0.1644027 -0.08778142 -0.17933705
-0.10674068 0.009676265 -0.028981913 -0.0022372715 0.12113204 -0.014131487 -0.09002591 0.029027179
0.08345545 -0.064653 -0.041890547 -0.03197631 0.08544041 0.04608682 -0.047959052 0.009391
0.049148183 -0.05456119 -0.14144835 -0.11784278 0.055602744 0.051909756 -0.0041397177 -0.059494104
-0.12730786 0.040737417 -0.025235647 -0.086277224 -0.009353605 0.11151696 -0.023291133 -0.12333838
-0.13481593 -0.20158955 -0.08089258 0.096361056 -0.11235963 -0.028257951 0.062312476 -0.13346606
-0.20397311 -0.054463353 0.118882224 0.06846689 -0.17153129 -0.008904945 -0.02723911 -0.05658941
-0.041814744 -0.11569911 -0.19887774 0.0035331263 -0.013070618 -0.11787054 -0.16724613 -0.010696278
0.04139889 -0.14990269 0.019051734 -0.07410151 -0.165376 0.005599098 -0.08303426 -0.04924614
0.11708747 -0.09784933 0.07633555 -0.0723952 0.0014010727 0.088123925 -0.13971256 -0.02468947
0.061506823 -0.07977302 0.072048694 0.045585074 -0.050298188 -0.0826711 -0.07195303 -0.07559425
0.049129263 0.0031213055 0.054360293 0.04790612 0.085210554 0.075816676 0.06983955 -0.032510534
0.029065419 0.023494085 -0.0063928096 -0.15094616 -0.013445669 0.08779715 0.17317228 -0.008794424
-0.027774764 0.06145413 -0.12142469 0.04979821 0.03955111 0.008422717 -0.037837345 -0.035332665
0.03941913 -0.05649142 0.15551569 0.07940684 0.08953935 -0.0821244 0.013286761 -0.14270486
-0.018808793 0.037003994 -0.030335313 0.046717633 -0.021657232 -0.13709812 0.04979492 -0.015178878
-0.045054603 0.15857407 -0.04164181 0.14423208 -0.04267143 -0.08137366 -0.030010939 -0.012524444
-0.107938394 0.04733086 -0.17244104 -0.05319717 -0.20530027 -0.13091062 0.007564592 -0.082748845
0.09026325 -0.23482367 -0.088380136 0.030389808 -0.24328397 -0.033268236 -0.041845202 -0.064572655
0.06889954 0.0027133024 -0.031254075 -0.07337984 -0.0729605 0.018168872 -0.003929394 -0.08654528
0.018171804 -0.12970641 0.07793848 -0.050686516 -0.016210286 -0.16091551 0.10011233 -0.20579381
-0.18126903 -0.029801005 -0.08182066 0.026042849 -0.11414961 -0.19596414 0.09961548 -0.025511015
-0.23558258 -0.17327677 0.07390881 -0.11827653 -0.037293103 0.050451037 -0.045473196 0.02026382
-0.053401187 0.05746732 -0.056712255 0.018738713 0.09568761 -0.09546713 -0.013129119 -0.14953773
0.018885473 0.025704453 -0.18442914 0.07328692 0.024273293 0.0060174223 -0.08843479 -0.18152465

lstm.bias_hh_l1 f4 [256]
00000000: 8784 493c c150 b2bd a85c e13b 54a6 063d
00000010: 78ae cb3c df05 34be 24b6 02be 0b0f ecbd
00000020: 9bdf 823d 8555 2fbe 30ed b9bd 4aea 96bd
00000030: 40c1 eebd 1de2 a03d 9052 15be eb6a 99bd
00000040: 623e 0abe 91f4 90bc 2491 0bbe 5893 913c
00000050: 0f97 65bc 93c0 b5bd b72b f9bc b943 b8bd
00000060: 9052 e5bc 6d16 5fbd 6e34 acbc 4660 be3c
00000070: e282 67bd 7bd3 47be 4924 373d 8f1e c8bd
00000080: f9d0 f7bd 6174 6abc 77e3 6bbe b31a 11bd
00000090: f61c a73d a221 59be 2e33 0cbd ad1f 3abd
000000a0: 1ac7 74be c7bb 5ebd 4504 493d e414 0fbe
000000b0: 4c46 6a3d 0210 ecbd fd2a f4bc 0d7b 553c
000000c0: 7ddc b7bc 0138 933d 0e69 503d 018e 78bd
000000d0: 3b42 3b3e 2e48 80bd 9972 543d 11af 60be
000000e0: 49d5 113b b577 c53a 6ee7 35be b947 09be
000000f0: fde2 2a3d 3d1f dbbc 2f91 f23d 52a5 fbbd
00000100: 9024 003d 0122 85bb 080b 13bd 9a73 07be
00000110: 53e6 90bd cbf6 193c 5197 55bd 3e21 a1bc
00000120: c691 07be f78a 333d 8401 853c 8591 273b
00000130: 857f c43c b53e a53d 200f 813d 0bac 0a3d
00000140: 33e6 02be bf5f 9c3c 4ba3 6d3d 0b99 45bd
00000150: 9943 1bbe 374f 313d 9304 c0bd 9258 463d
00000160: b5bd 10bd 9a2f 603d 7270 6cbd 02df d0bd
00000170: 68ee 67be 51a1 ae3d e995 e1bd ca09 bdbc
00000180: b252 8fbd e2c9 aabd fdde 3cbe 0562 893d
00000190: ee93 84be bedc 233d e589 3e3d b76c 74bd
000001a0: adda 99be 9b7a 42bd 2875 513d a000 223d
000001b0: 37ec 073d 4c1c 9bbd 34ca 97bd 06eb dc3c
000001c0: 3953 1fbb 4120 0abe 099a fcbd 9c19 d2bd
000001d0: ce78 adbd 68eb 9b3b 411c e13b 4746 01be
000001e0: af44 16be e43e 8bbd 65fb ccbd 217f 8fbd
000001f0: ed11 853c 02fd f5b9 6b91 2fbe 6823 653d
00000200: e250 b53d d621 8abd ac09 e5bd 5144 c73d
00000210: fec9 72bd 133d 91bb 423a b73c 9619 8dbc
00000220: 696d 003e 2766 9dbd bed3 1ebe 0b3f 1e3c
00000230: 6dd7 30bd a8a5 c4bc 3045 18bb 0a72 e43c
00000240: 948c 6ebc c4e4 82bc bf4b 8f3d 9ad5 ec3d
00000250: b892 603d 619e 27be b225 393c 8bbf 5abd
00000260: 4efd 94bd 9c48 f03d dfec 89bd 7ce5 cd3c
00000270: 5425 f33d 792a 893d 9311 32bd ba86 423c
00000280: a0ba 463c 614a 2ebe 540d b83d 9229 b33d
00000290: 2b50 15be e133 993c e504 05be c037 d1bb
000002a0: c711 7e3d 1297 603d af5c bf3d 0af4 af3d
000002b0: ac89 6ebd cc62 1f3e 6534 a539 9638 1ebd
000002c0: 6f3d 22bd c37a 1cbe 2915 1b3e 47ae 13bc
000002d0: 05b8 973b 7445 f33c 36a2 40bd f132 803d
000002e0: 16e5 73bd 8002 58bd 3427 e03c af13 fe3c
000002f0: 2ec5 603c 155b 10bc d8dc 50bd 5017 0fbd
00000300: a9ac 843d 2bd1 75bb 5aa4 b5bd b4a6 67bd
00000310: 7877 31bd cbaf 8ebd 3a7f 823d 992f a9bd
00000320: 910a 923d eb99 2cbe 53b9 12bd 6be4 553d
00000330: d5a0 aabd 9a81 11be 6eeb cebd 7136 57be
00000340: 8411 1ebc 482c 14bd d8ea 593d 2b4a 31bd
00000350: 0f1f 20be 1b40 463d f468 e2bc 1fb0 783d
00000360: b81b c73d 77b8 d7bd a549 2b3d bf6b 1bbd
00000370: 442f dabd cc83 86bd d5d9 be3d 93a8 5cbe
00000380: 4d79 7b38 c6dc e43d fa5b 8bbe 1c74 5a3d
00000390: f438 f8bd 94eb 73bb 19eb 8a3d 630c e1bd
000003a0: e941 79be 138c 22be 77b3 48bd d7c6 94bb
000003b0: 58ea 9e3b 0304 e23c df5f 9dbc 3583 533d
000003c0: a9a3 c53c a2d6 75bd 9ab8 843d 9e83 cbbd
000003d0: 7caa c53d 1c58 2bbd 06a9 3c3d 0f5b cebd
000003e0: 7a03 bf3c 71a7 0ebe 877e cebc d36d 9e3c
000003f0: 1dd4 973c 2165 25bd 3417 56bd ff84 60be
0.012299663 -0.08706809 0.0068775006 0.032873467 0.024863467 -0.17580365 -0.12764794 -0.11526307
0.063903056 -0.17122467 -0.09078443 -0.07368906 -0.11657953 0.07855628 -0.14582276 -0.07491096
-0.1350036 -0.017694743 -0.13629586 0.017770454 -0.014013066 -0.08874621 -0.030416353 -0.08997292
-0.02799347 -0.054464746 -0.021021094 0.023239266 -0.056521304 -0.19514267 0.04471234 -0.097714536
-0.12100405 -0.014309973 -0.2303599 -0.035425853 0.08159821 -0.21204236 -0.034228496 -0.045440365
-0.23904076 -0.054378297 0.049076337 -0.13972813 0.057195947 -0.11526491 -0.029805655 0.013029826
-0.022444004 0.07188416 0.050881438 -0.0606823 0.18286984 -0.06263767 0.0518671 -0.21941783
0.0022252372 0.0015065583 -0.17764065 -0.13406266 0.04172038 -0.026748294 0.11844098 -0.12287392
0.03128487 -0.0040628915 -0.035899192 -0.13227692 -0.07075181 0.009397219 -0.05214626 -0.019669171
-0.13239202 0.0438337 0.016236074 0.0025568914 0.023986587 0.08068601 0.06301713 0.03385548
-0.12783127 0.019088624 0.058017056 -0.048241656 -0.15162505 0.043288436 -0.093758725 0.04842431
-0.03533717 0.054732896 -0.057724424 -0.10198785 -0.22649539 0.085268624 -0.11014921 -0.023075957
-0.06998195 -0.08339287 -0.18444438 0.06708149 -0.2589411 0.040005438 0.046518225 -0.05967399
-0.3004965 -0.047480207 0.05113712 0.039551377 0.033184256 -0.075737566 -0.07411614 0.026967537
-0.002431108 -0.13488866 -0.123340674 -0.10258791 -0.08470307 0.004758287 0.006869823 -0.12624465
-0.14674638 -0.06799105 -0.10008887 -0.0700667 0.0162439 -0.00046918547 -0.17145316 0.05594197
0.08853318 -0.06744735 -0.111834854 0.09729827 -0.059274666 -0.0044323294 0.022366647 -0.017224114
0.12541737 -0.076855 -0.1551046 0.009658585 -0.043174196 -0.024004772 -0.0023234598 0.02788641
-0.014559884 -0.015978225 0.06996869 0.11564179 0.054827422 -0.1636901 0.011300491 -0.053405326
-0.072748765 0.11732599 -0.06734633 0.02513384 0.11872354 0.06697554 -0.04347379 0.011872942
0.012129456 -0.17020561 0.08986917 0.08748163 -0.14581363 0.018701496 -0.12990148 -0.0063848197
0.062028673 0.054831572 0.0934385 0.08591469 -0.058236763 0.15565032 0.0003151029 -0.038628183
-0.03960937 -0.15281205 0.1514479 -0.009013719 0.004630091 0.029696204 -0.047029696 0.06259716
-0.059544645 -0.05273676 0.027362444 0.031015245 0.013718886 -0.008810778 -0.050991863 -0.034934342
0.06478245 -0.0037508707 -0.08869238 -0.056555465 -0.043326825 -0.069671236 0.06371923 -0.08261032
0.07130922 -0.1685559 -0.03582127 0.05221979 -0.083314575 -0.14209595 -0.101034984 -0.21016861
-0.009647731 -0.036175042 0.05320248 -0.043283623 -0.15636848 0.04840098 -0.027637936 0.060714837
0.09722084 -0.10533231 0.04181828 -0.03794455 -0.106535465 -0.06568107 0.09318892 -0.21548681
5.9956034e-05 0.11174922 -0.2721861 0.053333387 -0.12120238 -0.0037219273 0.067831226 -0.10988691
-0.24341549 -0.15873747 -0.048999276 -0.004540305 0.0048497133 0.027589804 -0.019210754 0.0516388
0.02412589 -0.060019143 0.064805225 -0.09937213 0.09651658 -0.041832075 0.04605963 -0.10075962
0.023317087 -0.13931061 -0.025206817 0.019339478 0.01853376 -0.040379647 -0.052268222 -0.21925734
