best_model_LSTM_noise.pth (torch, 420044 bytes, 5 tensors)

lstm.weight_ih_l0 f4 [640, 1]
000000 20 98 ed 3e 14 f8 ec 3d 59 a2 81 3e 29 74 89 3e
       0.46405125 0.11570755 0.25319174 0.26846436
000010 98 3d 27 3e 54 25 8e 3e 0e ce 88 3e 01 b9 76 3e
       0.1633209 0.27762854 0.26719707 0.24094011
000020 97 1e 19 3e 36 01 40 3e a2 12 28 3e 0c 40 eb bd
       0.14953075 0.18750462 0.16413358 -0.11486825
000030 6c 8b 38 3e 9f 7f 61 3e d1 2d 9f be b9 a5 54 3e
       0.18021935 0.2202134 -0.31089643 0.20766343
000040 d7 e1 87 3e 77 b4 0c 3e f4 6a 55 3e 1c 8c f6 bd
       0.2653949 0.13740717 0.2084158 -0.120384425
000050 6e 3f a7 be ea 8f f8 3e 6e 0b 4b 3e 33 60 01 3f
       -0.3266558 0.48547298 0.19828579 0.50537413
000060 4f fe 5f bd b4 35 2b 3e 14 ca 4c 3e f3 3e cc 3e
       -0.054685887 0.16719705 0.19998962 0.39891776
000070 d3 85 48 3e 0a a9 f0 bc a8 42 60 3e 51 ed 5c 3e
       0.195823 -0.02937748 0.21900427 0.21574904
000080 0f 63 8e 3d 47 13 81 3e fe 6a a8 3d 32 28 65 3e
       0.06952488 0.2521002 0.08223532 0.22378615
000090 80 6a 83 3e a2 9e b0 ba f3 95 6a 3e 1c de de 3e
       0.2566719 -0.0013475011 0.22908764 0.4352883
0000a0 74 7b 03 3f f6 54 56 3d ee dd a2 3e bb 2e 04 3f
       0.5136025 0.05232712 0.31809944 0.51633805
0000b0 1d ed fc 3d 99 cd 86 3e f5 8a 80 3e 1a b3 f6 be
       0.12349913 0.26328734 0.25106016 -0.4818352
0000c0 c5 ba 34 3e 15 e9 5f 3e b9 ac bb 3e 7a fe 69 3e
       0.17649372 0.21866257 0.36655214 0.22850981
0000d0 dd 43 68 3e 0f 0e 55 3e 41 ca 0b 3e da 19 5b be
       0.22682138 0.20806144 0.13651372 -0.2139658
0000e0 be ca f7 bd 89 e6 a7 3e 25 52 1d bd 06 8a 6e 3e
       -0.12099217 0.32793072 -0.038408417 0.2329484
0000f0 b3 4a cc be 93 e9 53 3e 8c ac a6 be ec 43 85 3d
       -0.3990074 0.2069457 -0.32553518 0.06507096
000100 df b0 a2 3e 5b df 6e 3e 43 b8 b3 bd 3e ff fa 3d
       0.31775567 0.23327391 -0.087753795 0.12255715
000110 d1 a6 05 be 08 60 80 3e 3f 92 4d 3e 68 ec 20 3e
       -0.13051917 0.25073266 0.2007532 0.15715182
000120 82 c1 4a bd c7 c1 6c 3e 4d 2c a3 be ec e5 2d 3f
       -0.04950095 0.23120795 -0.31869736 0.6792896
000130 94 e0 c8 3e 01 46 5a 3e e9 e0 38 3e 41 33 1a bd
       0.3923384 0.21315767 0.18054546 -0.037646536
000140 0b f5 d0 3d 54 48 9a 3e 31 60 5b 3d c9 59 ae 3e
       0.10202988 0.30133307 0.053558532 0.34052876
000150 d9 38 31 3d 83 67 a2 bd 0b bf e8 3d d7 b6 11 3e
       0.043267105 -0.079298995 0.113645636 0.14229904
000160 07 0c 8e 3e 20 23 8c bd ea 43 fc bd db 5e a1 3e
       0.2774355 -0.06842637 -0.12317641 0.3151768
000170 5b 54 73 3e 25 ad 37 3e 2e 35 2d be e5 2a 15 3e
       0.23762648 0.17937143 -0.16914818 0.14567144
000180 f3 12 d7 3e 30 64 3d 3d 9b 5d 93 be 2a 42 83 3e
       0.42006645 0.046238124 -0.28782353 0.25636417
000190 0e c4 0a 3e 9c 6e 9d 3d cd 52 dd be f4 fa 11 bf
       0.13551351 0.07687113 -0.43227234 -0.5702355
0001a0 47 a8 b7 3e 8b e7 5d 3e 73 d6 0e 3f 77 1f 8a be
       0.35870573 0.21670358 0.55795974 -0.2697713
0001b0 6b 38 ee 3e fc 48 ae bd 50 2b 14 3f 2d bf a4 3e
       0.46527418 -0.085100144 0.5787859 0.32177106
0001c0 d6 60 c9 bd b4 02 f6 bd bc 22 c9 3d 4b 64 83 3e
       -0.09832923 -0.12012234 0.09821078 0.25662455
0001d0 aa 9d 85 3e 43 39 0e 3e 3e bb 5c be 52 fc b3 3d
       0.2609685 0.13889031 -0.21555802 0.08788361
0001e0 4d e4 9f 3e 2d b9 06 be b8 29 4e 3e 3d ee 34 3f
       0.31228867 -0.13156576 0.20133102 0.7067602
0001f0 c8 b2 13 3e 86 fe 1a 3e 90 bd 6b be ae ec 75 3e
       0.14423668 0.15136155 -0.23021531 0.24016067
000200 08 d4 39 be bc ba a8 3e d2 3f d2 3d a1 3c 30 3e
       -0.1814729 0.32954967 0.10266079 0.17210628
000210 75 18 9a 3e 15 d8 20 3e a9 20 34 3e da 85 d0 3e
       0.30096784 0.15707429 0.17590584 0.4072712
000220 8c 5a 9b bd 3d 49 69 3e 66 c2 bd 3d e1 41 15 bf
       -0.0758563 0.22781844 0.09265594 -0.5830365
000230 f1 ec 07 bd 50 16 b3 3d 41 f4 57 3e 5a 0b 1e bd
       -0.03318495 0.0874449 0.21089269 -0.038585044
000240 4f b8 9c 3d 6f 68 ef 3d 15 36 86 3e aa 83 3a 3f
       0.076523416 0.11689841 0.26213136 0.72857153
000250 6a 8e 84 3e a2 f5 8e 3e a5 7e bd 3e 90 64 64 3e
       0.25889903 0.27921778 0.37010685 0.22303987
000260 4b ab 38 be 10 3c df be 17 81 08 be 93 04 34 3e
       -0.18034093 -0.43600512 -0.13330494 0.1757987
000270 ae 45 79 be 7c 2c a7 3d 91 0d 6e 3e ef 2d 1b 3e
       -0.24342987 0.081627816 0.23247363 0.15154241
000280 de 97 37 3e ac 22 6b 3d 2c d4 14 3e fc 05 f8 3d
       0.17929026 0.057406113 0.14534062 0.121105164
000290 f7 d3 ad bd b1 1e 83 3e 2d 3c 60 3e cb 80 11 3f
       -0.08487695 0.25609353 0.21897955 0.5683715
0002a0 9b 26 f2 3d b7 d0 0b bf 7b 75 fd 3c de 48 84 3e
       0.1182377 -0.5461535 0.030939808 0.25836843
0002b0 8e 95 ea 3d 63 ac d9 3d 97 a4 61 bf 6d 99 39 3e
       0.114543065 0.10628583 -0.8814177 0.18124934
0002c0 17 8a 8e 3d ea 29 b5 3e 09 76 6f 3e 2e 58 05 3d
       0.06959932 0.3538354 0.2338487 0.032554798
0002d0 43 05 58 3e e3 ed ba 3e 7e 26 2b 3e 27 3c e9 be
       0.21095757 0.36509618 0.16713902 -0.45553705
0002e0 a0 2d 2c 3e e3 5b 84 3e e0 c6 f0 3d 24 3e c0 3e
       0.1681428 0.25851354 0.117566824 0.3754741
0002f0 f2 f3 b8 3d f1 02 0f 3f bc 70 ed 3d c7 63 9c 3d
       0.09030904 0.55863863 0.11593768 0.076362185
000300 71 77 07 3f 17 ba e4 3d f3 f9 b3 3e a4 59 e8 3e
       0.5291663 0.11168306 0.35151634 0.4538089
000310 3b 2a e6 3d f3 16 5f bd 9a 3b f9 3d 1b f2 e2 3d
       0.112385236 -0.054465245 0.12169571 0.11081334
000320 4b 23 21 bf 20 d7 85 3e 62 e6 10 3e 74 be 07 3e
       -0.6294448 0.2614069 0.14150384 0.13256246
000330 4c 65 95 3d ed 5d 7c 3e 29 ca 54 3e f7 dc a5 3d
       0.072947115 0.24645205 0.20780243 0.08098786
000340 10 b0 a4 3d 54 85 f3 3e 42 17 c0 be 14 d3 9b 3e
       0.08041394 0.4756266 -0.37517744 0.30434477
000350 7c 00 ac 3e 06 46 b9 be a2 b7 93 3d f2 58 c8 3d
       0.3359412 -0.36186236 0.072127596 0.0978259
000360 dd 16 99 bc 43 30 e8 be 41 a3 e4 bc 4d c3 c8 3d
       -0.01868766 -0.4534932 -0.027909877 0.09802876
000370 e7 8d 5b 3e 62 da 00 3e fe 4a 06 3e 30 51 12 3d
       0.2144085 0.12583306 0.13114545 0.035721958
000380 75 e2 87 3e b7 fd 94 3e 65 27 14 3e 7d 74 f8 3e
       0.2653996 0.2909982 0.14468153 0.48526374
000390 de 91 56 3e 2f ce 4c 3e 78 18 97 3e 22 12 bb 3d
       0.20954081 0.20000528 0.29510856 0.09134318
0003a0 22 01 a5 3e 60 fc 92 3d b0 68 4b 3e 8e cf df 3e
       0.32227427 0.07177043 0.19864154 0.4371304
0003b0 91 e7 0d be ff 4f 0c 3f 54 21 35 3e 18 15 0b 3e
       -0.13857867 0.54809564 0.17688495 0.13582265
0003c0 97 4e a4 3c 84 95 2e 3e 47 e5 04 bf 6a 15 18 be
       0.020057006 0.17049223 -0.5191235 -0.14851919
0003d0 b8 ff 91 3d 59 f1 02 3f cc fc 94 3e 9a 62 4a 3d
       0.071288526 0.5114952 0.2909912 0.04941044
0003e0 db 74 8d 3d 89 d7 fa 3e 65 6d bd 3d 6a bd 1f bd
       0.06907054 0.48992565 0.09249381 -0.038999
0003f0 36 73 68 3e 7a d9 9c be cf 95 a1 3e 0c 6f 8f be
       0.227002 -0.3063467 0.31559607 -0.2801441

lstm.weight_hh_l0 f4 [640, 160]
000000 19 c4 34 be be b2 83 bd f3 7d d9 3c e2 21 07 be
       -0.1765293 -0.06430577 0.026549315 -0.13196519
000010 a5 33 9c 3e 22 f9 84 be e7 ab 29 3e 7a c4 8b be
       0.30508152 -0.25971323 0.16569482 -0.27298337
000020 77 6b b4 be cd ca 00 bd e6 0a 33 bf 3d 5b 1c bd
       -0.3523824 -0.031443406 -0.69938505 -0.03817295
000030 4a 43 b5 3d 8d 4d 5a be 2e 41 f8 3d 17 4f 15 bb
       0.08850725 -0.21318646 0.12121807 -0.0022782737
000040 27 45 0f be 39 97 2d 3e b9 02 e7 bd a5 ce 96 3b
       -0.13991223 0.16952218 -0.11279816 0.0046022707
000050 a5 e6 e8 3e a3 44 92 bb 26 22 4f 3e 76 ce e6 3d
       0.45488468 -0.0044637485 0.2022787 0.11269848
000060 87 15 ae 3e 17 25 b8 3d 1a 58 04 be c0 95 b8 3d
       0.340008 0.08991449 -0.12924233 0.090129375
000070 31 01 32 be 5e 66 81 be 4f dd 23 3e d8 29 cd bd
       -0.17383267 -0.25273412 0.16002391 -0.10017747
000080 6d 1c 87 3e 5a 6c 18 3e 08 8d 1b 3e 7b 59 63 be
       0.26388875 0.14885083 0.15190518 -0.22202103
000090 2b c1 00 3e 78 ea ab 3d 33 1b 95 be e4 4a 62 be
       0.12573688 0.08394331 -0.29122314 -0.22098881
0000a0 b6 37 8c 3d 29 1c 8a bd 66 d8 dd 3d 6b 53 1e 3e
       0.068465635 -0.067436524 0.1083229 0.15461509
0000b0 17 b2 be 3d 8e ce c3 3d 19 d7 84 bd 6d 6b c7 3d
       0.09311312 0.095608816 -0.06486339 0.09737287
0000c0 85 1c 29 3c 14 45 73 3b 3c 2c d4 bd 72 49 f2 3d
       0.010321741 0.0037120031 -0.103599995 0.11830415
0000d0 dc 9b 25 3e bb 98 22 bd c5 27 3f bd 39 81 8d be
       0.16172737 -0.039696436 -0.046668787 -0.27637652
0000e0 42 52 1b 3d f4 41 2b 3e 3e 16 04 3f df a0 9c 3e
       0.037920244 0.16724378 0.5159644 0.30591485
0000f0 91 5f 46 3c 1c 56 0a be d4 52 d0 3d 39 45 ca 3b
       0.012107746 -0.1350941 0.10172048 0.0061728028
000100 61 6d 8e 3e c1 20 ec bd 1f 57 73 bd c4 df 74 3e
       0.27817824 -0.11529685 -0.059409257 0.23913485
000110 f9 e2 8e be a6 2d aa 3e c3 c0 b9 3d 7e 07 8d 3e
       -0.2790754 0.33237952 0.090699695 0.2754478
000120 cb f9 9e 3a ee 7d f0 bd 7a 61 3b be f1 a3 ef bd
       0.0012128887 -0.11742769 -0.18298903 -0.11701191
000130 dc eb 3c 3e ef c2 cc bd 8a ac f5 bd 5e a0 b5 3e
       0.18449348 -0.09998118 -0.119958 0.35473913
000140 19 5d a0 bd 75 eb 34 3e c9 de a4 3d db 39 61 be
       -0.07830257 0.17667945 0.080503054 -0.21994726
000150 d7 28 c8 3c 0b 16 61 be e2 44 0e be 16 8b 0f 3e
       0.024433536 -0.21981065 -0.13893464 0.14017901
000160 1e bb 0a 3b 6e f9 2e 3e ca ac 21 3e 4a 92 81 3e
       0.002116866 0.17087337 0.1578857 0.25306922
000170 32 a1 a8 bd ec 0a 7d ba 55 db 3d be bd 06 f6 be
       -0.082338706 -0.00096528116 -0.185407 -0.48052016
000180 a3 29 2e 3e 55 73 7b 3e d2 08 d4 be f2 d7 25 be
       0.1700807 0.24555714 -0.4141298 -0.16195658
000190 3b c5 59 be e4 fd 90 3d db 16 ce 3d f4 e2 3f be
       -0.21266644 0.07079676 0.10062953 -0.1873892
0001a0 36 c5 57 3e 3b 03 ed 3d 0c 54 03 bc 93 d2 3e bd
       0.21071324 0.11572882 -0.008015644 -0.046587538
0001b0 28 a2 8f bd a8 42 b7 bd 50 bd d4 bd e4 ba a1 be
       -0.07013351 -0.089482605 -0.10387671 -0.315879
0001c0 02 d4 71 3e 27 18 bc 3d 7e cf cd 3d 6c 9b 0b be
       0.23616031 0.09184294 0.100493416 -0.13633507
0001d0 4e 15 00 3f 6c de d6 bd a2 84 0b be 32 59 21 bc
       0.5003251 -0.10491642 -0.13624814 -0.009847926
0001e0 0e a6 78 bd bf 4b ff bd 10 2c d3 3d 29 bd 11 bf
       -0.060705237 -0.12465619 0.10311139 -0.5692926
0001f0 58 45 6d 3e 37 c9 0b be fc e0 2b be 8d 16 6a 3d
       0.23170984 -0.13650976 -0.16785043 0.057150412
000200 c8 77 6b be 5c 97 db bb 2b c5 d6 bd ab d7 40 be
       -0.22994912 -0.006701393 -0.104868256 -0.18832271
000210 d1 b6 db 3d 79 7f 2f 3e 63 28 82 3e 4a b7 15 3e
       0.10728229 0.1713847 0.25421438 0.146207
000220 db 9f 26 be a4 c7 b8 bd 56 17 9d be 8a 96 0b 3e
       -0.16271918 -0.090224534 -0.30681866 0.13631645
000230 55 f1 40 3e fe ae cf 3d fb 74 09 be b5 34 20 3e
       0.18842061 0.10140799 -0.13423531 0.15645106
000240 65 95 df 3d ec d9 14 3e 62 1f 11 be f5 d6 60 bd
       0.109171666 0.14536256 -0.14172128 -0.0548925
000250 8c f4 91 3d fb 51 52 3c 02 82 e8 3d 9d 67 e8 bc
       0.07126722 0.0128369285 0.11352922 -0.02836972
000260 fa 2c 15 be ea 27 57 3d 51 d6 93 be b1 9f 70 bc
       -0.14567938 0.0525283 -0.28874448 -0.014686511
000270 70 31 22 bd b7 47 27 3e ed 17 a7 be ee 89 6b be
       -0.03959793 0.16335951 -0.3263544 -0.23001835
000280 47 d3 ba bd 55 ab 32 be c6 c8 15 3e d8 6d 7c bd
       -0.09122329 -0.1744817 0.1462737 -0.061628193
000290 a5 e0 ef 3d 12 b0 97 be 38 28 a5 bc 5e 99 b0 be
       0.117127694 -0.29626518 -0.02016078 -0.3449201
0002a0 fb 21 f8 bd d3 0f 14 be 4b 86 9a bd 94 e5 7a 3e
       -0.12115856 -0.14459161 -0.075451456 0.2450164
0002b0 fc 94 d2 bd 9d e6 62 be f5 4e 4a 3d 7d a3 64 be
       -0.10282323 -0.22158284 0.049391706 -0.22327991
0002c0 ed b1 52 be be 08 2f 3e bb 71 5f 3d 61 9a 17 be
       -0.20575686 0.17093179 0.05455182 -0.14804985
0002d0 8b 4d 93 bc 83 7c b3 bc 33 4f 9e 3d 3f 57 14 3e
       -0.017981311 -0.021909958 0.0772995 0.14486407
0002e0 fd 09 2f 3e 1b 28 8c be df 00 98 bd c5 d8 91 3d
       0.17093654 -0.27374348 -0.07422041 0.07121424
0002f0 c2 27 24 be 1b 2c 88 3d e8 1b 2e 3e 16 b1 0b be
       -0.16030791 0.066490375 0.17002833 -0.13641772
000300 17 5c 85 ba 36 5d a9 3d 60 6d 62 3e a6 d5 65 be
       -0.001017454 0.08269732 0.22112036 -0.22444782
000310 70 bf b6 3d 36 e8 5e 3c c5 83 5c be 52 70 8f bd
       0.089232326 0.013605168 -0.21534641 -0.07003845
000320 66 94 d1 3d 6e 41 19 bc 45 63 96 3d 28 43 68 3d
       0.10233383 -0.009353979 0.07343153 0.05670467
000330 06 0c 3d 3e 49 49 98 3e 24 01 af 3a 15 51 ad bd
       0.18461618 0.29743412 0.001335178 -0.08462731
000340 dd 38 32 be a1 15 59 3d ee b9 8b 3d 2f 94 92 3e
       -0.17404504 0.052999143 0.06822573 0.2862868
000350 46 b6 b9 3e fd d0 0e be 98 3d 2e be 82 7d f3 bd
       0.36271876 -0.1394691 -0.17015684 -0.11889173
000360 d3 40 51 bd 0a 71 80 bd 01 18 12 be 23 3a 76 3e
       -0.05108721 -0.062715605 -0.1426697 0.24045615
000370 70 fd 9b 3d 53 e2 a6 bd f7 f4 66 3c f9 74 fc bc
       0.07616699 -0.08148637 0.01409649 -0.030817496
000380 7b 76 8c 3e c8 6a cf 3d eb ca 36 be 86 6d c6 3d
       0.27434143 0.10127789 -0.17850845 0.09688859
000390 a4 2c 10 3e d6 5b 6a 3e ea 25 e6 3d 58 2f 20 3e
       0.14079529 0.22886595 0.112377 0.1564306
0003a0 45 90 36 be bb f1 1b be 83 63 4e 3d 21 b9 32 3d
       -0.17828472 -0.15228932 0.05038787 0.043633584
0003b0 ca 96 58 3d 5e cf bd bc e4 6b 16 be 64 24 e9 bd
       0.05287818 -0.02317017 -0.14689595 -0.11383894
0003c0 f1 08 e0 3b 24 69 69 3e cd 9e 65 bd 52 0d b8 bd
       0.0068370034 0.22794014 -0.056059647 -0.08986916
0003d0 51 e6 02 be 80 03 56 be d9 ec 18 bd 1e 1c 07 3e
       -0.12783171 -0.20899773 -0.03733525 0.1319432
0003e0 a9 ad 0a 3d cf b7 05 3d a4 42 4a 3d ab fb 11 be
       0.03385702 0.032645997 0.04937996 -0.1425616
0003f0 c5 e6 a7 bc 58 a8 15 3e d5 90 d2 bd 98 c4 82 bc
       -0.020495782 0.14615 -0.10281531 -0.015962884

lstm.bias_ih_l0 f4 [640]
000000 58 e8 26 3f dc 9b 1d 3d 50 37 ee be bc 5f 15 be
       0.6519828 0.038478717 -0.46526575 -0.14587301
000010 ed 37 46 be fa 91 ec bd 27 c3 47 3e b5 16 4b be
       -0.19357271 -0.1155128 0.19508038 -0.19832881
000020 75 f3 36 be 25 6c 79 be e0 04 d8 be 75 85 5f 3f
       -0.17866309 -0.2435766 -0.4219122 0.87313014
000030 85 e3 11 3e c2 bd 32 be 8d 4b f8 3d 75 fe 6c 3b
       0.14246948 -0.174552 0.12123785 0.003616241
000040 d1 ff f0 bd 94 54 54 bf c1 a6 aa 3e 77 ae c2 ba
       -0.11767543 -0.82941556 0.33330348 -0.001485302
000050 04 f8 d4 3e 72 3d a3 3e 84 01 8c bd e0 e3 42 3f
       0.4159547 0.31882817 -0.068362266 0.7612896
000060 36 40 63 be 70 e1 fa bd 88 fb 78 bd 43 44 de 3e
       -0.22192463 -0.1225003 -0.060786754 0.43411455
000070 b8 bc 0f be 5c 34 ee 3e a6 a3 42 be b5 4e d4 bd
       -0.14036834 0.46524322 -0.1900774 -0.10366575
000080 22 96 fb 3e 86 19 72 be 9e d0 58 bf af 42 e0 be
       0.4913798 -0.23642549 -0.84693325 -0.43800876
000090 4b 37 e0 3d f3 bc fd bd 02 42 05 be d5 b7 98 3c
       0.10948046 -0.12389555 -0.13013461 0.018642345
0000a0 48 a1 8f be 74 82 7c 3f af 81 0b be da 14 e4 3e
       -0.28052735 0.98636556 -0.13623689 0.44547158
0000b0 79 07 93 bd 99 bc 99 bd 5b ce d4 be 97 e0 98 3d
       -0.0717916 -0.07506675 -0.41563687 0.07464712
0000c0 c7 ec 79 be a0 d0 40 be ae cc 08 3f 60 ed 48 be
       -0.2440673 -0.18829584 0.53437316 -0.19621801
0000d0 fc f7 86 bd c7 ec e6 3d 8b 13 b4 bd 96 66 9c 3e
       -0.06590268 0.112756304 -0.0879279 0.30547017
0000e0 74 ed 01 3e 81 a5 1e be 74 37 2b 3f f6 59 48 be
       0.12688237 -0.15492822 0.6688149 -0.19565567
0000f0 b2 c4 66 bd 87 39 0a be ab a4 e3 3d 1b 78 89 3f
       -0.056339927 -0.13498507 0.11115392 1.0739778
000100 db 43 1c be 57 05 90 3e f0 ad 78 be 7f d0 82 3d
       -0.1526026 0.28129074 -0.24285102 0.06387424
000110 d8 b3 af bd cb 4b 40 be f3 e1 4b bd e2 9e 83 3d
       -0.08579224 -0.18778913 -0.04977603 0.06426789
000120 11 8f 39 bf b3 8f af bd 92 2b a7 3e d9 40 20 3e
       -0.72483927 -0.0857233 0.3265043 0.15649737
000130 2a 42 81 be 68 fa 9c 3e 79 51 ef bd be 95 22 3f
       -0.25245792 0.30659795 -0.116854616 0.6350974
000140 39 3d b7 3d 8b 5a 62 be 25 bf c9 3e 4f 58 e3 3d
       0.08947224 -0.22104852 0.39403644 0.11100828
000150 50 b6 fc 3e ce e5 5d 3e fd d8 fa bc 65 1b a9 3e
       0.49357843 0.21669695 -0.030621046 0.33028713
000160 05 0c 90 3d 72 23 b2 3f 9f 57 82 be d2 ac 04 3f
       0.070335425 1.3917067 -0.25457475 0.518262
000170 4c 40 1a be 18 e9 16 3f ed 8c 2a 3e db 89 d2 3d
       -0.1506359 0.5894942 0.16655321 0.102802
000180 8e 93 a0 3e 09 e4 cd 3d 14 90 e3 3e 4f d6 cd be
       0.31362575 0.1005326 0.4444586 -0.40202567
000190 68 f6 4a bd d9 48 e0 3b 52 08 e5 be 3b cd 72 be
       -0.049551398 0.0068446216 -0.4473291 -0.23711102
0001a0 7b ed bd bc f2 1b c6 bc 26 80 f8 3e 0e 83 1e 3e
       -0.023184529 -0.024183247 0.4853527 0.15479681
0001b0 b2 bf 27 3f 64 62 98 3f 0e a7 0f 3e e0 de c7 bd
       0.6552688 1.1905026 0.1402857 -0.09759307
0001c0 e0 4c 3e bf eb 19 21 bf e4 bd 19 3d 6f 60 a2 be
       -0.7433605 -0.6293017 0.03753461 -0.31714198
0001d0 3e 5f 85 3d 4d c0 da bd e7 05 6f be 34 32 2e be
       0.06512307 -0.1068121 -0.23342095 -0.17011338
0001e0 1f 7b e2 3e bc ea 00 3e 40 13 24 bd c6 60 36 3f
       0.4423456 0.12589544 -0.04005742 0.71241415
0001f0 d8 f4 0e bd 64 47 61 3d b5 62 79 3d 1f 08 9d be
       -0.03490147 0.054999724 0.06088515 -0.30670258
000200 8d 49 8d be 2a 07 a0 3e eb 33 d1 3d a5 e9 a9 3d
       -0.27595177 0.31255466 0.10214981 0.08296517
000210 4b 0d c1 bc 11 95 b8 bd f7 d8 a0 be 93 dd 44 bd
       -0.023565909 -0.09012807 -0.3141553 -0.048062872
000220 24 08 5a bf e9 d0 bd 3e 06 e9 e7 be bf ec 64 3e
       -0.8516867 0.37073448 -0.4529497 0.22355936
000230 ef b6 56 be b6 f0 95 be 35 2c ad bd 77 cb fa 3e
       -0.20968221 -0.2928521 -0.084556974 0.48983356
000240 83 5a 17 be e4 3b e5 3c b8 60 c5 bd 07 d1 96 3e
       -0.14780621 0.02798266 -0.09637588 0.2945635
000250 0c f2 86 3e f3 98 ea 3e 39 74 67 be 62 42 56 bd
       0.26356542 0.45819816 -0.22602929 -0.0523094
000260 16 63 cd 3c 23 3b 21 3e e1 47 bb 3e 60 09 c5 3f
       0.025071662 0.15745215 0.36578277 1.5393486
000270 a0 85 13 bf e2 43 a4 be 00 43 9e bd 59 77 47 be
       -0.5762577 -0.3208304 -0.07727623 -0.19479121
000280 98 f6 f7 3e 27 e0 e6 3c 8b 85 13 3d 60 18 ef 3d
       0.48430324 0.028183056 0.03601603 0.11674571
000290 f6 d0 5a be 86 ab 88 3d a3 97 91 3c 21 99 99 3e
       -0.21368775 0.066733405 0.017772501 0.2999964
0002a0 44 23 57 3e 2a a9 6c bb 58 cf d3 be 2b 2a 04 bd
       0.21009547 -0.0036111572 -0.41369128 -0.032266777
0002b0 b1 b6 6f 3e 68 dd 69 3d 30 5f 8c 3e b7 6f 28 3e
       0.23409535 0.057095915 0.27416372 0.16448866
0002c0 72 bb 09 3e c0 95 a4 3d 3e 53 a7 3e e2 bf 82 3e
       0.13450411 0.08036375 0.32680696 0.2553702
0002d0 f6 e8 43 3d d7 8c 9b 3e e1 66 0d 3e d4 66 df be
       0.04782959 0.3038089 0.13808776 -0.4363314
0002e0 ce f9 92 3d bd 29 42 be f9 8a 33 3d 37 27 85 3e
       0.07176553 -0.18961234 0.043833707 0.2600648
0002f0 f7 f1 e8 3d 22 21 9f 3e d1 08 28 3d d0 34 4f 3e
       0.11374276 0.31079966 0.041024033 0.2023499
000300 7f a0 9b 3e fd 9f bc 3c 25 66 f0 3d 0b 99 57 3d
       0.30395886 0.023025507 0.117382325 0.052636188
000310 55 41 9d 3e aa 8a d3 bd ef a4 4a 3e 0f f9 6b 3e
       0.30713907 -0.103291824 0.1978948 0.23044227
000320 c4 45 ce bc 29 7a 8b 3d c2 97 70 3e 6c 6a 47 3e
       -0.025179751 0.068104096 0.23495391 0.1947419
000330 2a 4a 7f 3d 55 76 84 3d 78 4b f4 3d fd 76 d3 3d
       0.062326588 0.064678825 0.11928457 0.103254296
000340 5a 00 1c 3e d5 10 2d 3e 28 69 c6 bc f1 d2 94 3d
       0.15234509 0.16900952 -0.024220064 0.072667964
000350 53 b0 3d 3d e9 3f 07 bd c7 36 db 3d 16 9c 17 3d
       0.046310734 -0.033019934 0.10703807 0.03701409
000360 f0 e5 b3 3d f3 5a 72 be e9 e9 b6 bd d1 a3 13 3e
       0.087840915 -0.23667507 -0.089313336 0.1441796
000370 7a 06 33 3e 5f 58 8c bb ad 8d 9a 3e f7 4a bc 3d
       0.1748294 -0.0042829956 0.30186215 0.09193986
000380 81 2f 72 3d 97 ee ee 3e d1 7b f7 3d b1 d8 4c 3c
       0.059127335 0.46666405 0.12084163 0.012502835
000390 97 6c a9 3d c3 3f fb 3c 49 17 18 3e 29 23 26 3e
       0.08272665 0.030670052 0.14852633 0.1622435
0003a0 cb a4 7b be 7e b8 0d 3e 7b 30 b0 3d f9 1d a7 3d
       -0.24574582 0.1383991 0.08602997 0.08160014
0003b0 1a 80 7d bd 2e ea 2c 3d 0e 1c 32 3d b3 5d a5 3d
       -0.061889745 0.04221552 0.043483786 0.08074512
0003c0 7d c3 91 3e ee ae ad 3d cf c8 0b be 13 8c a9 be
       0.28469458 0.08480631 -0.13650821 -0.3311468
0003d0 4e 6e 17 3e a5 db 0b 3f 49 99 d0 3d 9a c1 05 be
       0.14788172 0.54632026 0.10185487 -0.13062134
0003e0 31 f6 e6 3d 79 6c 1d 3e 0c 29 42 3d f0 4b cc ba
       0.11277426 0.1537341 0.047402427 -0.0015586596
0003f0 3e 6e e8 3c 13 72 b6 bd d0 93 be 3d 57 50 0a be
       0.02837288 -0.08908477 0.09305537 -0.1350721

lstm.bias_hh_l0 f4 [640]
000000 0e 9a 1a 3f 9f e7 26 3e aa 31 c7 be aa 50 8b bd
       0.6039132 0.16299294 -0.38905078 -0.06802495
000010 63 e3 83 be 83 37 16 be e0 2b 4a 3e a7 a7 61 be
       -0.2575942 -0.14669614 0.197433 -0.2203661
000020 b8 b2 3b be fb 1e 90 be ef ca d5 be e9 cb 67 3f
       -0.18329895 -0.28148636 -0.4175639 0.9054552
000030 66 a8 6a 3e d6 24 cc bd 17 81 78 3e f3 2e a7 bd
       0.22915801 -0.099679634 0.24267994 -0.08163252
000040 b6 35 38 be af b3 68 bf ea 2a de 3e 1d 7c 07 bd
       -0.17989239 -0.90899175 0.43392116 -0.033077348
000050 c4 ed e8 3e d4 11 83 3e 59 2e 04 bc 8c f9 3d 3f
       0.454939 0.2559954 -0.008067691 0.74208903
000060 8a e9 8e be 52 dc 26 be 9d 19 2e bd 48 12 f1 3e
       -0.2791255 -0.16294983 -0.042504895 0.4708426
000070 60 14 fc bd 87 1e ea 3e 3c db a0 be 11 1c 9b bd
       -0.12308574 0.45726416 -0.31417263 -0.075737126
000080 a1 2c 0d 3f ef 4c 5b be 2a 2e 59 bf c4 a9 f4 be
       0.55146223 -0.21416067 -0.84836066 -0.4778577
000090 95 6f 1d 3c 5c 6a 10 be 59 a7 3b bd d2 88 6a bd
       0.009609123 -0.14103073 -0.045813892 -0.05725939
0000a0 93 71 60 be 18 51 7a 3f 39 1d d5 bd 11 43 da 3e
       -0.21918325 0.9777999 -0.104059644 0.42629293
0000b0 d9 e3 88 bd 2a 96 14 be 17 4c b3 be 75 41 5e 3d
       -0.066840835 -0.14510408 -0.3501899 0.054261643
0000c0 56 a1 97 be 14 c5 74 be b7 14 e2 3e 17 ee c9 bd
       -0.29615277 -0.23903304 0.4415643 -0.09859865
0000d0 ad da ef bd 9f 1d e9 3d 50 89 21 bc cc d3 9b 3e
       -0.11711631 0.11382603 -0.009859398 0.30435026
0000e0 62 2f 05 3e 47 21 47 be 56 12 32 3f be 67 4b be
       0.13006356 -0.19446288 0.6955923 -0.19863793
0000f0 08 b7 46 bd d9 e8 05 be 28 02 fa 3d 56 d2 73 3f
       -0.048514396 -0.13077106 0.122074425 0.9524282
000100 c2 6a 3e be c4 b0 6f 3e ad f4 ac be 62 25 5f 3d
       -0.18595412 0.23407274 -0.33780423 0.05447901
000110 94 09 10 be 7a da 10 be 07 3e c3 bd af b6 86 3d
       -0.14066154 -0.14145842 -0.09533315 0.06577813
000120 8e 41 50 bf 82 99 77 bd 18 2c b6 3e 33 a4 7f 3e
       -0.8135003 -0.06044913 0.35580516 0.24964981
000130 b4 12 4f be 5c 2f ba 3e 04 a6 19 be 4f 8d 1a 3f
       -0.20221978 0.36364257 -0.15004736 0.6037187
000140 85 4e 3c 3e 2b 7d f7 bd be ea c6 3e e8 27 00 3e
       0.18389328 -0.12084421 0.3885097 0.12515223
000150 b9 6c e6 3e 78 f0 69 3e d6 87 0e be 4b 54 6e 3e
       0.45004824 0.22845638 -0.13919005 0.23274343
000160 90 1a 2b 3e e2 d1 be 3f 71 31 7a be b8 19 ff 3e
       0.16709352 1.4907801 -0.24432923 0.4982431
000170 2b d9 df bd 8a ac f9 3e 03 99 89 3e 02 0b 84 bc
       -0.109300934 0.4876445 0.2687455 -0.01611853
000180 17 26 a2 3e 6d 68 0a 3e 22 b5 bf 3e e0 0f 94 be
       0.31669685 0.13516398 0.3744288 -0.28918362
000190 5c b7 41 bd 25 04 0a bd fa 71 be be b5 c6 8b be
       -0.047294006 -0.03369536 -0.37196332 -0.2730004
0001a0 99 ee 0d be 8b 79 09 bd 62 66 16 3f 9a 91 f3 3d
       -0.13860549 -0.033563178 0.58749974 0.11893006
0001b0 bb aa 22 3f 20 06 97 3f 4b 3b 04 3e b1 92 b3 bc
       0.63541764 1.1798744 0.12913243 -0.021920534
0001c0 a8 fd 3e bf 5f e5 11 bf d2 70 27 bd 26 e2 c3 be
       -0.746058 -0.5699062 -0.04087908 -0.38258475
0001d0 e6 0d 4b 3e 35 6e 2e be ed be bb be 69 e8 eb bd
       0.1982952 -0.17034228 -0.36669102 -0.11518938
0001e0 cd 63 c8 3e e8 ca 60 3e 48 05 d1 bd 24 fa 4d 3f
       0.39138642 0.21952403 -0.102060854 0.8045981
0001f0 4a e6 8b bb 53 e6 6c 3d 3a c1 ed 3d 14 b1 3a be
       -0.004269396 0.05783684 0.11609121 -0.18231612
000200 c6 c1 7c be a5 7e 3b 3e 64 94 25 3e ac 2e 00 3c
       -0.24683294 0.1831003 0.16169888 0.007823627
000210 b6 83 1a bc d5 82 55 bd c1 8e 81 be 64 fb 85 bd
       -0.009430816 -0.052126724 -0.25304225 -0.065420896
000220 b7 2a 55 bf fc 5e af 3e d5 b9 c5 be 59 78 60 3e
       -0.832683 0.34252155 -0.3861834 0.21920909
000230 9a 70 48 be 50 aa 6e be ff 8a 49 be 1a 98 10 3f
       -0.19574204 -0.23307157 -0.19681929 0.5648209
000240 0b 14 82 bd 5b d8 a4 bb 72 bc 0a be ed 08 2f 3e
       -0.06351479 -0.0050306744 -0.13548449 0.17093249
000250 f7 55 f8 3d 39 cc d3 3e 9c 12 7d be 6e c3 42 bd
       0.121257715 0.41366747 -0.2471413 -0.047549658
000260 7b b0 ba 3c f6 95 c9 3d 5a cc bf 3e ac c1 c5 3f
       0.02278923 0.09843056 0.37460595 1.5449729
000270 20 80 10 bf 4d f8 c7 be 13 fc a8 bd 06 8d 56 be
       -0.56445503 -0.39056626 -0.08251204 -0.20952234
000280 93 4e 08 3f 2d c2 12 3e a9 d5 58 3d fe 93 f6 3d
       0.53244895 0.14331885 0.052938137 0.12039946
000290 2b 46 85 be a2 17 3c 3d 6a ca 8f 3d 5c 9f 8b 3e
       -0.26030096 0.045920976 0.07021029 0.2727002
0002a0 4e a8 ba 3d ff b3 73 bd 8e 5a a4 be 79 e8 e6 bd
       0.09114133 -0.05949783 -0.32100338 -0.112748094
0002b0 86 1f 0c 3e b4 e3 92 bc de 17 87 3e 04 17 3c 3e
       0.136839 -0.017930843 0.26385397 0.18368155
0002c0 47 d9 86 3e a8 0d 5b 3e 11 eb c9 3e fd 41 b2 3e
       0.26337644 0.21391928 0.39437154 0.3481597
0002d0 d0 29 ca 3b b8 1b a8 3e 60 5a 15 3e 15 ad 0b bf
       0.006169535 0.32833648 0.14585257 -0.5456098
0002e0 27 71 0f 3e 9f f0 f9 bd 3b 8e 92 3d 51 c1 81 3e
       0.14008008 -0.12204098 0.071560346 0.253428
0002f0 39 ee e1 3d d4 67 82 3e c7 65 86 bc 9a bc 06 3e
       0.110317655 0.2546984 -0.016405953 0.13157883
000300 9e 66 60 3e aa 49 58 3d 02 e7 23 3e 1c 6e a3 3b
       0.21914145 0.052804627 0.16006091 0.0049874913
000310 de c7 54 3e 84 d7 b9 bd 84 f5 aa 3d ab f4 60 3e
       0.20779368 -0.090743095 0.0834761 0.21968333
000320 16 4c 4b bd 09 5b 28 3d 2d ca 4a 3e 53 30 1d 3e
       -0.049633108 0.041102443 0.19803686 0.15350465
000330 ad a4 b8 3d df f3 c9 3c d6 5b 7d 3e dd 3d e7 3d
       0.090157844 0.02465242 0.24742064 0.11291096
000340 a2 fb 9b 3d 31 d0 bf 3c 89 d8 03 be d1 be 02 3e
       0.076163545 0.023414703 -0.1287557 0.12768103
000350 df a2 0b 3e bd 5b 7c 3c 7b 41 18 3e 44 06 16 bd
       0.13636349 0.0154027315 0.14868729 -0.03662707
000360 c6 b0 e4 3d ef 7e f5 bd 67 4c d5 bd 8e fb 0b 3e
       0.11166529 -0.11987101 -0.10414963 0.13670179
000370 67 c9 2f 3e 72 51 0f 3d de 0a 64 3e ed ff f7 b9
       0.17166673 0.03498978 0.2226977 -0.0004730219
000380 d1 bc 80 3c 47 9d fa 3e 5a 3b 04 3e 68 f2 bc 3d
       0.015715035 0.48948118 0.12913266 0.09225923
000390 b5 2c 9e 3d e4 bf c2 bd 7b 77 64 3e 9e 53 4f 3e
       0.07723371 -0.095092565 0.22311203 0.20246741
0003a0 7a f0 99 be 82 5e 17 3e f1 cf 46 3d 1b 8d 1e 3d
       -0.30066282 0.14782146 0.048538152 0.038708787
0003b0 1a db 53 3a 06 60 c7 3c f9 1d 6b 3d 3b 09 10 bd
       0.000808166 0.02433778 0.05740163 -0.035165053
0003c0 61 0e 9d 3e 5c f0 fe 3d 48 81 ec bd f9 fc 56 be
       0.30675033 0.12448189 -0.11548096 -0.20994939
0003d0 91 b5 14 3e 81 e3 f1 3e e1 fc 35 3e 8c fd 26 be
       0.14522387 0.47243884 0.17772247 -0.16307658
0003e0 1c 14 24 3e 53 fc 42 3e b7 00 79 bd 12 4e 2e 3d
       0.16023296 0.19041567 -0.060791697 0.042554922
0003f0 eb 23 81 3d ae 5a 80 bd 07 5f 3f 3e 24 c9 43 be
       0.06305679 -0.06267296 0.18688594 -0.19119698

fc.weight f4 [1, 160]
000000 37 8f fe bf 47 68 e2 bf ee 55 02 40 b2 a5 60 c0
       -1.9887456 -1.7688073 2.0364947 -3.5101132
000010 38 ac eb 3f 81 38 b4 bf 14 3a 34 40 84 a5 9e bf
       1.8411932 -1.4079744 2.8160448 -1.2394261
000020 f6 f7 9c bf 93 90 a1 bf 93 aa 1e c0 1f b7 00 c0
       -1.2263172 -1.2622246 -2.479161 -2.0111768
000030 3b 33 f9 bf e1 e7 af bf 84 c2 2a 40 3f bb 31 c0
       -1.9468759 -1.3742639 2.6681223 -2.7770536
000040 e8 90 a0 bf 6b ea a6 3f 19 6e 25 bf cf 11 9e bf
       -1.2544222 1.3040289 -0.6462112 -1.2349185
000050 34 2b 9c bf 79 fe 9e bf a0 c9 ad 3f f4 f1 34 40
       -1.2200685 -1.2421409 1.3577156 2.8272676
000060 93 f0 87 3f f7 3b 22 40 0a ef be bf 46 19 d1 bf
       1.0620292 2.53491 -1.4916699 -1.6335838
000070 05 d3 fd bf a3 61 27 3e b1 9f 02 40 4d 1b 0d c0
       -1.9830023 0.16345839 2.0409968 -2.2047913
000080 32 f4 ab bf 22 ec d7 3f 71 1c a0 3f 3a 95 9d bf
       -1.3433897 1.6868937 1.250868 -1.2311165
000090 35 40 9f 3f a3 7f 00 40 ba f4 cd bf 0f 02 a8 bf
       1.244147 2.0077903 -1.609031 -1.3125628
0000a0 3d 6e 63 40 68 e6 17 c0 4c 10 02 40 a7 28 2a 40
       3.5536034 -2.373438 2.0322447 2.6587312
0000b0 e3 94 12 40 9f 45 a6 3f 14 3d 02 c0 7e f4 eb 3f
       2.2903373 1.2989997 -2.034978 1.8433988
0000c0 34 ca fc bf a4 66 ac 3f a5 2f b1 3d 09 96 9b 3f
       -1.9749207 1.3468823 0.086516656 1.2155162
0000d0 7b 87 a2 3f f1 a2 dd 3f f1 47 fa bf ca 69 d1 bf
       1.2697595 1.7315351 -1.9553205 -1.6360409
0000e0 1d 82 10 40 9d 70 4d bf 27 b1 a5 bf eb c0 b2 3f
       2.2579415 -0.8024996 -1.2944688 1.3965124
0000f0 5a b7 e8 3f de 43 3f c0 01 6b d3 bf f8 64 1e 40
       1.8180954 -2.9885173 -1.651703 2.4749126
000100 be 40 a5 3f c8 b5 d5 bf e1 47 d5 bf 72 ad e2 3f
       1.2910383 -1.66961 -1.6662561 1.7709181
000110 87 c9 60 bf 83 fe bc 3f 09 90 13 40 c7 47 ad 3f
       -0.87807506 1.4765171 2.3056662 1.353753
000120 4c 37 dc 3f 85 62 00 c0 94 e2 a0 3f e4 40 e6 3f
       1.7204375 -2.0060132 1.2569146 1.7988553
000130 b0 c7 4c 3f d0 c5 bc bf f0 43 05 c0 08 c2 4d bf
       0.799922 -1.4747868 -2.0822716 -0.80374193
000140 a9 47 2b bf 37 b7 b1 3f 9e 1c 19 bf 6b 0e a8 bf
       -0.6690622 1.3884038 -0.5980929 -1.31294
000150 81 8e c0 3f b6 2b ad bf a7 99 a7 bf be 1d 54 3f
       1.5043489 -1.3528965 -1.3093766 0.8285788
000160 b0 18 aa bf c5 64 0e c0 cf 9e fc 3f b7 ad e3 3d
       -1.3288784 -2.2249005 1.9735965 0.11117118
000170 d9 39 3e c0 25 fb 3d bf 10 f1 aa bf 1e 42 99 bf
       -2.9722807 -0.7421134 -1.3354816 -1.1973302
000180 2e 8c cb 3f a1 74 fc 3f fe e9 aa 3f 2c 3b ac bf
       1.5902154 1.9723092 1.3352659 -1.3455558
000190 d8 64 13 bf bd d1 9b bf 65 dc cb 3f 4d 8e 52 3f
       -0.5757575 -1.2173382 1.5926634 0.82248384
0001a0 31 d8 ad 3f 95 7f 01 40 47 ee 24 3f 9d 48 45 c0
       1.3581601 2.023412 0.6442608 -3.082557
0001b0 ca aa bd 3f 3a df f5 bf d0 fd 9f bf 5e 18 a9 bf
       1.4817746 -1.9208748 -1.2499332 -1.3210561
0001c0 7b 09 9f 3f e4 40 9a 3f 27 39 09 c0 8b dc 9a bf
       1.2424768 1.2051053 -2.1441133 -1.2098554
0001d0 20 af 49 40 41 3b ef bf 11 fe 9a bf 17 90 a5 bf
       3.1513138 -1.8689958 -1.2108785 -1.2934598
0001e0 7a fe 06 40 b6 e6 17 c0 d8 80 07 40 b5 1f 4f 40
       2.109282 -2.3734565 2.117239 3.2363102
0001f0 02 46 c8 3f e6 38 31 c0 eb b3 27 c0 86 09 05 40
       1.5646365 -2.7690978 -2.6203563 2.0787063
000200 0e b0 21 bf 50 48 d5 bf 87 36 d5 bf d1 da ac bf
       -0.63159263 -1.6662693 -1.6657265 -1.3504277
000210 dc 0a 9e 3f 6b 83 f9 3f 5c c9 9d 3f f7 e7 b0 bf
       1.2347064 1.949323 1.2327075 -1.382079
000220 70 45 a1 bf 16 00 06 40 36 d0 9e bf 61 2c 1e 40
       -1.2599316 2.0937552 -1.2407291 2.4714587
000230 ec 7f 78 3f 81 b9 9c 3f 7f 1c 02 c0 9a cd 6a 3c
       0.97070193 1.2244111 -2.0329893 0.014331246
000240 7b 7c 87 3f e0 77 a0 3f 7e 01 0a c0 43 e7 a3 3f
       1.0584863 1.2536583 -2.156341 1.280495
000250 6b 75 0c c0 cf e7 db 3f f6 85 5f 3f c4 51 a2 bf
       -2.1946666 1.7180117 0.87313783 -1.2681203
000260 d5 cc ae bf 4c ad 13 40 97 d8 19 be 2f a1 cf 3f
       -1.365626 2.3074522 -0.15024029 1.6221064
000270 e2 cd f4 bf af b5 08 40 38 98 c0 bf 36 15 ba bf
       -1.912533 2.136089 -1.5046453 -1.4537723
