best_model.pth (torch, 204393 bytes, 9 tensors)

lstm.weight_ih_l0 f4 [256, 1]
0.19760852 0.04615942 0.065178454 0.14260808 0.0017659412 0.012806106 0.09102557 0.0632715
0.24521683 0.04918659 0.038260367 0.25165284 0.074165136 0.04426065 0.051923037 0.03092273
0.1282526 0.0047652144 0.051402092 0.0048610806 -0.05917145 -0.003151987 0.0072371652 0.043910645
0.0008263289 0.024660029 0.026217148 0.07993711 0.10212687 0.109402984 0.008737176 0.07561043
0.04126708 0.046592522 0.078702666 0.04193446 0.31819105 0.05296983 0.02454051 0.027932663
0.018038407 0.019726485 0.0966078 0.23557022 0.13855068 0.11120133 0.04071357 0.05703756
0.2105885 0.037330717 0.030798018 0.13568412 0.010520113 0.033014566 0.09011923 0.03578034
0.24064276 0.12233825 0.112966746 0.15648925 0.14998391 0.048353735 0.04083443 0.14796154
0.00877921 0.030993005 0.03426831 -0.16343278 0.061694074 0.022060469 -0.119430706 0.13065077
-0.10567269 0.060519867 0.025860446 0.013616767 0.044198766 0.046456 0.024870314 0.009320263
0.012784541 0.035010237 -0.017912425 0.15515587 0.26955712 0.030383708 0.023678841 0.033352587
0.061432723 0.020910414 0.03313017 0.046716396 -0.11665237 0.01049735 0.004996217 -0.041219287
0.056106422 0.040592074 -0.036805212 0.026492314 0.0013191556 0.026322603 0.013066509 0.0027360206
0.039792977 0.08131672 0.023641791 0.02769059 -0.0983611 0.0135272425 0.023153722 0.030955248
0.0104612885 0.036811467 0.019540427 0.038826793 0.017056733 0.01283736 0.05903437 0.048356015
0.018120605 0.015092572 0.01738162 0.02939727 0.031782523 0.07317667 0.027919509 0.03193499
-0.05933196 -0.09734886 -0.18498814 -0.0646892 -0.08804522 -0.03279113 0.083428256 0.07392097
-0.076065406 -0.020125248 0.06715245 -0.09971519 -0.09154254 0.045932557 0.13584776 -0.18439165
0.08131059 0.17628606 0.01559391 -0.32269865 -0.17500642 -0.041491106 0.14713258 -0.21363916
0.06593065 0.024446126 0.09277656 0.12537147 -0.04503358 0.05363157 0.07801802 0.052558057
-0.0410108 0.06870199 0.0648911 -0.058551382 0.07603524 -0.06791639 0.033259626 -0.1565475
0.06866611 0.10398196 -0.0600778 -0.065089904 -0.056882765 -0.10109411 0.09703208 0.030657535
-0.12135604 -0.08370535 0.016594414 -0.034976106 -0.10301497 0.06051462 0.025611347 0.12820275
-0.062007215 0.1828909 0.09804137 -0.06574948 -0.10814278 0.18357736 0.022115637 -0.059715744
0.05594628 0.04094491 0.06197885 -0.023736203 0.03419075 -0.066129714 0.12854886 -0.06965923
0.1550762 0.048674848 0.035898846 0.039021604 0.060827263 0.017374318 0.07318069 0.040432576
0.047644805 0.044622757 -0.015656855 -0.15945037 0.011762286 0.14345746 0.009941982 -0.031889386
0.014314448 0.009013285 0.02594386 0.082760744 0.15656424 0.132983 0.0077153337 0.06613287
0.054101095 0.04169496 0.11330477 0.011755907 0.054921582 0.04230383 0.03558346 -0.16360728
0.005466728 0.044626735 0.042016365 0.05374803 0.026319519 0.050915297 0.04239066 0.057420913
0.052484132 0.19161248 -0.009314891 0.026959104 0.016594151 0.046820927 0.0037141962 0.08086191
0.040756878 0.059416108 0.037198436 0.046414535 0.010333894 0.05424373 0.030995026 0.14929731
00000000: e359 4a3e a911 3d3d 487c 853d da07 123e
00000010: 2777 e73a b4d0 513c 9d6b ba3d 7d94 813d
00000020: 1f1a 7b3e e177 493d e7b6 1c3d a4d8 803e
00000030: e4e3 973d a84a 353d 40ad 543d aa51 fd3c
00000040: a654 033e 8425 9c3b 008b 523d b349 9f3b
00000050: c35d 72bd 9191 4ebb be25 ed3b a6db 333d
00000060: fe9d 583a d403 ca3c 58c5 d63c 11b6 a33d
00000070: e427 d13d ac0e e03d 5f26 0f3c a4d9 9a3d
00000080: ab07 293d cdd7 3e3d dd2e a13d 78c3 2b3d
00000090: f0e9 a23e e4f6 583d 2e09 c93c 0ad3 e43c
000000a0: 48c5 933c 7099 a13c 4fda c53d 5239 713e
000000b0: 3be0 0d3e 86bd e33d 46c3 263d 37a0 693d
000000c0: 83a4 573e 18e8 183d 204c fc3c c7f0 0a3e
000000d0: 8d5c 2c3c 483a 073d 6e90 b83d 688e 123d
000000e0: 0e6b 763e 7a8c fa3d 1c5b e73d b83e 203e
000000f0: 6295 193e 910e 463d 0142 273d 3b83 173e
00000100: add6 0f3c 0be5 fd3c ed5c 0c3d ec5a 27be
00000110: edb2 7c3d 28b8 b43c 1698 f4bd 51c9 053e
00000120: ec6a d8bd aee3 773d 49d9 d33c dc18 5f3c
00000130: c409 353d a648 3e3d d4bc cb3c 04b4 183c
00000140: 4076 513c e566 0f3d 14bd 92bc 2ee1 1e3e
00000150: 6403 8a3e 41e7 f83c 21fa c13c b99c 083d
00000160: e1a0 7b3d 514c ab3c 80b3 073d b159 3f3d
00000170: 70e7 eebd 14fd 2b3c 4eb7 a33b 8ed5 28bd
00000180: d9cf 653d e043 263d 10c1 16bd 6906 d93c
00000190: 84e7 ac3a 80a2 d73c e914 563c cf4e 333b
000001a0: f6fd 223d 6189 a63d 6eac c13c 60d7 e23c
000001b0: 8b71 c9bd 5ea1 5d3c e0ac bd3c dc95 fd3c
000001c0: d365 2b3c 9fc7 163d 3f13 a03c d808 1f3d
000001d0: 90ba 8b3c ca53 523c 06ce 713d f510 463d
000001e0: aa71 943c d646 773c e663 8e3c 8bd2 f03c
000001f0: 642e 023d a6dd 953d 74b7 e43c 44ce 023d
00000200: 1206 73bd d75e c7bd 886d 3dbe c57b 84bd
00000210: 0d51 b4bd fe4f 06bd 6fdc aa3d e163 973d
00000220: 2ec8 9bbd b4dd a4bc 3987 893d 7a37 ccbd
00000230: a87a bbbd c723 3c3d ad1b 0b3e 2ad1 3cbe
00000240: 2b86 a63d 5584 343e 997d 7f3c c238 a5be
00000250: e234 33be 94f2 29bd eca9 163e 39c4 5abe
00000260: a606 873d 3e43 c83c a301 be3d 6161 003e
00000270: 2275 38bd c7ac 5b3d e9c7 9f3d 1e47 573d
00000280: f1fa 27bd a1b3 8c3d a0e5 843d 93d3 6fbd
00000290: 5db8 9b3d c017 8bbd 3f3b 083d fd4d 20be
000002a0: d1a0 8c3d 7ef4 d43d 2414 76bd db4d 85bd
000002b0: e7fd 68bd 6e0a cfbd c1b8 c63d 8325 fb3c
000002c0: 8489 f8bd b66d abbd 02f1 873c 1b43 0fbd
000002d0: 83f9 d2bd 2ede 773d e3ce d13c 9547 033e
000002e0: 47fb 7dbd c147 3b3e eac9 c83d aaa7 86bd
000002f0: f679 ddbd b4fb 3b3e da2b b53c 7f98 74bd
00000300: ed27 653d dab5 273d 89dd 7d3d 6d72 c2bc
00000310: 9a0b 0c3d 046f 87bd 50a2 033e 80a9 8ebd
00000320: 4ccc 1e3e 475f 473d ab0a 133d 1ed5 1f3d
00000330: 0226 793d 9654 8e3c c2df 953d a19c 253d
00000340: 3327 433d 5ac6 363d ce42 80bc f546 23be
00000350: 9ab6 403c 83e6 123e b2e3 223c 729e 02bd
00000360: 2687 6a3c 75ac 133c 3888 d43c 777e a93d
00000370: 6052 203e b22c 083e e9d0 fc3b ac70 873d
00000380: 1c99 5d3d 56c8 2a3d 550c e83d d99b 403c
00000390: 74f5 603d c846 2d3d f6bf 113d ab88 27be
000003a0: 3d22 b33b 86ca 363d 5a19 2c3d e526 5c3d
000003b0: 089c d73c 8f8c 503d d4a1 2d3d 3132 6b3d
000003c0: 9af9 563d 1036 443e 7c9d 18bc 57d9 dc3c
000003d0: 75f0 873c 4dc7 3f3d df69 733b ee9a a53d
000003e0: aff0 263d 4e5e 733d 635d 183d 2b1d 3e3d
000003f0: 7e4f 293c ac2e 5e3d 48e9 fd3c 65e1 183e

lstm.weight_hh_l0 f4 [256, 64]
0.19886142 0.02934475 0.1764984 -0.009710996 0.24103695 -0.12719132 -0.072312444 -0.13173978
0.13883854 -0.25926012 0.016926521 -0.022611642 0.011395259 0.056722917 0.24643263 0.055568676
-0.1460991 -0.041722532 -0.07427294 -0.10716896 -0.16236538 -0.16168356 0.16083486 -0.14482795
0.07832901 0.05223627 0.033920947 0.24044318 0.112296216 0.07441566 -0.120442584 -0.10200287
0.09405489 -0.12500757 0.053735763 0.16361764 -0.25217563 0.14968474 0.22074111 -0.085121445
-0.07153946 0.27644697 0.13912769 0.010781468 0.10004021 -0.13149253 0.075432815 -0.23222421
-0.058133606 0.20380364 0.12148518 0.12972544 -0.12682095 0.15894207 0.10930566 -0.050145466
0.095127344 0.17703986 -0.038482156 0.07654869 -0.06646458 0.183891 0.05256822 -0.006645954
-0.12329335 0.14970002 0.014951399 -0.05264304 -0.15589193 -0.09607661 0.08147031 -0.0057003177
-0.12948732 -0.1717549 0.03803656 -0.024075603 -0.1353212 0.051093295 0.25265935 -0.008840435
-0.017900905 0.07765271 0.18520871 0.020291591 -0.096058324 -0.11366363 0.062158924 -0.17229316
-0.03755411 0.085178904 0.0026978482 0.13399096 -0.095893435 0.23823318 0.014750211 0.1699155
0.08330361 0.0017440753 0.06146997 -0.061450534 -0.043967348 -0.034442455 0.17718363 0.13437462
0.19289234 0.1372977 -0.123109326 0.059712954 -0.08942835 0.0073758443 0.08246989 -0.090313636
-0.09075969 0.050165948 -0.24585421 -0.12085132 -0.17944248 -0.055169698 0.003933305 0.08195874
0.065187156 0.06421781 0.12778254 0.099575974 -0.09167165 0.080347545 0.0054508033 -0.0034064811
0.11261202 -0.14216515 -0.100522056 0.36919537 -0.1073144 -0.32411623 -0.14466792 0.13768162
0.062154446 -0.2918496 0.16652189 -0.09209792 -0.20427465 0.16379741 0.071064785 -0.160973
0.036043167 0.00018215888 -0.15609989 -0.33359832 -0.4074104 -0.2070159 0.42592764 -0.23804973
0.06670977 0.1269257 -0.001652249 0.14118253 0.07937831 0.029257648 0.36871672 -0.10541398
-0.12373308 -0.14462855 -0.068742804 -0.07812864 -0.0001828068 0.07463211 0.07328183 -0.46679354
0.34627736 0.10360651 -0.12702787 0.0018304748 0.104980454 -0.16970907 0.011663626 -0.114897154
0.051787313 0.1347896 0.15327865 -0.042298295 -0.265468 -0.05760109 -0.08226613 0.0587437
-0.063199535 0.21116632 0.12972069 -0.02450201 -0.116914995 0.1277786 0.0818705 0.102467515
0.046010517 -0.0015354132 -0.131592 0.24430685 0.05686619 -0.08954331 -0.39116046 0.081471205
0.2320696 -0.026726704 0.031969495 0.013403653 -0.071500994 0.06672459 0.09088925 -0.029129729
-0.02855035 0.20242076 -0.0657201 -0.23760295 -0.18143152 -0.09413915 -0.013388242 -0.14608558
-0.03363639 0.061640278 -0.040502608 -0.014052495 0.5181285 -0.3596974 -0.04075543 -0.43187344
0.021853691 -0.19147961 -0.326329 -0.103670634 -0.0068537453 0.14419575 0.12416213 -0.22149383
0.04653207 -0.09004045 0.042672537 0.014387619 0.19432501 -0.09914774 -0.06365849 0.0014901295
-0.06405055 0.12113514 0.032035023 -0.14291334 -0.15952422 -0.08114402 0.0016811586 -0.11805897
-0.03995799 -0.033157334 0.00582606 -0.10870961 -0.05976929 0.20232797 0.10292987 0.08895354
00000000: 54a2 4b3e 6764 f03c ffbb 343e df1a 1fbc
00000010: 64d2 763e 713e 02be 8c18 94bd cbe6 06be
00000020: b12b 0e3e bebd 84be 7da9 8a3c 0d3c b9bc
00000030: 2eb3 3a3c 4a56 683d d658 7c3e fb9b 633d
00000040: 019b 15be 3fe5 2abd 691c 98bd 667b dbbd
00000050: 1c43 26be 6090 25be e5b1 243e c74d 14be
00000060: f66a a03d b3f5 553d b1f0 0a3d bd36 763e
00000070: 8ffb e53d 3d67 983d 9aaa f6bd e1e6 d0bd
00000080: da9f c03d fc01 00be 081a 5c3d 628b 273e
00000090: 2a1d 81be f546 193e f509 623e 2754 aebd
000000a0: 4883 92bd 758a 8d3e 7d77 0e3e c1a4 303c
000000b0: e2e1 cc3d faa5 06be 857c 9a3d 2fcc 6dbe
000000c0: 811d 6ebd e7b1 503e 39cd f83d bfd6 043e
000000d0: 5add 01be b6c1 223e a5db df3d 5565 4dbd
000000e0: 20d2 c23d f049 353e 779f 1dbd 8fc5 9c3d
000000f0: 951e 88bd ec4d 3c3e c651 573d 4ec6 d9bb
00000100: 3981 fcbd f64a 193e b6f6 743c 3aa0 57bd
00000110: 22a2 1fbe d0c3 c4bd e8d9 a63d bbc9 babb
00000120: 5398 04be 84e0 2fbe 39cc 1b3d 333a c5bc
00000130: a491 0abe 3447 513d 915c 813e 79d7 10bc
00000140: eba4 92bc 6208 9f3d 5aa7 3d3e 8d3a a63c
00000150: 3aba c4bd 7ac8 e8bd 5b9a 7e3d 9e6d 30be
00000160: 57d2 19bd 4772 ae3d 62ce 303b ed34 093e
00000170: c763 c4bd 66f3 733e deaa 713c 54fe 2d3e
00000180: 159b aa3d 7599 e43a efc7 7b3d 8eb3 7bbd
00000190: 1b17 34bd 8813 0dbd a06f 353e 8099 093e
000001a0: 9285 453e c597 0c3e be20 fcbd 9295 743d
000001b0: 3626 b7bd 11b1 f13b f9e5 a83d 5bf6 b8bd
000001c0: 37e0 b9bd cf7a 4d3d 35c1 7bbe e680 f7bd
000001d0: c5bf 37be 9ff9 61bd f4e2 803b fcd9 a73d
000001e0: d880 853d a184 833d 6dd9 023e 7dee cb3d
000001f0: 59be bbbd 418d a43d a79c b23b 453f 5fbb
00000200: 21a1 e63d be93 11be 82de cdbd 2d07 bd3e
00000210: a7c7 dbbd 90f2 a5be d423 14be 69fc 0c3e
00000220: a995 7e3d 506d 95be b784 2a3e d69d bcbd
00000230: 602d 51be 82ba 273e 6a8a 913d 1bd6 24be
00000240: 00a2 133d e701 3f39 a6d8 1fbe 66cd aabe
00000250: 1998 d0be fafb 53be 3013 da3e 4fc3 73be
00000260: 229f 883d d0f8 013e 4790 d8ba 2792 103e
00000270: 1891 a23d bcad ef3c 70c8 bc3e 49e3 d7bd
00000280: c567 fdbd 8219 14be 07c9 8cbd e901 a0bd
00000290: d4af 3fb9 b8d8 983d c914 963d 90ff eebe
000002a0: 444b b13e a62f d43d 9813 02be 8bec ef3a
000002b0: feff d63d 37c8 2dbe cb18 3f3c 334f ebbd
000002c0: ef1e 543d 4906 0a3e 14f5 1c3e fa40 2dbd
000002d0: 6ceb 87be 1fef 6bbd 257b a8bd 3c9d 703d
000002e0: c26e 81bd fc3b 583e 80d5 043e 70b8 c8bc
000002f0: 2171 efbd 65d8 023e b9ab a73d 7dda d13d
00000300: 8675 3c3d eb3f c9ba 0ec0 06be 932b 7a3e
00000310: 86ec 683d 7c62 b7bd 2f46 c8be 60da a63d
00000320: a7a3 6d3e f6f1 dabc 72f2 023d ff9a 5b3c
00000330: 1d6f 92bd e7a6 883d 2524 ba3d 78a1 eebc
00000340: 6ce2 e9bc 6347 4f3e 4398 86bd 304e 73be
00000350: 2fc9 39be 07cc c0bd 5b5a 5bbc 7597 15be
00000360: 50c6 09bd 847a 7c3d 10e6 25bd 703c 66bc
00000370: 12a4 043f 422a b8be 2aef 26bd 841e ddbe
00000380: 8306 b33c 3b13 44be 9814 a7be 4551 d4bd
00000390: 6295 e0bb 0da8 133e b748 fe3d 47cf 62be
000003a0: 6998 3e3d 2167 b8bd 66c9 2e3d 0cba 6b3c
000003b0: 23fd 463e f80d cbbd 625f 82bd 7350 c33a
000003c0: ef2c 83bd b315 f83d 2837 033d e057 12be
000003d0: 515a 23be d62e a6bd 525a dc3a e7c8 f1bd
000003e0: fdaa 23bd fccf 07bd 89e8 be3b 25a3 debd
000003f0: a5d0 74bd 102f 4f3e e5cc d23d 462d b63d

lstm.bias_ih_l0 f4 [256]
0.25326076 0.2541875 0.35846284 0.07135656 0.14953758 -0.091492996 0.19324502 0.13549973
0.1811627 0.090866946 0.106999576 0.13341172 0.14339119 -0.15324081 0.30582634 0.20051272
0.047338415 0.1486707 -0.099923454 0.19888447 0.08813932 -0.14704579 0.12295651 0.16517413
0.11506909 -0.15462154 -0.03957795 0.24151433 0.06826701 0.02249825 -0.12952848 -0.07403237
-0.041356247 0.0006362896 0.048388977 0.16454834 0.19565749 0.079801574 -0.14030074 0.13270022
0.0788757 0.1804538 0.13406307 0.18467285 0.060569342 -0.10854511 0.028206382 0.13709645
0.18797314 -0.040183857 0.023959348 0.13435332 -0.07149922 0.077703096 -0.060664345 0.29197985
0.12785701 0.21573168 0.055445638 0.049964845 -0.05032955 0.17142265 -0.025807979 0.114519514
-0.0629086 0.030016504 -0.07282106 0.13554049 -0.11614767 0.021668086 0.012699647 -0.0659657
-0.074017674 0.033056647 0.116671495 -0.15757051 0.044268057 -0.14934196 -0.03782818 0.09987449
-0.25825572 0.0019988585 0.060618624 0.0969149 0.01581286 0.07888727 0.06540555 0.07009186
-0.05490561 0.14014152 -0.16507079 0.023990449 -0.02490293 0.095952176 -0.008919812 0.18461274
-0.03298641 -0.17432496 -0.118396536 0.02327394 -0.01158478 -0.047092706 -0.013375935 0.2782435
0.13165568 -0.021061568 -0.072563455 -0.19900957 -0.12952627 -0.08271468 0.046812247 0.041934878
-0.058109514 -0.23459673 0.1411309 -0.07698754 0.13698821 -0.0072066966 -0.076061286 -0.22908169
-0.22907333 -0.0026818071 0.08762783 -0.21521854 0.15066865 -0.18503167 -0.017984377 -0.2061146
0.040856283 0.13069786 0.1547862 0.20128396 0.20814672 0.1718078 -0.07795502 -0.0225627
0.05185438 -0.12328014 0.08536538 -0.022356957 0.014518251 -0.0865705 0.019981412 -0.009509954
-0.06098511 -0.10559579 0.1118454 -0.35506353 -0.116621524 0.15436645 0.26654047 -0.11821464
-0.23858175 -0.062013388 -0.30421013 -0.024757836 0.047986872 -0.09649781 0.054687213 -0.13225041
0.18079443 -0.1283094 -0.07535776 0.015314832 -0.16437986 0.04717286 0.06666903 -0.34005818
0.03008869 -0.05274009 0.08326762 0.039359327 0.13865508 0.1283118 -0.12928374 -0.16605292
0.1971235 0.051069897 -0.21707769 0.21525407 -0.12768735 -0.029920401 -0.03157137 -0.1599206
0.17778519 -0.108146496 -0.11103924 -0.025350213 0.011033241 0.09535128 -0.068544485 0.011907301
-0.06466618 0.07824401 -0.06502367 0.3095409 -0.16306159 -0.07113204 0.21871628 -0.020625858
0.21059611 -0.12621321 -0.20964535 -0.22400618 0.011294137 -0.11457814 -0.3581269 -0.12200543
-0.22041248 -0.017948417 0.12552679 -0.000650454 -0.050818272 0.06547077 -0.053998422 0.027125599
0.025019374 0.17080119 -0.053210717 -0.37795338 0.31894985 0.2972567 -0.15592976 0.14797455
-0.089824915 0.1259434 0.2563279 -0.18826555 -0.115322396 -0.062340796 0.103096694 -0.009873037
0.087187916 -0.29112667 -0.12919675 -0.05040863 0.07964586 -0.17987208 -0.26227883 0.049308732
-0.23265405 0.06809052 -0.030474022 -0.13864736 0.05071335 -0.064605296 0.13618715 -0.36530435
-0.13095884 -0.16270098 -0.27058408 -0.041033432 0.04282356 -0.28434017 0.0014046105 0.21492481
00000000: 65ab 813e dd24 823e 7188 b73e 6323 923d
00000010: 6120 193e ae60 bbbd 06e2 453e 71c0 0a3e
00000020: b782 393e 7318 ba3d 9822 db3d 159d 083e
00000030: 24d5 123e 29eb 1cbe 4595 9c3e 3553 4d3e
00000040: ede5 413d 223d 183e aba4 ccbd 5fa8 4b3e
00000050: 6382 b43d 2c93 16be 9fd0 fb3d 6823 293e
00000060: 58a9 eb3d 1c55 1ebe 7d1c 22bd 884f 773e
00000070: 93cf 8b3d 404e b83c 1da3 04be 489e 97bd
00000080: 2b65 29bd accc 263a 8533 463d 5c7f 283e
00000090: 705a 483e 026f a33d ffaa 0fbe 91e2 073e
000000a0: 9589 a13d e2c8 383e d447 093e e11a 3d3e
000000b0: 8f17 783d e64c debd 1211 e73c 0363 0c3e
000000c0: 087c 403e d497 24bd 6546 c43c eb93 093e
000000d0: 2f6e 92bd cd22 9f3d 2d7b 78bd 627e 953e
000000e0: f3ec 023e c4e8 5c3e f71a 633d f0a7 4c3d
000000f0: 5c26 4ebd 6b89 2f3e 416b d3bc 3589 ea3d
00000100: 39d6 80bd 2ce5 f53c 3523 95bd 20cb 0a3e
00000110: d4de edbd 4581 b13c 2e12 503c 0619 87bd
00000120: 9496 97bd 6866 073d 77f1 ee3d 2a5a 21be
00000130: 6c52 353d 19ed 18be b9f1 1abd ff8a cc3d
00000140: 183a 84be 48ff 023b 3c4b 783d 527b c63d
00000150: f989 813c a68f a13d 58f3 853d 528c 8f3d
00000160: b4e4 60bd 4281 0f3e 5108 29be 9e87 c43c
00000170: 3b01 ccbc 9382 c43d 6724 12bc 1f0b 3d3e
00000180: c21c 07bd 3e82 32be e279 f2bd fda8 be3c
00000190: 17ce 3dbc 48e4 40bd bd26 5bbc ef75 8e3e
000001a0: bfd0 063e 4f89 acbc 269c 94bd 2ac9 4bbe
000001b0: 89a2 04be 5066 a9bd 33be 3f3d e8c3 2b3d
000001c0: 3e04 6ebd 203a 70be 9e84 103e a5ab 9dbd
000001d0: a346 0c3e 2726 ecbb 05c6 9bbd 6494 6abe
000001e0: 3392 6abe 42c1 2fbb 3876 b33d 4062 5cbe
000001f0: e248 1a3e f178 3dbe f953 93bc b50f 53be
00000200: eb58 273d a9d5 053e 4680 1e3e 621d 4e3e
00000210: 6a24 553e 62ee 2f3e e2a6 9fbd 69d5 b8bc
00000220: 4265 543d 4c7a fcbd 0bd4 ae3d f025 b7bc
00000230: f5dd 6d3c e04b b1bd 0fb0 a33c a3cf 1bbc
00000240: 86cb 79bd 9b42 d8bd 330f e53d e3ca b5be
00000250: 44d7 eebd 3d12 1e3e fe77 883e 841a f2bd
00000260: c64e 74be c001 7ebd 6ec1 9bbe f2d0 cabc
00000270: e28d 443d a5a0 c5bd b3ff 5f3d a76c 07be
00000280: 2d22 393e 8a63 03be 2b55 9abd 10eb 7a3c
00000290: 3253 28be 5438 413d c689 883d 1b1c aebe
000002a0: 8e7c f63c fe05 58bd 3788 aa3d 3f37 213d
000002b0: 99fb 0d3e 2b64 033e f562 04be c709 2abe
000002c0: beda 493e ab2e 513d 9d49 5ebe 906b 5c3e
000002d0: 79c0 02be a11b f5bc fb50 01bd 3ac2 23be
000002e0: 520d 363e e97b ddbd 8b68 e3bd 40ab cfbc
000002f0: c4c4 343c 8847 c33d 0d61 8cbd d716 433c
00000300: b46f 84bd 653e a03d 212b 85bd 257c 9e3e
00000310: 9ef9 26be adad 91bd 29f7 5f3e 8ff7 a8bc
00000320: 82a6 573e 093e 01be 45ad 56be e061 65be
00000330: 0b0b 393c f2a7 eabd 695c b7be fcdd f9bd
00000340: cfb3 61be 8f08 93bc 188a 003e 3b83 2aba
00000350: d226 50bd 8a15 863d 732d 5dbd 8136 de3c
00000360: 6ef5 cc3c 82e6 2e3e 7bf3 59bd 1b83 c1be
00000370: 654d a33e 0832 983e 0dac 1fbe a486 173e
00000380: 20f6 b7bd 4ff7 003e 693d 833e afc8 40be
00000390: 262e ecbd 1059 7fbd 5c24 d33d 85c2 21bc
000003a0: 948f b23d 8e0e 95be 274c 04be 4879 4ebd
000003b0: 5e1d a33d 6330 38be 6949 86be f4f7 493d
000003c0: dd3c 6ebe 0b73 8b3d a8a4 f9bc 93f9 0dbe
000003d0: cdb8 4f3d c84f 84bd a574 0b3e 2c09 bbbe
000003e0: 131a 06be 169b 26be ff89 8abe ac12 28bd
000003f0: c267 2f3d 0995 91be e81a b83a 4015 5c3e

lstm.bias_hh_l0 f4 [256]
0.25077578 0.10406673 0.210253 0.16423456 0.24207783 0.00079392927 0.06577674 -0.008555755
0.14260936 0.17755249 -0.053691123 0.11665683 0.029799268 -0.084648654 0.2591485 0.2944685
-0.022213968 0.15019573 -0.12865609 0.045148008 0.2072879 -0.012992318 -0.03052828 -0.018475205
0.09552614 -0.28078023 -0.022327026 0.14291571 -0.00062724605 0.094609745 0.07204965 0.0027200687
-0.0965776 0.09927185 0.082218766 0.1192319 0.33645335 0.066523 -0.18366429 0.13102706
0.05873671 -0.018665783 0.010156533 0.18023641 0.04175144 -0.11484545 0.16203508 -0.02826556
0.24047676 -0.015494583 -0.12220708 0.115217805 0.0869252 -0.04642038 0.027997762 0.36529943
0.019985678 0.20174542 0.072826855 0.154134 0.1303634 0.23168692 0.031864915 0.08584408
-0.09003953 0.11265223 -0.0060953004 -0.013346711 -0.13646781 0.23913534 -0.08453145 0.03643349
0.062538266 -0.10082988 0.068671614 -0.023226608 0.12494452 -0.059557308 -0.009962067 0.12392959
-0.18985708 0.029607952 0.008807304 0.26312092 0.13186888 0.00961244 -0.026931897 0.07287276
-0.17765914 0.06267659 -0.13214234 -0.014340745 0.0905988 0.10851223 0.06605166 0.16143276
-0.17986579 -0.18769325 -0.06385935 0.1176857 -0.115580216 -0.02512522 0.09416874 0.28419602
-0.040329065 -0.12634204 -0.20902495 -0.19254304 -0.04626185 -0.09950068 -0.0601845 0.02402518
0.05856651 -0.040249366 0.12627894 -0.028702147 0.06538395 -0.036272205 0.14834028 -0.07273393
-0.06893778 -0.16963851 0.07245755 -0.149952 0.10338212 -0.041026447 -0.07874566 -0.13387878
0.18137048 0.14923112 0.109303154 0.18163037 0.18937045 -0.0020319307 -0.19369024 -0.034589037
0.07222847 -0.14289655 -0.1303977 -0.052686702 0.009080224 0.022062955 -0.09804683 -0.09620882
-0.13197933 0.008059006 0.11060935 -0.33677116 -0.1343916 0.14515321 0.13583383 -0.21369478
-0.18571366 -0.122898474 -0.16225652 -0.12501346 0.11438672 -0.094209604 -0.08262559 -0.04337742
0.04784837 -0.18973732 -0.17530113 0.08213817 -0.044279296 0.026103359 -0.059105564 -0.30014575
-0.060043395 -0.051784206 0.05135225 0.13083363 0.11713289 0.15955856 -0.14289653 -0.21603505
0.0690383 0.1574248 -0.08819893 0.025395984 -0.1610489 -0.19001678 0.044741668 -0.028087461
0.04514623 0.036703564 0.051747322 0.08208782 0.18264283 0.0059162923 -0.14270031 0.16314322
-0.028626995 0.044784553 -0.12748912 0.3101711 -0.105719246 -0.0036081907 0.25861555 -0.05692839
0.21690875 -0.30482426 -0.17656203 -0.07294295 0.006966011 -0.04835847 -0.15912884 -0.06607829
-0.26176715 -0.17834452 0.0011908989 0.08764334 0.01986324 0.08304107 -0.060547203 -0.0929218
-0.16840589 0.026899934 0.12725325 -0.2006583 0.14332037 0.074065514 -0.064635456 0.13600129
-0.05346823 0.21808451 0.1434817 0.0020826338 0.06049152 0.006099127 -0.108786434 -0.05144937
0.071629114 -0.17662603 -0.24027303 -0.037429255 0.21262038 -0.33276814 -0.30456668 0.047640316
-0.2759618 0.01774969 0.044816148 -0.2278145 0.041717455 -0.09088101 0.16492079 -0.3559641
0.014790085 -0.23102443 -0.27322552 -0.060797982 0.12249488 -0.24420169 0.01778476 0.19946775
00000000: af65 803e f020 d53d 904c 573e 1b2d 283e
00000010: 40e3 773e b11f 503a f5b5 863d 702d 0cbc
00000020: 3008 123e 52d0 353e 39eb 5bbd c7e9 ee3d
00000030: 981d f43c 465c adbd 1daf 843e 93c4 963e
00000040: 11fa b5bc e9cc 193e 6cbe 03be 1eed 383d
00000050: 4743 543e bbdd 54bc 7216 fabc 5059 97bc
00000060: 35a3 c33d 6dc2 8fbe 2be7 b6bc 7f58 123e
00000070: c56d 24ba c1c2 c13d c48e 933d 2e43 323b
00000080: 7aca c5bd 0a4f cb3d 5062 a83d db2f f43d
00000090: 9d43 ac3e 363d 883d 7e12 3cbe f52b 063e
000000a0: e895 703d fce8 98bc 9667 263c e58f 383e
000000b0: 8f03 2b3d 1734 ebbd 86ec 253e 2d8d e7bc
000000c0: 8a3f 763e fedc 7dbc b547 fabd 50f7 eb3d
000000d0: d705 b23d 4c23 3ebd 905b e53c 8708 bb3e
000000e0: 01b9 a33c 5a96 4e3e 3f26 953d 4ed5 1d3e
000000f0: fc7d 053e 563f 6d3e c984 023d 05cf af3d
00000100: a566 b8bd 36b6 e63d 16bb c7bb 2aac 5abc
00000110: 38be 0bbe e5df 743e d31e adbd 493b 153d
00000120: 1014 803d e57f cebd b4a3 8c3d ba45 bebc
00000130: eae2 ff3d 5df2 73bd f037 23bc ccce fd3d
00000140: e569 42be 608c f23c 834c 103c c9b7 863e
00000150: a308 073e 7f7d 1d3c 48a0 dcbc 503e 953d
00000160: 47ec 35be 965c 803d 5250 07be 72f5 6abc
00000170: dd8b b93d a93b de3d 1846 873d a14e 253e
00000180: bd2e 38be a932 40be b1c8 82bd 3305 f13d
00000190: 52b5 ecbd 68d3 cdbc 8adb c03d 2482 913e
000001a0: 1730 25bd cf5f 01be a30a 56be 012a 45be
000001b0: 117d 3dbd 03c7 cbbd 0684 76bd 74d0 c43c
000001c0: 70e3 6f3d 85dc 24bd 444f 013e c420 ebbc
000001d0: 05e8 853d 2a92 14bd 84e6 173e 87f5 94bd
000001e0: 402f 8dbd b8b5 2dbe a064 943d 048d 19be
000001f0: 01ba d33d 590b 28bd 6845 a1bd 8517 09be
00000200: 2fb9 393e 0bd0 183e 55da df3d 50fd 393e
00000210: 54ea 413e 242a 05bb bc56 46be 3cad 0dbd
00000220: 85ec 933d 7953 12be fa86 05be 03ce 57bd
00000230: 38c5 143c 5fbd b43c c7cc c8bd 2109 c5bd
00000240: 9725 07be ec09 043c 2887 e23d 456d acbe
00000250: f49d 09be 0ba3 143e 0618 0b3e ced2 5abe
00000260: b92b 3ebe 32b2 fbbd 9326 26be 8703 00be
00000270: 9643 ea3d f7f0 c0bd 9b37 a9bd 86ac 31bd
00000280: a7fc 433d 804a 42be 2482 33be 0f38 a83d
00000290: 355e 35bd b6d6 d53c ad18 72bd b4ac 99be
000002a0: 10f0 75bd ad1b 54bd bd56 523d 40f9 053e
000002b0: 5ee3 ef3d 5263 233e 7853 12be 4b38 5dbe
000002c0: f463 8d3d f733 213e a4a1 b4bd 3d0b d03c
000002d0: 01ea 24be c293 42be 0a43 373d ad17 e6bc
000002e0: 41eb 383d 7a56 163d 00f5 533d a91d a83d
000002f0: b906 3b3e 75dd c13b 0820 12be 040f 273e
00000300: 2983 eabc 0270 373d 828c 02be bfce 9e3e
00000310: 5583 d8bd 6577 6cbb 4269 843e be2d 69bd
00000320: 541d 5e3e ed11 9cbe adcc 34be 1d63 95bd
00000330: 2343 e43b 8813 46bd acf2 22be 0e54 87bd
00000340: 5806 86be f29f 36be f017 9c3a 5a7e b33d
00000350: 3cb8 a23c 7011 aa3d 5800 78bd c94d bebd
00000360: 9872 2cbe 405d dc3c ad4e 023e 5f79 4dbe
00000370: 93c2 123e a9af 973d 985f 84bd ec43 0b3e
00000380: 8101 5bbd 8c51 5f3e deec 123e cc7c 083b
00000390: f5c5 773d 2fdb c73b 6ccb debd 93bc 52bd
000003a0: 49b2 923d 74dd 34be 220a 76be 6b4f 19bd
000003b0: 28b9 593e 9660 aabe 2af0 9bbe 7e22 433d
000003c0: dd4a 8dbe cc67 913c 2391 373d 3448 69be
000003d0: ecdf 2a3d d31f babd ffe0 283e ed40 b6be
000003e0: 1d52 723c ab91 6cbe 37e4 8bbe 4e07 79bd
000003f0: 98de fa3d 0210 7abe 58b1 913c 4641 4c3e

lstm.weight_ih_l1 f4 [256, 64]
-0.13484666 -0.089849085 -0.012336491 0.15621941 -0.28160647 -0.03159024 0.06999864 0.076515995
-0.07071076 0.022084609 0.08202464 0.07617769 -0.215744 0.111746386 0.28032088 -0.0676973
0.11542341 0.010517024 -0.28948137 -0.10373159 -0.06994795 -0.008937059 0.15916838 -0.13992612
-0.006924464 0.17255658 0.02304346 0.10581932 -0.07666711 0.05146192 0.07336078 -0.2108262
-0.2799103 -0.04853818 0.045984015 -0.22770414 0.12985627 -0.0049838843 0.1699946 -0.0093511855
0.055282112 -0.02738649 -0.09022492 -0.1217195 0.13086303 -0.13535513 0.0016625134 0.07101774
-0.18704443 -0.13954224 0.13416769 0.05345971 -0.14079763 -0.010516875 0.16926518 0.20213692
-0.03913158 0.057549417 -0.05236191 -0.07263397 -0.26827517 0.10467565 0.017823037 -0.14857046
-0.16159743 -0.16215196 -0.12739289 0.060520854 -0.21154429 0.030856611 0.15684184 0.1505265
0.01856614 -0.015741711 0.129073 -0.10166305 -0.0042950697 0.03251871 0.27508268 -0.08388886
0.10028431 -0.025908781 -0.24994506 -0.032101322 -0.17652671 -0.10315589 0.05850904 -0.03537175
0.2573969 0.20683393 0.20245238 -0.018777814 -0.10790824 -0.010506207 0.081624046 0.06263785
-0.3281751 0.009311568 0.22161378 -0.3564524 0.1424489 -0.08036587 0.007156682 -0.08060277
0.11414808 0.09760186 -0.020204818 -0.049629543 -0.11276556 -0.035112154 0.067487665 0.065631844
-0.20688273 0.0098959 0.11387192 -0.08041415 0.0076651853 0.08616827 -0.0026426222 0.10634056
-0.1222432 0.032260474 0.04937921 0.045769215 -0.14986594 0.122241594 0.00464453 -0.14558123
-0.16850956 -0.16780569 -0.23532248 0.07072843 -0.22722754 -0.18727107 0.27270406 0.21881168
-0.069426 0.048245598 0.03498022 -0.24100903 -0.11906674 0.1797302 0.17579773 -0.26597568
0.24169905 0.105886556 -0.19278812 -0.11984837 -0.15818144 -0.037899174 0.12148681 0.036157157
0.2985391 0.15475458 0.2369364 0.2281671 -0.25731367 0.08167872 0.22965199 0.03416441
-0.33658612 0.24005572 0.21009329 -0.22493091 0.02053996 -0.1323894 0.10729065 -0.09532385
0.18604954 0.13157454 0.009585882 -0.08507841 -0.16604474 -0.0050538126 0.1582516 0.18394908
-0.054051626 -0.18468048 0.2016811 -0.014283738 -0.16873325 0.06925114 0.22142819 0.33640552
-0.19890736 0.06909008 0.047257792 -0.15452008 -0.18175127 0.0697225 0.10531646 -0.03792903
-0.11057569 -0.24456726 -0.05354437 0.0760439 -0.21910706 -0.21174061 0.07960406 0.18678534
0.035866566 -0.17977247 0.22096021 -0.18107739 -0.09653835 0.06899766 0.2317098 -0.07420435
0.15300572 0.14114524 -0.23991467 -0.17789468 -0.08343726 -0.12105003 0.042816505 -0.07135893
0.070401184 0.1719122 0.26240215 0.26338583 -0.02123581 0.015620036 0.25352705 -0.08650783
-0.21502768 0.18110849 0.15042065 -0.32780886 0.0902517 0.04365412 0.18198627 -0.039774228
0.13516009 0.16948482 -0.102235235 -0.08420717 -0.0065254625 -0.03662819 0.09502856 0.05736514
-0.040356204 -0.12662421 0.13715394 -0.05891169 -0.094109714 0.1468838 0.024284756 0.24083725
0.013788986 0.1499535 -0.020872252 0.011186617 -0.28772053 0.16438562 0.1295423 0.023092143
00000000: 3e15 0abe cc02 b8bd fe1e 4abc fbf7 1f3e
00000010: b92e 90be c464 01bd 725b 8f3d 6bb4 9c3d
00000020: ced0 90bd c8ea b43c 89fc a73d 0c03 9c3d
00000030: ffeb 5cbe 4adb e43d 3886 8f3e e2a4 8abd
00000040: 1c63 ec3d 994f 2c3c e736 94be 3a71 d4bd
00000050: df40 8fbd be6c 12bc 09fd 223e cb48 0fbe
00000060: 9de6 e2bb acb2 303e a3c5 bc3c cdb7 d83d
00000070: a503 9dbd bcc9 523d 2d3e 963d d3e2 57be
00000080: 6750 8fbe f8cf 46bd bc59 3c3d 462b 69be
00000090: 0bf9 043e da4f a3bb 1013 2e3e b735 19bc
000000a0: 7f6f 623d a259 e0bc d8c7 b8bd 1348 f9bd
000000b0: f500 063e 899a 0abe b1e8 d93a c071 913d
000000c0: 9388 3fbe 29e4 0ebe 4163 093e 92f8 5a3d
000000d0: 412d 10be f94e 2cbc da53 2d3e fbfc 4e3e
000000e0: 7048 20bd f0b8 6b3d 7179 56bd 1ec1 94bd
000000f0: 5d5b 89be 3060 d63d 9e01 923c db22 18be
00000100: cc79 25be 2a0b 26be 4873 02be b7e4 773d
00000110: 119f 58be 01c7 fc3c 269b 203e 9e23 1a3e
00000120: 0518 983c c3f4 80bc b62b 043e b834 d0bd
00000130: a8bd 8cbb 5732 053d a3d7 8c3e eccd abbd
00000140: dc61 cd3d a73e d4bc 99f1 7fbe ad7c 03bd
00000150: 6bc3 34be 6543 d3bd 2da7 6f3d f8e1 10bd
00000160: 87c9 833e 46cc 533e ad4f 4f3e eed3 99bc
00000170: fffe dcbd 3a22 2cbc 822a a73d 4648 803d
00000180: 9106 a8be 8c8f 183c b9ee 623e ee80 b6be
00000190: 20de 113e dc96 a4bd 9a82 ea3b 1113 a5bd
000001a0: 78c6 e93d 7ce3 c73d 9384 a5bc 5948 4bbd
000001b0: a1f1 e6bd c3d1 0fbd f936 8a3d fd69 863d
000001c0: 11d9 53be 6a22 223c ae35 e93d 2db0 a4bd
000001d0: 3c2c fb3b fd78 b03d d82f 2dbb 14c9 d93d
000001e0: a55a fabd 8f23 043d db41 4a3d 8078 3b3d
000001f0: 7576 19be cd59 fa3d 2431 983b 3f13 15be
00000200: c58d 2cbe 41d5 2bbe 60f8 70be 11da 903d
00000210: 56ae 68be fdc3 3fbe de9f 8b3e 2b10 603e
00000220: 382f 8ebd 2d9d 453d 6b47 0f3d 12cb 76be
00000230: 43d9 f3bd 320b 383e 5204 343e f72d 88be
00000240: f57f 773e 0ddb d83d 406a 45be 1073 f5bd
00000250: 51fa 21be 2a3c 1bbd 14ce f83d 8719 143d
00000260: 1eda 983e fc77 1e3e 759f 723e a3a4 693e
00000270: 9ebe 83be 2c47 a73d e429 6b3e fbef 0b3d
00000280: 0455 acbe 2bd1 753e b222 573e 4a54 66be
00000290: 6b43 a83c 1691 07be 33bb db3d 2739 c3bd
000002a0: c583 3e3e 7abb 063e 1a0e 1d3c 973d aebd
000002b0: a207 2abe 749a a5bb b50c 223e 265d 3c3e
000002c0: 3d65 5dbd e11c 3dbe 7e85 4e3e 5706 6abc
000002d0: 69c8 2cbe 8bd3 8d3d 12be 623e 583d ac3e
000002e0: 5fae 4bbe 1a7f 8d3d 6391 413d 833a 1ebe
000002f0: 011d 3abe acca 8e3d 28b0 d73d 785b 1bbd
00000300: 8275 e2bd d76f 7abe 5751 5bbd e7bc 9b3d
00000310: 9a5d 60be 88d2 58be 7407 a33d a844 3f3e
00000320: d2e8 123d 4616 38be 6543 623e 5a6c 39be
00000330: e6b5 c5bd a54e 8d3d 5545 6d3e 73f8 97bd
00000340: 88ad 1c3e 6188 103e 31ac 75be 062a 36be
00000350: 27e1 aabd 14e9 f7bd 5c60 2f3d a124 92bd
00000360: 7f2e 903d c009 303e 9359 863e 82da 863e
00000370: b9f6 adbc 2eeb 7f3c 4cce 813e 042b b1bd
00000380: 3730 5cbe 8174 393e df07 1a3e 90d6 a7be
00000390: e2d5 b83d aace 323d 9c5a 3a3e 4dea 22bd
000003a0: 6867 0a3e 6e8d 2d3e b560 d1bd cf74 acbd
000003b0: 8cd3 d5bb 7107 16bd 559e c23d b6f7 6a3d
000003c0: 8c4c 25bd c7a9 01be 1572 0c3e 624d 71bd
000003d0: 98bc c0bd b568 163e d3f0 c63c 0a9e 763e
000003e0: 33eb 613c 698d 193e 49fc aabc 1348 373c
000003f0: 1b50 93be b454 283e bda6 043e bc2b bd3c

lstm.weight_hh_l1 f4 [256, 64]
0.045123693 -0.014958992 0.13887915 -0.054984182 0.20824228 0.057095516 -0.18036036 -0.08072943
0.05524268 -0.01927825 -0.024798319 -0.12899442 0.015429332 -0.121856205 0.03406364 -0.15309861
0.27838072 -0.054845843 -0.046842862 -0.014200144 0.11670414 -0.08917139 0.08335377 0.09275562
0.14969975 -0.17024897 0.047773074 -0.10237677 -0.084504955 -0.16425423 0.050241303 0.10933267
0.25652596 0.09858666 -0.20800693 0.25410074 -0.052959707 -0.04400564 0.05862185 -0.10760518
0.19056368 -0.05091265 0.20949285 0.0968621 0.0697777 0.015717966 -0.016050769 0.07699493
0.0004870834 0.1373055 0.045165442 -0.20697668 -0.056285627 -0.03224488 -0.039166212 0.053654432
0.044805236 -0.14276467 -0.089642994 0.14324029 0.13298872 0.17669113 0.004680738 -0.041146904
0.04477021 0.16930163 0.14849389 0.02241032 0.13966894 0.02504304 -0.025527803 -0.0126228575
0.09625075 0.047451172 0.08092447 0.053066786 0.12623246 -0.07018897 -0.08382041 0.05475932
0.10008062 0.033822406 -0.18605433 -0.0956886 0.14817081 0.04580343 0.012335313 0.17676905
0.0699514 0.10292982 -0.03771404 0.0044654617 -0.14067483 -0.00622775 -0.15215287 0.021521304
0.24751253 0.111124165 -0.032086123 0.09675098 0.07412344 0.03247448 0.18967992 0.014767408
0.11777977 -0.042339046 0.13034104 0.03709927 0.13101658 0.03144353 -0.09667098 0.14066117
0.1769386 -0.07289701 0.05949578 -0.12443522 0.1903593 -0.00089288346 -0.0077777696 0.0060891947
0.102486886 -0.0380816 -0.04584958 0.18073171 0.14648059 0.033018954 0.017710922 -0.0430287
0.10215745 0.15235998 0.12350236 0.019958066 0.09039626 -0.044990767 0.051081777 -0.13822725
0.018994827 -0.15331902 0.07228036 0.0048542717 0.16564189 0.011406535 -0.036786977 -0.016814513
0.0014428739 -0.060157426 -0.071117185 -0.12606946 -0.0761 -0.13463567 0.09923729 0.16666578
0.13384211 -0.13342156 0.07547199 -0.07465955 -0.0074213888 0.09257679 -0.1994403 0.08226168
0.09482636 0.08254446 -0.14805987 0.16608264 0.063358165 0.042528477 0.0758187 0.024676684
-0.020049334 0.12747097 0.21035644 0.08375804 0.059864838 0.07348548 -0.07000278 0.04161983
-0.009255567 0.17309815 0.14260803 -0.06224935 0.13493602 -0.068218395 -0.0822417 0.15416752
0.03165047 -0.1439098 -0.11334527 0.10455846 0.11310001 0.045221806 -0.119495995 0.09688087
0.016931346 0.044405174 0.11176563 0.019307079 0.12907688 0.13928966 0.0043173456 -0.033579662
-0.13099264 0.062255125 0.018696561 -0.07814432 0.04711456 -0.12012833 -0.07265227 -0.024024911
0.06831437 0.02212482 0.052222777 0.017964236 -0.020293348 0.043065503 0.08551852 -0.013807178
0.006752424 0.1584818 0.16218457 -0.076975256 -0.0042180694 0.061231602 -0.03885013 0.022370562
0.050661445 0.18587111 -0.07848357 0.17898893 0.06960536 -0.041600537 0.012001587 0.016363366
0.016922861 0.12100802 0.07561705 -0.087703936 0.2175731 0.022376753 -0.04116701 0.021533066
0.10703894 0.15833057 0.09746573 -0.08767031 -0.047242265 -0.12160096 -0.007943125 -0.029122978
0.11540326 -0.023775727 0.020900669 0.16794021 0.0377635 0.12868597 0.00031914076 0.056103863
00000000: 9fd3 383d 8f16 75bc 5636 0e3e 1837 61bd
00000010: 773d 553e fddc 693d 63b0 38be 7955 a5bd
00000020: 2646 623d 6ced 9dbc d825 cbbc 1d17 04be
00000030: 4fcb 7c3c bf8f f9bd 5186 0b3d e2c5 1cbe
00000040: eb87 8e3e 09a6 60bd 4dde 3fbd b9a7 68bc
00000050: 9502 ef3d 7d9f b6bd 62b5 aa3d a9f6 bd3d
00000060: e44a 193e bf55 2ebe b3ad 433d e9aa d1bd
00000070: ef10 adbd 4332 28be d3c9 4d3d cfe9 df3d
00000080: 5f57 833e cee7 c93d c5ff 54be 7e19 823e
00000090: 47ec 58bd 423f 34bd 771d 703d 1b60 dcbd
000000a0: 2023 433e c889 50bd 4b85 563e a35f c63d
000000b0: 9ce7 8e3d f7c2 803c e77c 83bc 85af 9d3d
000000c0: 3a5f ff39 d099 0c3e 66ff 383d b2f1 53be
000000d0: c28b 66bd 3513 04bd c06c 20bd c0c4 5b3d
000000e0: b285 373d e730 12be bf96 b7bd 95ad 123e
000000f0: 322e 083e 85ee 343e e060 993b a889 28bd
00000100: f860 373d 685d 2d3e c80e 183e d995 b73c
00000110: 6005 0f3e 1027 cd3c af1f d1bc 1ad0 4ebc
00000120: 1d1f c53d 295c 423d bbbb a53d 8f5c 593d
00000130: 1543 013e 3cbf 8fbd 09aa abbd 4f4b 603d
00000140: 11f7 cc3d 5d89 0a3d 0785 3ebe 62f8 c3bd
00000150: 17ba 173e 619c 3b3d 0d1a 4a3c f202 353e
00000160: ae42 8f3d dfcc d23d 0a7a 1abd 0253 923b
00000170: 100d 10be 2712 ccbb f6cd 1bbe 724d b03c
00000180: ed73 7d3e 1195 e33d bd6c 03bd 6125 c63d
00000190: 08ce 973d f603 053d 743b 423e 00f3 713c
000001a0: 8536 f13d b56b 2dbd 1f78 053e 67f5 173d
000001b0: 3629 063e eeca 003d 6ffb c5bd 7b09 103e
000001c0: 642f 353e 074b 95bd d9b1 733d e5d7 febd
000001d0: 8ced 423e 6510 6aba a9dc febb de87 c73b
000001e0: a5e4 d13d 74fb 1bbd c5cc 3bbd bc11 393e
000001f0: 02ff 153e e23e 073d 7f16 913c dd3e 30bd
00000200: ed37 d13d 4104 1c3e ceee fc3d 197f a33c
00000210: ad21 b93d 3d48 38bd 203b 513d 728b 0dbe
00000220: 0a9b 9b3c a9ff 1cbe ba07 943d 9510 9f3b
00000230: 079e 293e 7ae2 3a3c f1ad 16bd 97be 89bc
00000240: d01e bd3a a267 76bd e3a5 91bd 5a18 01be
00000250: 51da 9bbd efdd 09be ec3c cb3d 6faa 2a3e
00000260: e80d 093e a99f 08be 0f91 9a3d 1be7 98bd
00000270: 1f2f f3bb e698 bd3d 143a 4cbe d078 a83d
00000280: 5334 c23d 120d a93d 029d 17be 9111 2a3e
00000290: edc1 813d 5732 2e3d d646 9b3d c226 ca3c
000002a0: 803e a4bc c087 023e ae67 573e 5689 ab3d
000002b0: d534 753d 8e7f 963d 9e5d 8fbd 8e79 2a3d
000002c0: a9a4 17bc a440 313e d707 123e 2df9 7ebd
000002d0: ab2c 0a3e 16b6 8bbd 566e a8bd 17de 1d3e
000002e0: eca3 013d 175d 13be 9121 e8bd bf22 d63d
000002f0: faa0 e73d 803a 393d 51ba f4bd 7a69 c63d
00000300: 9bb3 8a3c 33e2 353d 61e5 e43d e129 9e3c
00000310: bb2c 043e f3a1 0e3e 8578 8d3b d48a 09bd
00000320: ef22 06be 3bff 7e3d 8829 993c 210a a0bd
00000330: 32fb 403d d805 f6bd b7ca 94bd e4cf c4bc
00000340: 68e8 8b3d 1c3f b53c 8de7 553d bc29 933c
00000350: 3c3e a6bc 7465 303d 5524 af3d 8037 62bc
00000360: 7043 dd3b 0e49 223e b613 263e 34a5 9dbd
00000370: bb37 8abb fdcd 7a3d 5021 1fbd 7842 b73c
00000380: 6082 4f3d ff54 3e3e febb a0bd e048 373e
00000390: 418d 8e3d 5365 2abd 4ea2 443c 770c 863c
000003a0: d0a1 8a3c 0ed3 f73d 1ddd 9a3d 1f9e b3bd
000003b0: 7ccb 5e3e 744f b73c bd9e 28bd 1d66 b03c
000003c0: 3b37 db3d 6921 223e 1d9c c73d 7e8c b3bd
000003d0: 1b81 41bd ed09 f9bd e223 02bc 5093 eebc
000003e0: 8b58 ec3d 50c5 c2bc e137 ab3c 85f8 2b3e
000003f0: e6ad 1a3d 41c6 033e 5952 a739 2acd 653d

lstm.bias_ih_l1 f4 [256]
0.020162167 0.020052081 0.021284048 0.17768523 0.06396537 0.12782027 0.07494408 0.034049835
0.058463734 0.20714141 0.029488495 0.13166328 0.11660901 0.20532487 0.12579483 0.07494738
0.25664988 0.060567625 -0.026883002 0.17552222 0.039850574 0.099721044 0.1253911 0.10205379
0.21650943 0.10649141 0.08946354 0.0336351 0.12244191 0.24782488 0.112016335 0.017063212
0.17871045 0.11968868 0.10621153 -0.027715007 0.11863002 -0.037816256 -0.041937105 0.20500962
0.06364009 0.13448445 0.010737391 0.1308933 0.14406498 0.2565759 0.08103926 -0.06138398
0.097894356 0.035237886 0.0018248126 0.011794473 0.1400045 0.0537634 -0.08723881 0.23179927
0.18985806 0.10383844 0.020152176 0.021274349 0.073804535 0.21746211 0.107686356 -0.07495574
0.0080162035 0.02939844 0.12889992 -0.0022083619 0.031874947 0.24117239 0.10044793 0.15633291
0.15752187 0.19766255 0.027757658 0.10418294 -0.047509104 -0.021898042 -0.005174657 -0.019051371
-0.06276394 0.24851434 0.027916089 0.08510035 0.09012158 0.07706801 0.037999783 0.15395527
0.24732351 0.17003623 0.015552088 0.13860698 0.05576903 0.13123524 0.18849887 0.0010653237
0.029036444 0.01841327 0.049668595 0.17632912 0.0418867 0.04999827 0.045405623 0.030440599
0.008418534 0.18003693 0.063912 0.039635282 -0.07423526 0.23063426 0.015058282 0.016505666
0.09902186 0.069288574 -0.10142209 0.20217969 0.12937462 0.17950971 0.11843912 0.09933634
0.108390614 0.114267945 0.08288755 -0.040271353 0.21036339 0.066894084 0.2252766 0.0061643
0.14651205 0.06792635 -0.002729906 0.11476998 0.05620559 0.012495517 -0.047940668 -0.053464644
0.092805624 -0.173874 -0.03331986 -0.034725625 -0.02264719 0.06151911 -0.023963206 -0.007659259
0.09694081 -0.022981437 -0.12626533 0.12471894 0.049393523 -0.040416624 0.19645804 0.08864871
0.10446184 -0.23327939 -0.027196452 0.026069904 -0.19600815 -0.19798116 0.107180774 0.03438207
-0.0035537176 -0.086638086 -0.051986188 -0.038499676 0.04475534 -0.08627715 0.02550088 0.0071028443
-0.12419053 -0.10596376 0.04159576 -0.03968038 0.0009645288 -0.15820178 0.06795882 0.027653746
-0.05536573 0.05878912 0.08037442 -0.080962636 -0.07474556 0.09555498 0.041189127 0.08822274
-0.04457607 0.14660119 0.034777183 0.07194968 0.1821637 -0.10370524 0.11321713 0.013817699
-0.07241614 -0.10813617 -0.0579572 -0.12058571 -0.15317452 -0.21557142 -0.13280666 -0.15707105
-0.13405992 -0.12325276 0.0564148 -0.021743735 0.04157532 0.04114694 -0.018739775 -0.23793946
-0.005478977 -0.050324332 -0.12142322 -0.10909934 -0.2691574 0.04144363 -0.063380055 -0.1477355
-0.19007358 -0.11457357 0.07748506 -0.112952225 -0.0060363826 -0.11144517 -0.05323822 -0.13911612
-0.07483994 0.0414125 0.026974881 -0.2064832 -0.20658024 -0.11828973 0.035589736 -0.14433639
0.028455012 0.0031785727 -0.022262707 -0.07477553 -0.08531891 -0.08398847 -0.17747577 -0.2577433
-0.05275777 -0.07011173 0.07428818 -0.010571499 0.031855684 0.059664197 0.044794146 -0.061246485
0.0618714 -0.031484444 -0.07448355 -0.08394798 -0.07065558 -0.08224639 -0.12720637 -0.25675505
00000000: 212b a53c 4344 a43c e25b ae3c 1ef3 353e
00000010: 4700 833d 51e3 023e 487c 993d d777 0b3d
00000020: ab77 6f3d e11c 543e db91 f13c bdd2 063e
00000030: b4d0 ee3d af40 523e 5cd0 003e 037e 993d
00000040: 9d67 833e c215 783d be39 dcbc 19bc 333e
00000050: 5b3a 233d 8c3a cc3d 8666 003e 9401 d13d
00000060: a6b4 5d3e 2b18 da3d a938 b73d f5c4 093d
00000070: d3c2 fa3d cec5 7d3e d268 e53d 26c8 8b3c
00000080: dfff 363e 571f f53d 6e85 d93d 950a e3bc
00000090: 4cf4 f23d 38e5 1abd 3ec6 2bbd 0bee 513e
000000a0: bc55 823d 4bb6 093e e2eb 2f3c e508 063e
000000b0: c585 133e eb5d 833e e9f7 a53d c56d 7bbd
000000c0: d67c c83d 9a55 103d 8d2e ef3a 9b3d 413c
000000d0: 575d 0f3e 0337 5c3d 43aa b2bd ca5c 6d3e
000000e0: 276a 423e 3fa9 d43d 2d16 a53c 8b47 ae3c
000000f0: d526 973d 63ae 5e3e aa8a dc3d 6582 99bd
00000100: 6556 033c ffd4 f03c 57fe 033e 2aba 10bb
00000110: 4e8f 023d e5f5 763e a5b7 cd3d bc15 203e
00000120: 6a4d 213e 0d68 4a3e 0764 e33c de5d d53d
00000130: e898 42bd 8663 b3bc 2b90 a9bb 9f11 9cbc
00000140: 618a 80bd 8b7a 7e3e 48b0 e43c 1849 ae3d
00000150: aa91 b83d d5d5 9d3d a9a5 1b3d 73a6 1d3e
00000160: 6042 7d3e fa1d 2e3e 2fce 7e3c fdee 0d3e
00000170: 116e 643d 8862 063e d905 413e 55a2 8b3a
00000180: d6dd ed3c 6dd7 963c 4c71 4b3d 9f8f 343e
00000190: 6391 2b3d fcca 4c3d 3ffb 393d 905e f93c
000001a0: e4ed 093c 9a5b 383e 4be4 823d 9b58 223d
000001b0: a808 98bd 632b 6c3e 03b7 763c e436 873c
000001c0: f9cb ca3d 2be7 8d3d 62b6 cfbd 3108 4f3e
000001d0: c87a 043e 65d1 373e 3690 f23d da70 cb3d
000001e0: e6fb dd3d 5005 ea3d f3c0 a93d 93f3 24bd
000001f0: 8069 573e c4ff 883d e9ae 663e e5fd c93b
00000200: 4107 163e f81c 8b3d 39e8 32bb 860c eb3d
00000210: d537 663d ffb9 4c3c 6f5d 44bd befd 5abd
00000220: e010 be3d 070c 32be 687a 08bd 753c 0ebd
00000230: 9a86 b9bc 76fb 7b3d 7c4e c4bc 85fa fabb
00000240: e788 c63d 9143 bcbc b34b 01be a56c ff3d
00000250: dd50 4a3d e78b 25bd 4c2c 493e 748d b53d
00000260: 17f0 d53d cbe0 6ebe 18cb debc 8d90 d53c
00000270: 5cb6 48be 93bb 4abe 9881 db3d 37d4 0c3d
00000280: 7de5 68bb 4f6f b1bd 78ef 54bd d6b1 1dbd
00000290: 6051 373d 13b2 b0bd 39e7 d03c fabe e83b
000002a0: 9b57 febd 8703 d9bd 5160 2a3d e587 22bd
000002b0: 6fd8 7c3a a6ff 21be fe2d 8b3d 1c8a e23c
000002c0: 2dc7 62bd dccc 703d 589b a43d bdcf a5bd
000002d0: 3314 99bd 54b2 c33d eeb5 283d 20ae b43d
000002e0: 6695 36bd 9f1e 163e 8572 0e3d 5b5a 933d
000002f0: 1f89 3a3e 6a63 d4bd 62de e73d a163 623c
00000300: ea4e 94bd 7f76 ddbd 8764 6dbd a4f5 f6bd
00000310: c8d9 1cbe c1be 5cbe 78fe 07be 3cd7 20be
00000320: 0147 09be f16b fcbd 3513 673d eb1f b2bc
00000330: e24a 2a3d b289 283d 2884 99bc 67a6 73be
00000340: fe88 b3bb e320 4ebd bdac f8bd 7a6f dfbd
00000350: 00cf 89be ccc0 293d 67cd 81bd fa47 17be
00000360: a6a2 42be 8ca5 eabd 7db0 9e3d 7f53 e7bd
00000370: d9cc c5bb 5e3d e4bd 5210 5abd 7574 0ebe
00000380: af45 99bd 27a0 293d 6dfa dc3c 5570 53be
00000390: c589 53be e341 f2bd 8bc6 113d ebcc 13be
000003a0: 7c1a e93c 9a4f 503b 4860 b6bc ea23 99bd
000003b0: aebb aebd 2602 acbd 35bc 35be eef6 83be
000003c0: 8818 58bd bd96 8fbd 6724 983d 1534 2dbc
000003d0: 1b7b 023d 7262 743d 117a 373d 98dd 7abd
000003e0: dd6c 7d3d d5f5 00bd d58a 98bd ebec abbd
000003f0: dfb3 90bd cc70 a8bd 6342 02be 6675 83be

lstm.bias_hh_l1 f4 [256]
0.02151129 -0.08872828 0.15617543 0.03370969 0.039988138 -0.046534244 0.11531285 0.018363211
0.045170035 0.29277644 0.026869027 0.07711523 0.15035512 0.2608197 -0.022070384 0.07821516
0.098223306 0.14491662 0.1671684 0.0340923 0.062266387 0.16107196 0.22411814 0.12620388
0.24902055 0.2588693 0.016036961 -0.01630504 0.20754465 0.24063338 0.1216137 -0.00035697038
0.2982256 0.13966778 0.12989199 -0.016058424 0.06832266 0.15708259 0.17030974 0.11671892
0.025335236 -0.02012639 0.079164535 0.020552667 0.08221218 0.10986715 0.08661111 -0.07017881
0.17078353 -0.056552876 -0.0295397 0.114407614 0.10279059 0.09525905 0.017666578 0.14101565
0.17956011 0.016233107 -0.012802919 -0.05292892 -0.00848345 0.07040479 0.05023578 0.088455044
0.18160689 0.20664623 0.16850471 0.114091896 0.098166615 0.06397062 0.18539733 0.13498847
0.058934465 0.2223784 0.14730775 0.06987617 -0.013555626 -0.084541224 -0.0071911756 0.15989213
-0.046713974 0.06928566 0.20885094 0.15147723 0.17599873 0.1848487 0.10246998 0.07686503
0.07490129 0.11877217 0.045913983 0.054861262 0.22772844 0.061761532 0.023537496 -0.024207352
0.041961286 -0.05523617 0.09526195 0.19457507 0.24288037 0.21236527 0.046767086 0.22626436
0.20453224 -0.0040749903 0.06107846 0.16550241 0.086042434 0.1852113 0.14880219 0.10999962
-0.013354545 -0.014511891 -0.00078207674 -0.0152023835 -0.04398961 0.19043782 0.1892789 0.038994987
-0.083401546 -0.015175287 0.0048547527 0.12191449 0.08100589 -0.05216211 0.1548432 -0.0033803387
0.08652861 0.036769137 0.011883036 0.09141366 0.14896508 -0.0882661 -0.06155971 -0.11292399
0.19749673 -0.15794197 0.0663513 0.026040971 0.100877516 -0.029644847 0.13184395 -0.0638259
-0.047242824 0.15007685 0.023946429 0.09941517 -0.0108390115 -0.022011824 0.0999471 -0.037216477
0.21092427 -0.09093008 0.01837421 -0.030955153 -0.15354148 -0.28720233 0.026752686 -0.08413313
-0.14231244 0.016686944 -0.06665729 -0.068064675 -0.023167754 -0.08458782 0.08960047 -0.20368941
-0.11772871 0.055032376 -0.049712744 0.07264411 -0.12624268 -0.28013805 -0.14373359 0.110365584
0.07039512 0.025887199 0.09013777 -0.1128712 -0.03180935 0.098026164 -0.14379072 0.23497793
0.07990893 0.114172325 0.07762167 0.043247353 0.1285959 -0.08157933 -0.049934614 -0.018183265
-0.03716423 -0.13206108 -0.21476668 -0.13244629 -0.16768944 -0.2869233 -0.08798143 -0.16771016
-0.22901063 -0.16285083 -0.07936001 -0.07262663 -0.022802291 0.05192956 0.02400803 -0.105390124
0.05093922 -0.25431797 -0.2207778 -0.008625876 -0.16372657 0.027119668 -0.23688732 0.04807102
-0.15002243 -0.18091966 0.05652235 -0.102434434 -0.040855993 -0.2568197 -0.044900935 -0.1371741
0.018284636 -0.11535717 -0.1361883 -0.0057354816 -0.005524948 -0.056936063 -0.10354652 -0.15143484
0.03442997 -0.17116481 -0.05673879 -0.16127299 -0.14717717 -0.17420895 -0.05634243 -0.15719774
-0.08668692 -0.13834018 0.038270842 -0.03855309 0.0116697755 -0.16470112 -0.17994821 -0.20408106
-0.010441904 0.051123276 0.03446532 -0.08031699 -0.06741046 -0.06738866 -0.15428172 -0.20366773
00000000: 7238 b03c 2cb7 b5bd 74ec 1f3e 2c13 0a3d
00000010: 9aca 233d b19a 3ebd 2529 ec3d 726e 963c
00000020: 3704 393d cbe6 953e 6f1c dc3c 97ee 9d3d
00000030: b1f6 193e 298a 853e f3cc b4bc 452f a03d
00000040: 4d29 c93d 0665 143e 312e 2b3e 5ea4 0b3d
00000050: 0a0b 7f3d 0cf0 243e 3a7f 653e 973b 013e
00000060: 3eff 7e3e 848a 843e f25f 833c 2692 85bc
00000070: 9686 543e 9968 763e 9b10 f93d c127 bbb9
00000080: 07b1 983e 1205 0f3e 6802 053e f58c 83bc
00000090: c0ec 8b3d 42da 203e ad65 2e3e 540a ef3d
000000a0: d78b cf3c 19e0 a4bc 0421 a23d 115e a83c
000000b0: dc5e a83d 0702 e13d 2a61 b13d e8b9 8fbd
000000c0: e1e1 2e3e fda3 67bd 3efd f1bc 8a4e ea3d
000000d0: df83 d23d 2d17 c33d 80b9 903c 6866 103e
000000e0: 9bde 373e 4bfb 843c 56c3 51bc ffcb 58bd
000000f0: 2bfe 0abc 6330 903d 09c4 4d3d eb27 b53d
00000100: 28f7 393e 129b 533e 808c 2c3e 03a9 e93d
00000110: 940b c93d 0703 833d ccd8 3d3e 6b3a 0a3e
00000120: 4465 713d 2ab7 633e d8d7 163e 3d1b 8f3d
00000130: 6b18 5ebc f323 adbd f4a3 ebbb c3ba 233e
00000140: 2757 3fbd a4e5 8d3d 05dd 553e d91c 1b3e
00000150: 0339 343e fa48 3d3e c8db d13d 6a6b 9d3d
00000160: d965 993d d33e f33d 4d10 3c3d 34b6 603d
00000170: a531 693e a9f9 7c3d b5d1 c03c 7f4e c6bc
00000180: 99df 2b3d 523f 62bd b218 c33d b03e 473e
00000190: a2b5 783e 4876 593e d88e 3f3d d8b1 673e
000001a0: e670 513e 7f87 85bb 682d 7a3d 7779 293e
000001b0: 0437 b03d 08a8 3d3e 9a5f 183e 7b47 e13d
000001c0: 06cd 5abc 48c3 6dbc 4804 4dba 6b13 79bc
000001d0: 732e 34bd 2202 433e 54d2 413e 35b9 1f3d
000001e0: 6ece aabd c4a1 78bc 9e14 9f3b 4eae f93d
000001f0: 6be6 a53d f0a7 55bd 378f 1e3e ac88 5dbb
00000200: e935 b13d 3c9b 163d 11b1 423c 1637 bb3d
00000210: 4d8a 183e dbc4 b4bd 0926 7cbd b144 e7bd
00000220: 953c 4a3e 8abb 21be 31e3 873d e053 d53c
00000230: df98 ce3d c0d9 f2bc 1a02 073e 27b7 82bd
00000240: b181 41bd bfad 193e 4d2b c43c 2e9a cb3d
00000250: 1c96 31bc 2452 b4bc 11b1 cc3d 4e70 18bd
00000260: 88fc 573e 8d39 babd 8385 963c a995 fdbc
00000270: fa39 1dbe 2f0c 93be 7328 db3c fe4d acbd
00000280: 5aba 11be 0fb3 883c 9e83 88bd 7e65 8bbd
00000290: 4dca bdbc 613c adbd 7480 b73d f593 50be
000002a0: c01b f1bd a169 613d 979f 4bbd 6fc6 943d
000002b0: c345 01be 416e 8fbe e62e 13be 5a07 e23d
000002c0: 512b 903d 6411 d43c 279a b83d 0429 e7bd
000002d0: 854a 02bd f1c1 c83d e03d 13be 0e9e 703e
000002e0: 4ba7 a33d 2ed3 e93d 1cf8 9e3d 2324 313d
000002f0: a5ae 033e 1013 a7bd 3d88 4cbd 12f5 94bc
00000300: 8539 18bd 053b 07be cceb 5bbe 00a0 07be
00000310: c8b6 2bbe 9ce7 92be 9c2f b4bd 36bc 2bbe
00000320: c381 6abe 5ec2 26be 8087 a2bd 45bd 94bd
00000330: dfcb babc 17b4 543d 7dac c43c c7d6 d7bd
00000340: a5a5 503d f735 82be 9313 62be 8c53 0dbc
00000350: f0a7 27be 112a de3c 9792 72be 1ee6 443d
00000360: 7b9f 19be 0143 39be fb83 673d 25c9 d1bd
00000370: 9d58 27bd df7d 83be 0bea 37bd 5e77 0cbe
00000380: a9c9 953c 6140 ecbd f274 0bbe b5f0 bbbb
00000390: 9f0a b5bb ca35 69bd 3310 d4bd bc11 1bbe
000003a0: 7106 0d3d d445 2fbe ef66 68bd bf24 25be
000003b0: 9db5 16be d563 32be 52c7 66bd 72f8 20be
000003c0: e988 b1bd 0ca9 0dbe e3c1 1c3d d8e9 1dbd
000003d0: 9632 3f3c 69a7 28be 5844 38be a0fa 50be
000003e0: 8514 2bbc a466 513d 822b 0d3d 3c7d a4bd
000003f0: 7f0e 8abd 1103 8abd 07fc 1dbe 468e 50be
