best_model.pth (torch, 520316 bytes, 13 tensors)

rnn.weight_ih_l0 f4 [160, 1]
00000000: 22e3 0ebd 59b6 0d3d 5b0c 4f3d 1615 99bd
00000010: aa7d b63d 4550 0cbd 2372 c13b dab9 e83c
00000020: 90b2 3a3d 748a 1e3d eabd 693d 5c40 83bc
00000030: 914a febc eaa3 69bd ca74 93bd 5c3e a73d
00000040: 7db8 f3bc 0f7e c53d 7217 b43d b244 a53d
00000050: fe8d 05bd 2a82 553d 1a1f f1bd d42b 76bd
00000060: 176e 933d 4644 023b 2310 88bb 333c 2fbc
00000070: 84db 733d 3cf2 c8bd 75ba d23b b315 bd3d
00000080: a309 b73d 613c 773d 325c 803c 3255 6ebd
00000090: c40e 06bd bb24 febd da8a d7bc c049 6abd
000000a0: bd88 d03d 4fec bcbd 7a31 8bbc 22e1 7bbd
000000b0: 721e da3d 1123 62bd 1d22 98bd b00c 403d
000000c0: 428b 1b3d dbc4 403d 5d54 853d d921 14bd
000000d0: 92bd 81ba ec20 b83d 718d cd3d 1dc5 efbc
000000e0: 6d12 d43b 77fc 503d 51fc e6b9 c64a e33d
000000f0: 1054 05bd 266b 0e3c da91 b43d 7c6e e83b
00000100: e46a 623d 4663 66bd dc8e adbc c3fc 09bc
00000110: 2458 fb3c b969 ef3b 6c00 393e 70a6 5a3c
00000120: afa6 aebd 3ee1 b4bc 960c 213d 49e9 a73d
00000130: 140b 4cbd fc57 10bd 66d7 95bd 6cf5 e03c
00000140: 9665 75bd e246 10bd c97f 053d 2978 86bd
00000150: c7d5 09bd 5a89 ddba 6c65 833c daac 3dbc
00000160: 6d19 0cbe 327e 883d ea02 cebd 8dab ecbd
00000170: a002 9bbd 7703 ddbb 0181 7dbd 5977 da3d
00000180: 1109 92bd fc11 56bd c771 063e 5e1b 95bd
00000190: f098 6cbd 2ada 46bc bae9 1c3e 00c3 8abc
000001a0: d484 a83c 3696 0a3e 926f 143d ae31 0f3e
000001b0: f981 9abd b999 c93d 181c 6e3c 63cb 873c
000001c0: 3a4b 06bd b265 f03d fddd d9bd 68a7 023d
000001d0: b0a7 3e3d ca3c e63c 942c 8abd ab71 d83c
000001e0: 6b3c d33d a7fe 95bd 2a25 78bd 1c7b ff3d
000001f0: 61a9 8fbd 3d03 02be 4ff4 a7bd e4b8 b8bc
00000200: 9880 a2bc 8fad ac3d 7cdd db3c 0724 f43c
00000210: 1687 f1bc b73b 73bd 41af 64bd f927 d63b
00000220: ed5d 9b3d 91ff 113d e6b3 c8bd a6ed d23d
00000230: 19b0 19be 9e1a e6bd d5cf 943d 936a 5b3c
00000240: c4be 9fbd 23da 0dbd 0c25 b0bd d4f2 313d
00000250: 2a3d d6bd 3fc1 a0bd 7d75 043e db09 a83c
00000260: 28a1 7fbd 008f 80bd b588 abbd 68f4 a4bb
00000270: 1632 383d f71d 8b3d 21b9 be3d 443b a1bd
-0.03488458 0.03459773 0.050548892 -0.07474725 0.08910687 -0.03425624 0.0059034987 0.028408933
0.045580447 0.038706258 0.05706588 -0.0160219 -0.031041415 -0.057041086 -0.0720001 0.08166191
-0.029751057 0.096431844 0.08793534 0.08069743 -0.032606117 0.052126087 -0.1177351 -0.06010039
0.07198732 0.001987712 -0.0041523143 -0.010695505 0.05953552 -0.098118275 0.006430919 0.092326544
0.08937385 0.060360316 0.015668962 -0.058186717 -0.032728925 -0.124093495 -0.026311327 -0.05719924
0.10182331 -0.0922476 -0.016991366 -0.061494 0.10650338 -0.055209223 -0.074283816 0.0468871
0.037974603 0.047062736 0.06510232 -0.036165092 -0.0009898415 0.08990654 0.100367434 -0.029268796
0.006471923 0.05102202 -0.0004405701 0.11098246 -0.03255087 0.008692538 0.088168815 0.007093249
0.05527772 -0.05624702 -0.021186285 -0.0084220795 0.030681677 0.0073063043 0.18066567 0.013345346
-0.08527886 -0.02208006 0.039318644 0.081987925 -0.049815252 -0.03524016 -0.073164746 0.027460776
-0.059911333 -0.03522385 0.03259257 -0.065658875 -0.03365114 -0.0016901896 0.016039573 -0.011576856
-0.13681574 0.06664695 -0.100591496 -0.11556158 -0.0756886 -0.006744798 -0.061890606 0.10667295
-0.071306355 -0.052263245 0.1312934 -0.072806105 -0.05776304 -0.012136975 0.15323535 -0.016938686
0.02057115 0.13533863 0.036239214 0.13983795 -0.075443216 0.098437734 0.014533065 0.016576475
-0.032786585 0.11738147 -0.10638044 0.031897932 0.046546638 0.028105158 -0.06746784 0.026421389
0.10314258 -0.07323962 -0.060582317 0.12474653 -0.07014728 -0.12696548 -0.08200895 -0.0225491
-0.019836709 0.08431541 0.02683901 0.029802335 -0.02948336 -0.05938312 -0.055831198 0.006535527
0.07586274 0.035644118 -0.09799938 0.10299234 -0.15008582 -0.112355456 0.07266203 0.0133921085
-0.078000575 -0.03463186 -0.08600816 0.04344447 -0.10460885 -0.07849359 0.12935443 0.020512512
-0.06240955 -0.06277275 -0.08375684 -0.0050340183 0.04496964 0.06792825 0.09312654 -0.07872632

rnn.weight_hh_l0 f4 [160, 160]
00000000: 0b9f 4e3d 98dd 2b3d e91c 473c 7e32 363d
00000010: 286c 73bd 7a4c 903d f130 6abd feb6 05bd
00000020: a8a5 153c f8ea 80bc 2fb7 0dbd a051 bebb
00000030: 2611 0f3c 2570 4abd b0d0 54bd 2774 703d
00000040: 04c0 f8bc 7f1b a7bd 473b d9bd dc97 4a3c
00000050: 88b1 4b3d f696 613d 70e3 503d b6f4 c8bc
00000060: 67e4 9abd 6739 98bd 095c 783c 8a8c 9abd
00000070: 68a0 50bd 3307 cabc b67c 3bbd 877a c3bd
00000080: 9ecc 7fbb 3b87 ad3c 01f0 20bd c9a4 163d
00000090: bfa5 30bd 5352 92bd efd9 53bc 868a 083d
000000a0: 16a6 493d a00d 9bbd 900b a5bc cdd1 703d
000000b0: d570 803d e344 98bd fc67 ff3d 97a2 93bd
000000c0: 0826 833d 67e4 25bd ad00 bcbc e663 bb3c
000000d0: e197 8d3d 78ec 663c 3c99 7ebd 9825 80bd
000000e0: 100e 583c e561 15bc e1e4 8d3b 4883 abbd
000000f0: c561 8c3d c5e8 9d3d 57b3 703d 010f 7bbc
00000100: 3a42 83bb 0bba 923c b038 963d 7f14 6dbd
00000110: ca71 32bd 0b04 5ebd 015f 69ba a408 33bd
00000120: 6e14 803c f049 cbbc d554 0a3d 730f c9bd
00000130: f1f8 513d 74f0 10bd 1a54 b73b 0e96 95bc
00000140: 71dd cd3c eba9 52bd 4e99 7d3c 8634 42bd
00000150: 9b1d 2d3b a451 8bbc b95d c43b 56a0 47bd
00000160: d5c1 ba3b 0296 98bd c01b 9dbd 22d6 7bbd
00000170: 5156 1cbb e631 20bd 5934 a2bd 685d 7fbc
00000180: 7c98 57bd 0e72 a8bd 09b3 99bd b4fa 403d
00000190: fdca a83d b738 053c f645 8fbd 165a 4c3d
000001a0: a41f 103d 85de 3b3d 247f 02bd 81c2 82bc
000001b0: 0f4e 753d b4fc 2d3d 2556 9dbd 8708 873d
000001c0: 35c6 763c 447f 3a3d e985 413c 66b6 59bc
000001d0: e6d4 86ba 95e5 65bd 3272 77bd abc1 20bc
000001e0: e229 953d c5da 4abd 6df5 83bd a165 2ebd
000001f0: ac55 94bd 72a1 d63c 5435 5b3d 94f7 c0ba
00000200: edf1 6ebd 6e58 3dbd 4233 553d 8735 413b
00000210: 3702 5bbc 65c9 cfbc d23a 823d 4106 c2bc
00000220: e5f2 7ebd e2d8 28bb 8a9a 2f3d 6811 8f3b
00000230: 5311 4a3d 187e 8d3d f95f c4bc 077b 38bd
00000240: 73d7 ee3c e4af 31bd ab27 083c 3fe9 813b
00000250: 29e9 25bd 2487 b9bd 618a 90bc 7be2 27bd
00000260: e5c9 5d3d 5e9e 0f3d 2f21 cbbd 44c9 07bd
00000270: 2149 9eba 5097 07bd 2498 6bbd 7970 dbbc
00000280: f6fa ed3b f9ed 923d b0d4 57bd f63c f8bc
00000290: 3a16 af3d 7497 8a3c b7bd ab3d 0267 523d
000002a0: e8e9 1c3d c7af 963d 628d 67bc 5876 003d
000002b0: b583 b3bc 085d e8bb e184 88bd 95e5 b83d
000002c0: d6aa b73c 7a09 b43d f380 95bd 0e6c 593d
000002d0: 8f2b 7d3c 277f a03d ab8e 94bd b390 933c
000002e0: d864 4b3c 2d8e 853d 4038 92bc 85b0 bdbc
000002f0: 019c 44bd 6f29 7bbd dd30 693d 6e26 42bd
00000300: 2a1c a23d b933 153d 729e fd3b bb85 bebc
00000310: 5a3a 173d 418a 643c 4ebe 9abd 7a15 20bc
00000320: 56b6 a23d 42d7 77bd 8a71 3bbd b531 873c
00000330: 834b fc3c e3f5 913d 185d 543d 42a8 38bc
00000340: c0e0 91bc 9828 c13c 5223 a03d 010a 8c3d
00000350: a261 983b 4175 19bd 3531 d53c d838 303d
00000360: 2c85 333d 7638 533d e57f 653d 7b9b afba
00000370: 4f57 85bd 9a3d aa3b 1201 8e3d d40c 57b9
00000380: 4399 a03b b748 f33b 696f 08bd f024 0cbc
00000390: 8156 493c 6305 91bd 5129 d53d 2ccf df3c
000003a0: 43a6 96bd 9065 0abc 7164 af3c 1c87 99bc
000003b0: 885c ffbc a0ed 2b3d 0e01 003d 3eaf 5dbd
000003c0: 9af6 d9bc 59ed 2fbd 6ab2 92bc 3d67 8d3d
000003d0: 79f2 44bd ce79 813d b355 47bc 0824 3b3d
000003e0: 8f44 45bd 15d8 febc d621 b33d 71b7 01bc
000003f0: 6cf4 fd3b 6018 f5bb 5614 2b3c e77b 763d
0.050444644 0.041959375 0.012152889 0.044481747 -0.059429318 0.07045837 -0.05717558 -0.032645218
0.009133734 -0.015737042 -0.034598526 -0.0058080703 0.008732116 -0.049423356 -0.051956832 0.05870452
-0.030364998 -0.08159541 -0.106070094 0.012365308 0.049729854 0.05507561 0.05099815 -0.02453075
-0.075630955 -0.07432824 0.015158662 -0.07546337 -0.050934225 -0.024661636 -0.04577323 -0.095448546
-0.0039031873 0.021182647 -0.039291386 0.036778245 -0.043126818 -0.07144608 -0.012930377 0.03333523
0.049230658 -0.07570958 -0.020147115 0.05879383 0.06271521 -0.07435014 0.12471005 -0.07208746
0.06403738 -0.040501025 -0.022949541 0.022874784 0.06913734 0.0140944645 -0.062157854 -0.062571704
0.0131869465 -0.009117578 0.004330263 -0.08374649 0.068545856 0.07710413 0.05876478 -0.015323401
-0.0040056976 0.017910978 0.07335031 -0.057880875 -0.04356555 -0.054203074 -0.00089024013 -0.043709412
0.015634742 -0.02481553 0.03377231 -0.098174 0.0512628 -0.035385564 0.0055947425 -0.018260028
0.025130006 -0.051431578 0.015478445 -0.04741337 0.0026415351 -0.017006703 0.005992618 -0.048736893
0.005699376 -0.07450487 -0.076713085 -0.06148351 -0.002385516 -0.039110087 -0.07920141 -0.015586235
-0.052635655 -0.08224879 -0.07504851 0.04711409 0.08241842 0.008131198 -0.06995766 0.0498906
0.035186425 0.045866508 -0.031859532 -0.015961887 0.059888896 0.042477325 -0.076824464 0.06593423
0.015061905 0.045531526 0.011811712 -0.013288116 -0.0010286837 -0.05612715 -0.06041164 -0.009811799
0.07283379 -0.04952504 -0.06443296 -0.04257739 -0.07242903 0.02620003 0.053517655 -0.0014722222
-0.058336187 -0.04622691 0.052050836 0.0029481368 -0.013367227 -0.025364587 0.06358875 -0.023684623
-0.06224336 -0.0025764038 0.04287199 0.0043660887 0.049332928 0.06908816 -0.023971545 -0.045039203
0.029155469 -0.043380633 0.008310239 0.0039645727 -0.040505562 -0.09058979 -0.01764411 -0.040987473
0.05414762 0.03506314 -0.09918439 -0.033150926 -0.0012076237 -0.033103287 -0.05751814 -0.02678703
0.007262583 0.07174296 -0.05269307 -0.030302506 0.08549161 0.016917922 0.083857946 0.051367767
0.038309008 0.073577456 -0.014132829 0.03136286 -0.021913389 -0.0070911683 -0.0666597 0.09028164
0.022420328 0.0879087 -0.07299986 0.053081565 0.01545228 0.078367524 -0.07253774 0.018013334
0.01241418 0.065212585 -0.017849088 -0.02315546 -0.04800034 -0.06131881 0.056931365 -0.04739993
0.07915528 0.03642628 0.0077398354 -0.023257127 0.036920883 0.013948978 -0.07555829 -0.009770745
0.07944934 -0.06050802 -0.045762576 0.016503194 0.030797726 0.07126977 0.051846594 -0.011270585
-0.017807364 0.023578927 0.07819237 0.068378456 0.0046503106 -0.037465338 0.02602444 0.04302296
0.043828174 0.051567517 0.056030173 -0.0013397777 -0.065107934 0.0051953318 0.06933798 -0.00020508777
0.0049010827 0.00742444 -0.033309374 -0.008553728 0.012288691 -0.070811056 0.10408271 0.027320467
-0.07355931 -0.008447066 0.021410199 -0.018741183 -0.031172052 0.041974664 0.031251006 -0.054122202
-0.026606847 -0.04295096 -0.01790734 0.06904457 -0.048082802 0.063220605 -0.012166428 0.04568866
-0.048161086 -0.031108895 0.08746688 -0.007917271 0.0077500846 -0.0074797124 0.01044186 0.060176756

rnn.bias_ih_l0 f4 [160]
00000000: 6a94 72bd 61c0 c33b 4a77 183d e7b1 8f3c
00000010: 027e 593d 7738 7b3b a0d4 6abd 5694 5a3a
00000020: d044 8cbd 0096 83bd ce0e ca3c 6ec4 5dbd
00000030: a262 80bd 3a62 173d e79f b83b eec3 253d
00000040: e5f4 5ebb 643f 53bd f3ec 393d 06a8 9bbd
00000050: e0b4 8bbd ce8a 72bd dcbc 793c 18a3 b9bb
00000060: e5c4 8abd ba2c a8bd 8cfb 7cbd d4ad c73c
00000070: 18f2 87bc a410 883d c002 013d 97b2 1ebd
00000080: 68c3 813d 27d9 27bd c550 c3ba 0f46 333c
00000090: 40eb 8d3c 39e6 02bd 9d08 9e3c a9c4 103d
000000a0: d6fb 22bc fe0c 22bd a843 bd3c 4ade 443d
000000b0: 4cc3 e2bb 370d 393c 2ce9 8ebd 44d7 123d
000000c0: 1230 173c 452f c0ba c27f 22bd d31d 503d
000000d0: 5e5a 9a3c 6827 9a3c 5005 6f3d e238 4bbd
000000e0: 7b91 7d3d 8626 ec3c 00d8 3fbd b39f 463d
000000f0: 4750 1dbd 9bb4 94bd 5df5 f0bc e570 903d
00000100: 60f2 91bd b2c0 c63c 642f b2bd 0073 30bd
00000110: 98f8 dabc 5124 d1bb e8af 09bd a2ca 78bd
00000120: 723b 423d c563 16bc e4a0 71bc 532d 95bc
00000130: 323b f4bc 2af5 5a3d 4992 3c3d 70f1 2cbc
00000140: 5163 7abd 3677 523c d749 413d 9a58 3e3d
00000150: fda4 323d eb58 023d 7c68 0fbd 248f 84bc
00000160: e300 043d 814a bf3d a288 bcbc 75ed 7f3d
00000170: 539a f7bc 3010 a3bc f3e4 463d 7056 0a3d
00000180: e64e da3c d200 013d 16c9 a33d 1f8f 42bc
00000190: b94b 953c bf8c 4c3d 4e74 b5bc cab2 24bd
000001a0: d9bd 003d 1d12 413d 8bcc 7abd 99f6 a03d
000001b0: dca7 25bc 7d28 9cbb 0034 a538 cfe6 debc
000001c0: 88be 533d 3953 23bd b6f4 91bd 8cba 14bb
000001d0: d904 b33d 3a46 a03a c8f3 56bb e2a8 6e3d
000001e0: d73c 46bd 172b 59bd d29c 27bd 66b7 223d
000001f0: b957 983d 8cd3 2e3d c4a9 17bd ea9e 4a3d
00000200: 6fd8 72bc 948f 823d 1669 0fbd e708 653d
00000210: 339e e83c 7478 69bd 8aa8 16bc 2154 de3c
00000220: f0b4 863d 0efc 983c a3c7 a4bd 26fc 973d
00000230: 1426 09bd 5aa4 92bd 31da c63c 5cf3 01bd
00000240: c65b 37bd 35a6 3c3a ae9c 223d 0e26 953d
00000250: 04ec d8bc 1275 59bd 3648 86bd c8ab 42bd
00000260: a78b ba3b 3536 b1bd 9e7e b43c ed80 25bd
00000270: c77a 903c e27a 2d3c 9bfd 3a3d f603 1e3d
-0.05922357 0.005973861 0.037223138 0.017540885 0.053098686 0.0038333216 -0.05733168 0.0008338144
-0.068490624 -0.064250946 0.024665263 -0.054142408 -0.06268813 0.03695891 0.005634296 0.040470056
-0.003402048 -0.051574126 0.045391988 -0.07600407 -0.068216085 -0.059214406 0.0152427815 -0.0056651942
-0.06775836 -0.08211656 -0.06176333 0.02437488 -0.016594931 0.06643799 0.031496763 -0.038744535
0.06336099 -0.040978577 -0.001490139 0.010941996 0.01732409 -0.03195784 0.019291217 0.0353438
-0.009947738 -0.03956317 0.02310355 0.048063554 -0.006920254 0.011294655 -0.06978068 0.035849825
0.009227769 -0.0014662525 -0.03967262 0.050809693 0.018841919 0.018817618 0.058354676 -0.049614795
0.06190632 0.028826963 -0.046836853 0.048492145 -0.038406637 -0.0726101 -0.029413873 0.07052783
-0.071263075 0.024261806 -0.08700445 -0.043078423 -0.026729867 -0.006382503 -0.033615023 -0.06074012
0.047419973 -0.00917906 -0.014747832 -0.018210089 -0.029813383 0.053456463 0.046037946 -0.01055561
-0.06112987 0.012845805 0.04718956 0.046471216 0.043614376 0.03182308 -0.035011753 -0.016181536
0.03222741 0.09340382 -0.02301437 0.062482316 -0.030224955 -0.01990518 0.048558187 0.03377384
0.02664895 0.031494923 0.079973385 -0.011874943 0.018224584 0.049938913 -0.022150185 -0.04020957
0.031431053 0.047136415 -0.061230224 0.07859535 -0.010110822 -0.0047655688 7.877499e-05 -0.027209667
0.051695377 -0.03987429 -0.07126753 -0.0022694198 0.08741159 0.001222796 -0.0032799114 0.058266528
-0.048397865 -0.05301961 -0.04092104 0.039725684 0.07438607 0.042682216 -0.037027135 0.04946796
-0.01482211 0.063750416 -0.035012327 0.055916693 0.028395748 -0.05699964 -0.009195456 0.027139725
0.0657748 0.018674877 -0.0804589 0.074211404 -0.03348358 -0.07160254 0.024273964 -0.031726226
-0.044765256 0.00071963976 0.039700203 0.07282649 -0.026479729 -0.053090163 -0.06556742 -0.047527105
0.0056929174 -0.08652917 0.022033032 -0.040406156 0.01763667 0.01058838 0.045652013 0.038577996

rnn.bias_hh_l0 f4 [160]
00000000: 5595 2c3d 0361 683b 1dc0 b3bd ef9e 333b
00000010: d8a2 d8bb fce1 15bd 36d5 33bb f64e cabd
00000020: b952 5ebd 22eb 1abd e780 2c3d b3d1 9dbd
00000030: b2b0 4e3c 3c35 b23b e0d6 00ba f304 8a3c
00000040: d7bb 63bd 6ba4 e83c b09f 17bd b20d 823d
00000050: 5252 0f3d 94f3 2bbd 7352 ae3a 5730 2f3c
00000060: 3091 5bbd 0e36 ebbc c85f 9f3d de1e 1ebc
00000070: dd8a 47bd f907 27bc f86e 5dbd a8ed 833d
00000080: d0d6 b8bc 4371 02bd bfcd 5a3d 2358 643d
00000090: 4b47 a73c 226f 29bc 9b89 413d 70b8 4d3b
000000a0: cec3 173d 31fc 583d 648b 6ebd 48b0 663c
000000b0: acec 813d 8676 b2bd 63e3 f9bc 4000 28bd
000000c0: e5d4 82bd 4d22 7b3d 013b 3a3d 274a 21ba
000000d0: a728 293d d2e5 933d 3d36 9dbb 17a5 8fba
000000e0: 3426 b83c 9d5e 503d dbae 0e3d efb7 e8ba
000000f0: 4489 53bd 1af3 1b3d b317 b83d f3db 933c
00000100: 248d e43c 477d b93c b538 803d b95b da3b
00000110: 3872 8fbd c632 64bd dfd4 403d bc4a 35bd
00000120: 718f dc3c b4e0 a1bd 4365 52bd 2486 a33d
00000130: a111 28bd 4494 d5bb 0519 36bd cfc6 9dbd
00000140: b53e 34bc 259b 86bd 5e8b 1cbc f477 a23c
00000150: 4bc5 663d 9fc7 7d3d bc3f b43d 5d31 e3bb
00000160: fd20 e13c e158 4d3c 9a88 8d3d 39ca 98bd
00000170: dd0f 7f3d b91c ef3c b78e 4e3d 9d45 0a3a
00000180: e270 cfbc 6f4b 7ebd 2f14 24bd 3081 213d
00000190: 3be3 b6bd 5b26 013d f5fe 313d c88e 10bd
000001a0: c126 363d fd5a 83bd bac6 bebc 1c5f 26bd
000001b0: 15f5 733d 587e 603d e317 91bd 1a66 9f3c
000001c0: a5dc 3abd 2eab dbbc d2f9 ffbc 0f91 9dbd
000001d0: 9ae9 fdbc 44be 763d 1321 ddbc 434e c5bb
000001e0: d266 e5bc 6c13 293d 44fa 61bd 8984 bc3b
000001f0: 831f adbc 8b33 ec3c bb3d 8c3d b42a a4bd
00000200: f3b0 693c 3da3 943c 991e 01bd c649 72bc
00000210: 98ba 003d 419c 99bc 09e4 f73c aed1 aebd
00000220: 9768 823d f96b 6abd 178a 2dbd 420b 98bd
00000230: 94d7 ae3c 4f71 23bc a243 333c adbf 86bd
00000240: d4d3 5b3d b4bf fe3c ef26 1a3d 66c2 8abd
00000250: bd00 9a3d 826d c33c 4c4e 4a3d e9b4 1fbc
00000260: 06f0 683c 766c 973c 302f 20bd cb55 11bc
00000270: 5628 b43c 74cb 823d 529f 5a3c f276 bcbc
0.0421346 0.0035458214 -0.08776877 0.0027407964 -0.0066112094 -0.03659247 -0.0027440316 -0.09878342
-0.05427811 -0.037821896 0.04211512 -0.077060126 0.01261537 0.005438475 -0.00049148314 0.016848063
-0.05559906 0.028398713 -0.037017524 0.063502684 0.034990616 -0.04198034 0.0013299718 0.010692677
-0.05360526 -0.028712299 0.07781941 -0.009650914 -0.048716415 -0.010194772 -0.054060906 0.06441814
-0.022563368 -0.031846296 0.05341887 0.055748116 0.020419737 -0.0103414375 0.04725037 0.003139045
0.03705197 0.052974883 -0.058238402 0.014080115 0.0634397 -0.08714013 -0.030503934 -0.041015863
-0.06388263 0.06131201 0.045466427 -0.0006152712 0.041298535 0.07221569 -0.0047977255 -0.0010959235
0.022479154 0.05087148 0.034834724 -0.0017755012 -0.05164458 0.038073637 0.08988895 0.018049216
0.027899332 0.022642745 0.06260816 0.006663766 -0.070042074 -0.055712484 0.04707801 -0.044260725
0.026923867 -0.07904187 -0.051366102 0.0798457 -0.041032437 -0.006517919 -0.044457454 -0.07703935
-0.011001279 -0.0657256 -0.009554712 0.019832589 0.056340497 0.06195795 0.08801219 -0.006933375
0.02748155 0.012533397 0.0691082 -0.07460446 0.062270988 0.0291885 0.050429072 0.00052746554
-0.025322381 -0.062083658 -0.04005831 0.039429843 -0.089300595 0.03153072 0.043456037 -0.035292417
0.044470552 -0.06413839 -0.02328812 -0.040618047 0.0595599 0.05480799 -0.07084634 0.019457866
-0.04562058 -0.026815023 -0.031247053 -0.07693683 -0.030995179 0.060240045 -0.02699331 -0.0060212924
-0.02800313 0.041278288 -0.055170313 0.005753104 -0.02113319 0.028833171 0.06847712 -0.080159575
0.014263379 0.018144244 -0.03152332 -0.014788097 0.03142795 -0.018751265 0.030260103 -0.08536087
0.06367605 -0.057231877 -0.04236802 -0.07424022 0.02134303 -0.009975745 0.010941418 -0.06579528
0.053668812 0.03109727 0.037634786 -0.0677536 0.07519672 0.023855928 0.049391076 -0.009747722
0.014217382 0.018484335 -0.0391075 -0.008870552 0.02199189 0.06386462 0.013343649 -0.023005936

rnn.weight_ih_l1 f4 [160, 160]
00000000: fede 91bd 0601 09bd 3d92 52bd 4e9a 5dbd
00000010: 0b7a 86bd c03e 293d bedd bb3b 5897 1f3d
00000020: 252d 43bd ff72 87bd 2219 0fbc 82a9 1ebd
00000030: 0201 2e3d 7ae6 3cbd 1b80 843c 6414 c73c
00000040: e033 b1bb a97f 80bd 5c5a ae3a 422d 61bd
00000050: 18c4 b33c 7c58 cebc 00ab 343b 4d15 aebc
00000060: 88ef 0b3c c0f5 863a 9045 a4bd 9698 46bc
00000070: 16be 6c3d ed8b 973d cdfc 90bd 3edd fdbc
00000080: d86f 20bd 146f 9bbd f7eb 99bd 60ba 17bc
00000090: 66aa 603d 7fb9 62bd 984b e9bb 2629 03bc
000000a0: 2c0c fa3c 38a7 27bc 2092 1e3c 3468 0cbd
000000b0: c025 99bd ae48 4e3d b037 51bc 832e 883d
000000c0: e0c1 023b f8bf fd3c 33b7 4ebd 8799 a8bd
000000d0: 06e2 603d 24d1 453d 2fed aebb 046b a3bc
000000e0: 48c4 323c 216a 433d 18ed 94bc 1cae 42bb
000000f0: f4dd e43c e4c7 4abc c651 b8bd 1eac 243d
00000100: 7bd5 1dbd 1c53 123d f2ce 8ebd d12b 2ebd
00000110: 9983 983d 2cf2 2c3d 5c98 2ebc 9c17 eabc
00000120: e350 8ebc 80c8 91ba f756 6e3c 439f 803d
00000130: e9db 42bd 826d a83c db1e 703d ba29 9bbd
00000140: 1cdc 37bd 9105 9ebd 770f b1bd 264d c23c
00000150: b817 f3bc ebea 67bc 182e 55bd a6ac 043d
00000160: a3ec 0fbd fd47 88bc f8ca eabc 2531 14bd
00000170: cba4 b7bc ebfa f4ba 732a 88bd a3cd 22bd
00000180: b755 b2bd e023 78bd 9d3c adbb dabc 663d
00000190: c608 183d 5ef7 6a3d 79df 323d f257 23bd
000001a0: c61f 2abd 0ba1 7a3d 4230 3c3d 8003 263d
000001b0: 8fc3 6c3d c171 093c ff01 a13d bfa0 a2bc
000001c0: 33f5 9abd 83cc 7abd 8832 e63c 604f 373b
000001d0: ac25 94bd acea cc3b 8634 6c3d 9ffa 3fbd
000001e0: ab7a 213d f4f2 60bd d8ee a63c a4c4 2d3d
000001f0: 3000 ff3c f6a8 a4bc 93a0 86bd 5228 9dbd
00000200: 46fe 86bd 3aa0 093d 0030 c73a 8942 953c
00000210: 0e11 723d 322f aebc 2b2c 093d a629 9ebd
00000220: 4a4c 19bd 92c2 fdbc 3823 093c 648b 92bd
00000230: e366 8d3d cb8c 8a3d afa9 843d 1c3d eebc
00000240: 115b 28bd d771 5ebb 8caf 0c3d cafb 01bd
00000250: ad05 4e3d 3f32 593d d192 2a3d f75e 9fbd
00000260: b7e1 1f3d f0d5 aa3c e411 bfbc fcab 1d3d
00000270: c29f 2b3d 4803 0d3c e023 b63b 0dc6 67bd
00000280: 84b8 483c 9d24 74bd 7227 ea3b e842 18bd
00000290: 5a95 db3c 7ba5 01be 26cc 0cbe 3cea 413d
000002a0: 4896 5fbd 53e0 813d 9a95 953d 284d 39bc
000002b0: 572c 98bd dc26 cabd ba00 69bc b044 0e3e
000002c0: 00e9 85ba a76a 80bd 6818 c13d 54c1 7a3d
000002d0: 8240 8abc f808 723c f85c 44bd d149 08be
000002e0: 607a 3ebb 3d20 983d bdf3 663d ac4a fcbc
000002f0: 4fda dab9 0e6d ecbc 3331 d23d fb9b ba3d
00000300: 90ba 413c 7966 033d 52f7 ca3d 1dc9 20bd
00000310: efb3 0ebd 4938 a1bd 94c4 1bbd c0a7 76bc
00000320: b30c 0a3e ca22 6b3d 0bc2 be3b 42df 95bd
00000330: b1e8 86bc 90f1 083c 7a35 2bbe 2f04 eb3d
00000340: cea2 683d 0977 eabb 1044 80bd d29b 0abd
00000350: 7f51 e93d 2caa 013d c7b7 263c e3cc bfbd
00000360: 6332 e03c d76a e53c 0c31 b53c 4f2d 093d
00000370: 4015 ff3c 7e3f f2ba 854b 793d af55 4e3d
00000380: 72af 71bd 554a 00bd a6a6 6d3d 9c98 963c
00000390: f009 c53b 3a2a 713d cf2d e83d 356a a13d
000003a0: 7e40 68bd 1070 15bc 1fc1 15be d32c 77bc
000003b0: 7bae 5abd 8bb9 ec3c 74b7 aebd 813d 813d
000003c0: 5097 75bc 6eab 25bd 2f75 8b3d 26c2 fbbd
000003d0: 2b80 f0bb 150a fbbc bbb2 523d 53be 12bd
000003e0: 46da 28bc d893 0e3d 05d2 17be 7e1e dabd
000003f0: 1227 07be f0b3 a83d 4b3c 7fbd 3b3a 113e
-0.071226105 -0.03344824 -0.051408995 -0.054102235 -0.065662466 0.04131961 0.005733221 0.038962692
-0.047650475 -0.06613731 -0.0087340195 -0.038735874 0.04248143 -0.046118237 0.016174367 0.024301715
-0.0054077953 -0.06274349 0.0013302076 -0.0549748 0.02194409 -0.025188677 0.0027567744 -0.021250391
0.008540995 0.0010296628 -0.080210805 -0.01212134 0.057798468 0.073997356 -0.07079468 -0.030989286
-0.039169163 -0.07589546 -0.0751571 -0.009260744 0.054850005 -0.055352684 -0.007119607 -0.008005416
0.030523382 -0.010232739 0.009678394 -0.034279063 -0.07477903 0.05036228 -0.012769625 0.066494964
0.0019951984 0.030975327 -0.05046768 -0.08232408 0.054903053 0.048295155 -0.005338333 -0.01994849
0.010911055 0.047708634 -0.018179461 -0.0029705828 0.027937867 -0.012376759 -0.08999972 0.040203206
-0.03853367 0.03572379 -0.069730654 -0.042522255 0.07446975 0.04222314 -0.0106564425 -0.028575711
-0.017372554 -0.0011122376 0.014547101 0.06280377 -0.047573004 0.02056003 0.058623176 -0.07576318
-0.044887647 -0.077159055 -0.08645528 0.023718428 -0.029674396 -0.01415513 -0.05204591 0.032391213
-0.035137784 -0.01663589 -0.028661236 -0.03617968 -0.022417447 -0.0018690502 -0.066487215 -0.03974689
-0.08707755 -0.060581088 -0.0052867667 0.056332447 0.037117742 0.057364814 0.04367015 -0.039878793
-0.041534208 0.06118874 0.04594446 0.04053068 0.057803687 0.008388937 0.07861709 -0.01985204
-0.07566299 -0.061230194 0.028100267 0.0027970895 -0.07233748 0.006253561 0.057667278 -0.04686987
0.039423626 -0.0549192 0.020377561 0.04242386 0.03112802 -0.020100098 -0.06573596 -0.07673706
-0.065914676 0.03360007 0.00151968 0.018220203 0.059098296 -0.021262739 0.033489387 -0.077227876
-0.03742627 -0.030976567 0.008370213 -0.07155493 0.0690439 0.067651354 0.06477677 -0.029081874
-0.041102473 -0.0033942366 0.034347102 -0.031734265 0.05029838 0.053026434 0.04164392 -0.07781785
0.039033618 0.020853966 -0.02332396 0.038494095 0.041900404 0.008606739 0.005558476 -0.05658536
0.012251023 -0.05960523 0.0071458155 -0.03717318 0.026804615 -0.12660782 -0.13749751 0.047342524
-0.05458668 0.063416146 0.07303925 -0.011309899 -0.07430332 -0.09870693 -0.014221365 0.1389339
-0.0010216534 -0.06270342 0.09428483 0.06121953 -0.016876463 0.014772646 -0.047940224 -0.13309409
-0.002906464 0.07428024 0.05638479 -0.030797325 -0.00041742853 -0.028860595 0.1026329 0.09111782
0.011824265 0.032080147 0.09910454 -0.039254297 -0.034839567 -0.07872064 -0.03802927 -0.015054643
0.13481407 0.057406224 0.0058214716 -0.07317974 -0.016468378 0.008358374 -0.16719618 0.11475407
0.056795888 -0.0071553034 -0.06262982 -0.033840008 0.11392497 0.03165643 0.010175652 -0.09365251
0.027367776 0.028005047 0.022118114 0.033490475 0.031138062 -0.0018482057 0.060863037 0.050374683
-0.05900521 -0.03132089 0.058020256 0.018383317 0.0060131475 0.05887816 0.11336862 0.078815855
-0.05670213 -0.009120956 -0.14624451 -0.0150863705 -0.053389054 0.028897068 -0.08531085 0.06310559
-0.014989689 -0.04044669 0.0680946 -0.1229289 -0.0073394976 -0.030644456 0.051439982 -0.03582604
-0.010305947 0.034808964 -0.1482621 -0.10650347 -0.13198498 0.08237445 -0.06231336 0.1418237

rnn.weight_hh_l1 f4 [160, 160]
00000000: 8a4f 5cbd a840 083d 8c36 9ebd e77c 97bd
00000010: e73a 1dbd 4fd5 8cbd a637 393d 9060 38bd
00000020: 08eb 793d 3437 c83c 488e d4bc 3f0f 9d3d
00000030: 2442 e9bc 941c 473d d832 113c 1f0a 01bd
00000040: 8da0 4bbc b8d6 003c 8578 9e3d 00da 853a
00000050: e0fb 34bc 38e2 0fbd 1593 393d 2bed 903d
00000060: 7e95 fabc af7f 96bd a527 54bd 40e2 be3a
00000070: 4486 213d dc26 f33c 9c2c 9e3c 60fb 8dbd
00000080: e8cb 5c3c 581f 85bb 3d00 9ebd 00a6 ec3c
00000090: 2037 0d3d cc25 873d 9dd9 b6bd 3a0c 0ebb
000000a0: 880b 5bbd 74fd fbbc c54c 0e3d 634d 123d
000000b0: 62af 193d b0dd 83bd 16d1 88bd 6a7d 0b3d
000000c0: a0b6 7b3b 50fe 183c c01b 47bc 2847 67bc
000000d0: f493 0fbd 6014 1d3d 9f98 1abd 7849 3ebc
000000e0: ee26 b7bd ee67 5f3d 34d7 9cbc d255 5cbd
000000f0: daf6 403d d435 ef3c d8bf f0bc 31cd 98bd
00000100: 0002 19ba 5403 c53c 11be 8e3d 4e40 333d
00000110: c7f1 373c be71 93bd 65f0 03bd 9846 20bb
00000120: 8aa9 743d 5f45 49bd 8a6a c93c 7c66 49bd
00000130: 23f8 8ebd 4bfd fdbc f3f4 c73c 7e32 453d
00000140: 8a36 1a3d 07aa 513d ca7d 443d 9a3a e3bc
00000150: 56cd 4c3d fe68 82bd e8b5 f03c 9817 763c
00000160: ccf2 183d e442 69bc d640 78bd 3c0d e7bc
00000170: 8f71 893d a6e0 64bd 0ea6 063d f624 e5bb
00000180: c49a 0e3d 3876 29bd 609c 6cbb 8025 e03a
00000190: 640b 08bd edb4 543d 7959 8d3d 7ab7 42bd
000001a0: 2df9 98bd 59fc 93bd 086d 193d 1c82 1bbd
000001b0: f456 2ebd fbb7 18bd da37 27bd 6174 3abd
000001c0: 6440 9d3c 9779 53bd f0a6 0f3d 68fa 103d
000001d0: 4718 97bd 1ef9 3c3d 0631 9d3c ece3 013d
000001e0: 4305 b6bd 8048 1d3b 6e09 b1bc 7cd9 93bd
000001f0: 5ac6 20bd 2014 063d d860 90bd 785d 133d
00000200: 0639 5c3d b0fc 73bd 7d44 933d 8052 72ba
00000210: 323f 1dbc b62c 60bd 0936 3bbb 52f9 c4bc
00000220: 4585 393d 48df 173c 388f 163c 77af 9d3d
00000230: 1eea 653d 94ae a0bd 90c7 ee3b e4e2 d63c
00000240: ee6a 35bd 42bc 3c3d e5b0 a6bd e976 56bd
00000250: 7afa 45bd 09f7 10bd ba3b 643d 20ba c9bc
00000260: f1a8 8f3d af2a 8e3d 00a2 deb9 469f babb
00000270: 8e70 eb3b 5d58 923d 8478 bb3c 6472 28bd
00000280: 6993 883d 2451 ecbd 4bf3 d2bc 6ba0 4e3d
00000290: 34ab 96bd 201a dd3d 54a8 3cbd e559 3fbd
000002a0: 12a8 2dbd 46a1 653d d6f0 96bd 7017 c83c
000002b0: b56d 39bd ea1f 963c 0654 753d 413f 6ebd
000002c0: fa89 95ba 77a0 9bbd 6e3e 683d ac4e 233d
000002d0: 11e1 9cbd 382a 44bd dbee 93bd 0999 80bd
000002e0: b2ae 6f3d 3cd4 40bd 7e89 ea3c 19ce 92bd
000002f0: e30b 8abc d0ad 0b3d d698 4b3d 61e1 603c
00000300: 0bee b43d 9fa9 63b8 18dc 083c 2000 51bd
00000310: d4bb ba3c e122 46bd 1a9b 7dbb 1efd 3d3d
00000320: fafd 693d 9cfc 383d 3902 8abc 1f9e 8e3d
00000330: 9638 99bd e00a 27bc c640 4abd 8010 f8ba
00000340: 286d 72bd 9d55 34bc d146 a73b 4093 b03a
00000350: ef7d fdbc d752 29bd ef3b 2d3d 3aa4 8bbc
00000360: 42b1 adbd c0e3 86bd e618 053d f954 ccbc
00000370: 3afc 503c fc8e 653d a4d3 ddbc 8502 3c3d
00000380: e05f 35bb 1923 e7bd e18a 94bd 6856 0abd
00000390: dd26 1aba 8642 113d 40fd a43d 7088 a2bd
000003a0: 2ea8 583d 0f1e 613d d2e9 0abd 203b a9bd
000003b0: a0bc 003e f0fa a23c 118e 53bc 2c29 cebc
000003c0: 95bc be3d 880b 56bd 90ba d7bb 069f 883d
000003d0: 61d8 263d 8c8b 9bbd 1ae8 36bd 72d9 523d
000003e0: 4013 0a3d 1471 fa3c 9b8a 1a3d 8fb5 c3bc
000003f0: 2f7d 09bd 2e79 05bd 3045 103d 9ccb debc
-0.05378679 0.033264786 -0.07725248 -0.0739687 -0.03838625 -0.06876623 0.045219086 -0.045013964
0.06101516 0.024440385 -0.025946751 0.076689236 -0.028473921 0.04861124 0.00886222 -0.031503793
-0.012428415 0.007863693 0.07737831 0.0010212064 -0.01104638 -0.03512785 0.045306284 0.07076486
-0.030588862 -0.073485725 -0.05179562 0.0014563277 0.039434686 0.029681616 0.01930838 -0.069327116
0.013476349 -0.0040625744 -0.07714889 0.028887749 0.0344764 0.06599006 -0.08928225 -0.0021674768
-0.053477794 -0.030760504 0.034741182 0.035718333 0.037520774 -0.06438768 -0.06680505 0.03405515
0.0038408414 0.009337977 -0.012152612 -0.014116086 -0.03505321 0.03834951 -0.037743207 -0.011614196
-0.08942972 0.054542474 -0.019145586 -0.053792782 0.047110416 0.029200472 -0.029388353 -0.07461012
-0.0005836785 0.024049439 0.06969846 0.043762498 0.011227078 -0.07199429 -0.03221168 -0.002445614
0.059731998 -0.049138423 0.024586935 -0.049170002 -0.06980922 -0.031004569 0.024408793 0.048143856
0.03764967 0.05118754 0.047971524 -0.027737904 0.05000051 -0.06367682 0.029383615 0.015020274
0.037340924 -0.014237139 -0.060608707 -0.028204553 0.06711113 -0.055878304 0.032873206 -0.0069929315
0.034815565 -0.041372508 -0.003610395 0.001710102 -0.033213988 0.051930357 0.06901831 -0.047538258
-0.074694015 -0.07225866 0.037457496 -0.03796588 -0.042563394 -0.037284832 -0.04082475 -0.045521144
0.019195743 -0.05162963 0.035071313 0.035395056 -0.073776774 0.046136014 0.019188415 0.031711504
-0.08887722 0.0023999512 -0.021610942 -0.07219216 -0.039251663 0.032734036 -0.070497215 0.03597781
0.05376532 -0.059567153 0.071907975 -0.0009243861 -0.0095975865 -0.05473014 -0.0028566143 -0.024044666
0.04529311 0.009269543 0.009189419 0.07699483 0.056131475 -0.07845798 0.0072869733 0.026231237
-0.04429143 0.046077974 -0.08139209 -0.052359495 -0.048334576 -0.03539184 0.055721022 -0.024624884
0.07014645 0.06941735 -0.0004246384 -0.0056952564 0.0071850484 0.0714576 0.022884615 -0.041124716
0.06668741 -0.11538914 -0.025750777 0.050445955 -0.07356873 0.107959986 -0.046058968 -0.04671659
-0.042396612 0.056062005 -0.073701546 0.024425238 -0.04527064 0.018325765 0.059894584 -0.058165792
-0.0011408918 -0.075989656 0.056700163 0.03986995 -0.076601155 -0.047891825 -0.072232924 -0.06279189
0.05851621 -0.047077402 0.028630015 -0.07168216 -0.016851371 0.034101307 0.049706303 0.0137256095
0.088344656 -5.427899e-05 0.008353256 -0.05102551 0.022794642 -0.048373107 -0.0038697184 0.04638397
0.057126977 0.045162782 -0.016846763 0.06963753 -0.07481496 -0.010195464 -0.04937818 -0.0018925816
-0.05918613 -0.01100674 0.0051048775 0.0013471618 -0.030943839 -0.041338768 0.042293485 -0.017046083
-0.08481075 -0.065864086 0.032494448 -0.024942862 0.012755448 0.056044564 -0.027078457 0.04590084
-0.0027675554 -0.11285991 -0.072530515 -0.03377381 -0.0005880425 0.035463832 0.08056116 -0.0793618
0.052894764 0.054960307 -0.033914395 -0.0826323 0.12571955 0.019895047 -0.012912289 -0.025166117
0.09313313 -0.05225709 -0.0065835193 0.06670956 0.0407337 -0.07594976 -0.044654943 0.051476903
0.033709764 0.030571498 0.03772984 -0.023890285 -0.03356665 -0.03258627 0.035222232 -0.027196698

rnn.bias_ih_l1 f4 [160]
00000000: d2c5 89bd 5739 16bd 81d4 7fbd 242f b83c
00000010: a72c a1bd bcee 6f3d 91dd 3c3d 8541 8cbc
00000020: 1f67 8d3d d495 8dbd c681 393d ec9d 753d
00000030: 9234 e3ba cf72 223d b6a7 dabc ee03 81bc
00000040: f6d8 09bd bad2 a3bd aced 6ebd 6d14 013d
00000050: 21f6 583d 525e 1abc 7471 273d 7b39 4dbd
00000060: ebc3 afbd 72dc f3bb 7ef9 2cbd f3df 9dbd
00000070: ea94 963d 508a cf3c b19e ba3c c2e4 483d
00000080: f558 913d 4e99 94bc 1c30 08bd 0ae0 72bd
00000090: 9f5c 63bc 96ab 95bc ce8a 3e3d 6617 ccbb
000000a0: bffd 30bd 05e0 9f3d 979f 1b3d 0e9b 8a3d
000000b0: a194 013d 1253 20bd f0d6 c7bb 14c8 68bd
000000c0: 77d6 b2ba 5f97 d8ba bdea 9ebd 329d a0bd
000000d0: de01 75bd 48f1 7dbc 5bde 8b3c 72d9 8fbc
000000e0: 2baa c6bc a8c3 183c 8a86 81bd 0ad3 5d3b
000000f0: eef0 5dbc a943 84bd 01eb 633c 50fa 783b
00000100: ebee 7ebd 3e57 b93d 534c a83b f261 c23b
00000110: c0de 6b3c 07aa 7ebc 615b 1ebb d79a d93b
00000120: 0170 87bd e220 d4bc 1daa 903d 48a6 0bbc
00000130: 6f7f d5ba a43c fd3b 86b0 833d f2af e33c
00000140: 5015 953d 507b b4bc 605c a4b9 02a5 4b3d
00000150: c6c8 343b 0039 abbc b232 63bd 1bcf 9ebd
00000160: f3ab 92bb 1694 12bc 686e 233d c8af 31bc
00000170: 1c2a e8bc fbb9 21bd d841 32bd 0453 eb3c
00000180: c95b db3c 0607 3ebd 9263 193d 5ea5 57bd
00000190: ab3a 8dbc 0e38 d1bb 4792 183d 137e 0cbd
000001a0: 21bb 913c 906f 56bc 37d6 01bd bc97 4a3d
000001b0: bb32 ab3c c55a f7bb ae18 b63c 42d4 3e3d
000001c0: e9d7 48bd 0d5e 6c3d 4435 a83d c582 99bd
000001d0: edb5 0b3d e2e9 4c3d 02be 483d e622 2dbd
000001e0: 3662 a4bd dcd6 b33c 2e08 45bd 9a76 84ba
000001f0: 6d82 ac3d cc57 05bd dc12 df3b 5657 813d
00000200: 276b 84bd f241 edbc 50d2 82bd 77b6 10bc
00000210: 96cd 69bd 8ef0 603d 21ec f43c 28a6 ccbb
00000220: cd21 493c b201 033d 876c 9a3c 8f84 0dbd
00000230: fe31 d83c 8bbb 493d f095 74bb bf4b c5bc
00000240: 7886 a2bc ea97 e53b f7a7 823d 6615 65bd
00000250: 8daf 43bc 4bed 783d fddf 7cbd fdc3 a0bd
00000260: e5e9 94bd e353 4bbd ea49 533d 8347 993c
00000270: 2f6d 823d a736 33bd 619b 203d d604 93bd
-0.06727184 -0.036675777 -0.06245852 0.022483416 -0.07869845 0.058577284 0.04610974 -0.017121086
0.069044344 -0.06913343 0.045289777 0.05996506 -0.0017334393 0.03966027 -0.026691299 -0.015748944
-0.033654176 -0.07999177 -0.05833213 0.03151362 0.0529691 -0.009421902 0.04087968 -0.050103646
-0.0858229 -0.0074420506 -0.04223012 -0.077087305 0.07352622 0.025334507 0.022780748 0.049046285
0.07097045 -0.018139508 -0.033249006 -0.05929569 -0.013877063 -0.018270295 0.046519093 -0.0062283752
-0.04321074 0.078064 0.037993994 0.067678556 0.031635884 -0.039141722 -0.0060986206 -0.056831434
-0.0013644238 -0.0016524604 -0.077596165 -0.078424826 -0.059816234 -0.01549942 0.0170738 -0.01755974
-0.024251064 0.009323992 -0.063244894 0.0033847713 -0.013546212 -0.06458218 0.01391101 0.0037990995
-0.06223957 0.09049843 0.0051360517 0.005932086 0.014396369 -0.015543467 -0.0024163353 0.006640773
-0.0661316 -0.025894586 0.070636965 -0.008523531 -0.0016288589 0.007728176 0.064301535 0.027793858
0.07279456 -0.022031456 -0.00031349342 0.04971791 0.002758549 -0.020901203 -0.05546827 -0.07754346
-0.0044760644 -0.008946439 0.039900213 -0.010845132 -0.028340392 -0.039484005 -0.043519825 0.028726108
0.026777165 -0.046393417 0.037448473 -0.05264794 -0.01723989 -0.006384856 0.037248876 -0.03429992
0.017789425 -0.013088122 -0.03169843 0.04946111 0.020898214 -0.0075486624 0.022228565 0.046589144
-0.049034033 0.05770688 0.082132846 -0.074956454 0.034109045 0.050027736 0.04900933 -0.04226961
-0.08026545 0.021953039 -0.048103504 -0.0010106147 0.08423314 -0.032554433 0.006807668 0.06315486
-0.0646575 -0.02896211 -0.0638777 -0.0088325655 -0.057080828 0.05491691 0.029897751 -0.0062453933
0.012276125 0.03198404 0.018850578 -0.034550246 0.026391026 0.04925112 -0.0037320815 -0.02408397
-0.01983951 0.007006635 0.06379693 -0.05592861 -0.01194371 0.060773175 -0.06173705 -0.07849882
-0.07271174 -0.049640547 0.05158416 0.018710857 0.06368481 -0.043753292 0.03921068 -0.07178657

rnn.bias_hh_l1 f4 [160]
00000000: d65b 89bd 277b 34bd fd77 383c fa9d 8bbd
00000010: e969 7c3d 09c5 a2bc 813b 6ebd cc84 99bd
00000020: 8531 1a3d f067 683d d984 903d 570d 83bd
00000030: 2fd8 873d 5168 3f3d 6b79 9bbd 0866 94bc
00000040: 92f9 213c e839 883c dd09 a4bd 0dfb 0d3d
00000050: 43cc 7dbd ed48 5a3d fe7f 85bc 0146 383d
00000060: 2ed7 1b3b bba5 83bc e52a 8a3d 069a 6f3d
00000070: 78a1 2c3c 5c5f 3a3d eba0 ddbc 746f 97bc
00000080: efc0 603d 1ee7 a53d 849b 91bd 235a 99bd
00000090: 78b7 8d3a 8c7f 0c3d ca0e 6b3d 100d 8c3d
000000a0: 9c37 b93c 0ad0 233d ee82 17bb 8143 e0bc
000000b0: 73f1 023d c908 7ebd 9806 583d fe31 c43b
000000c0: a020 5a3d 21d6 833d 9385 d4bc 44e1 91bd
000000d0: 45cb 1bbd e017 53bd 994b e5bb 1ffa febb
000000e0: 8873 d2bc 9ce5 1f3d 85c1 183d 3772 cb3c
000000f0: f07a 4e3d d34d 7abc eca7 233d 07c0 acbb
00000100: e647 42bd fee7 72bc f266 04bd c126 c4bc
00000110: d32c 873d e9b1 f1bc 5330 613d c349 e5bc
00000120: 0655 41bd 953e 0cbb 6941 aa3c e847 1bbd
00000130: 5b2f 133d 507e aebc 09bb 08bb 28eb a83d
00000140: e52d 403d a55f e63c 76b2 f9bb 753b 6b3d
00000150: 681e 15bd cbfc 77bc afc5 95bd f6fa 86bd
00000160: ed03 b2bc bd95 473d b73f b03d 4920 26bc
00000170: fae9 3d3b 6379 3abd a3c5 7ebd fa34 fe3c
00000180: b1aa 15bd 36f0 af3d c325 83bc 909f 1b3d
00000190: 19c8 713d 729e 283d 2525 803d dfa4 44bd
000001a0: 8eee 983d 21ee 6ebd bade a0bd b6cc 583d
000001b0: 666b 7d3d e8c6 9d3d 22e6 ba3c cf7a 7f3d
000001c0: 2bbe 31bc d3bc e03c 9f68 75bd 5f54 87bc
000001d0: da1a 1abc 603b 9a3d 3c01 0fbd 6f6e 7f3c
000001e0: af35 9dbc 4dc2 75bd b68c 323c b25d 83bd
000001f0: 9361 05bb b696 04bc 4f9b 943d 8436 bdbb
00000200: 4c91 60bd 6354 043d dca1 23bc ff9b 31bc
00000210: 2c07 8fbd e1d2 bb3c be50 e4bb 331a 9d3d
00000220: b9af 893d 2353 833d 8a85 59bd 47fa 2d3d
00000230: f08b 91bd 91c4 c63c 320f 2a3d 4f86 8c3c
00000240: 806e 1c3b 36f8 da3c b0cb e73c 73df af3c
00000250: e5ff a13d bb35 003d 605a f83b 5143 6f3d
00000260: 2907 f03c 778c 0ebc 08de a9ba 10ca 7c3d
00000270: 9b53 853d d0ca 743d 19c4 6f3d 2fb0 803d
-0.067069694 -0.04406276 0.011259076 -0.06817241 0.06162444 -0.019869344 -0.058162216 -0.07496032
0.03764488 0.056739748 0.07056589 -0.06399029 0.066330306 0.046730343 -0.07591518 -0.018115059
0.009886162 0.016629174 -0.08009694 0.03466325 -0.061962377 0.053292204 -0.016296383 0.044988636
0.002377938 -0.016070237 0.06746463 0.058496498 0.010536544 0.045501098 -0.02705427 -0.018485762
0.054871496 0.08100723 -0.071097404 -0.07487895 0.0010812124 0.034301326 0.05738715 0.06838429
0.022609524 0.039993323 -0.0023118812 -0.027375938 0.031968545 -0.062020097 0.052740663 0.005987405
0.05325377 0.06437326 -0.0259426 -0.07123044 -0.03803565 -0.05153644 -0.0069975373 -0.0077812816
-0.025689855 0.039037332 0.03729393 0.024834735 0.05041021 -0.015277344 0.039955065 -0.005271915
-0.04743185 -0.014825819 -0.03232474 -0.02394426 0.066003464 -0.02950378 0.054977726 -0.027989274
-0.047200225 -0.0021399606 0.020783143 -0.037910372 0.035933834 -0.021300465 -0.0020863435 0.082479775
0.04691877 0.028121779 -0.007620151 0.05742975 -0.03640595 -0.015135954 -0.07313096 -0.06590836
-0.021730388 0.048726786 0.08605903 -0.010139533 0.0028978572 -0.04552592 -0.0622002 0.03103112
-0.036539737 0.085907385 -0.016009217 0.037993968 0.05902872 0.04116673 0.06257085 -0.048008796
0.07467376 -0.058332566 -0.07854982 0.052929603 0.06187 0.07703954 0.022814814 0.06237298
-0.010848562 0.027433788 -0.059914228 -0.016519723 -0.009405816 0.07530856 -0.034913287 0.015590294
-0.019190637 -0.059999753 0.010897806 -0.06414355 -0.0020352348 -0.008092573 0.07256185 -0.005774321
-0.054826066 0.03230704 -0.009987321 -0.010840415 -0.0698379 0.022927703 -0.006967633 0.07671013
0.067229696 0.064123414 -0.05310587 0.04247501 -0.07106769 0.024263652 0.041518398 0.017153887
0.0023869574 0.026729684 0.028295368 0.021468854 0.07910136 0.03130124 0.007579133 0.058413807
0.02930029 -0.008700482 -0.0012959847 0.06171614 0.06510087 0.05976373 0.058536623 0.06283604

rnn.weight_ih_l2 f4 [160, 160]
00000000: a01b a1bd 08c1 9fbd 2238 c5bc d2b2 523d
00000010: 387c 06bd d6b1 a4bd 8993 37bd 440e b73c
00000020: e396 84bc 00fe 383c 9f51 02bd b1af 59bd
00000030: 6fe5 03bd 7032 063d 7418 883c c937 823d
00000040: ed43 35bd c18a 9cbd 2ac1 59bd 2e5b 67bd
00000050: 7462 1f3d aa76 95ba ad9f 9bbb 8d83 0abd
00000060: 864d 47bd f11a 4a3c 9df7 d1b9 62a0 223d
00000070: 16b4 11bd d427 c6bc 3187 23bd 9d18 3bbd
00000080: fd75 3cbc 50b0 9c3c dac7 8dbd cc12 6bbd
00000090: 697a 743c 186b 34bc 4e76 90bd f3b3 3dbd
000000a0: fc14 a6bc 7eab 25bd e617 673d 5f7c 9cbb
000000b0: 0db5 83bd dcbf 29bd fe91 8a3d 780b 8fbd
000000c0: d3da 5ebc 7156 61bd 9a58 abbc 9cb4 99bd
000000d0: a6f6 5c3d 22be 563d eee6 d63a 6e7d 4b3d
000000e0: 2d6f 2ebd f883 54bd 5902 5ebc 03de bbbc
000000f0: 4c7d 323d 558d a0bd e467 353d a3e5 80bd
00000100: a6a6 99bd 72ef 803d 99aa 40bd 0a53 84bd
00000110: b8af 13bd 5aca 86bd fd86 813d d8f1 243d
00000120: 865e 1bbd 20da 6fbd 041a 843d bf05 0bbd
00000130: 12cc 0a3d 18a4 833c fcc7 0d3d 1ce7 0abd
00000140: 04a9 a63c 101e d53c 802b 143d 291b 533d
00000150: 0e19 693d 2c7e c83c fa83 7c3d 38a1 5bbd
00000160: e461 c13c c84d 603d acb1 363d 90e4 1c3c
00000170: 5d5e 8bbd 4b80 9ebd 9286 353d d3bf 563d
00000180: f8fe 043d 0c3f 8bbd f057 57bc 8510 393d
00000190: a082 313d 57b1 c1bc aaa4 95bd a9d1 36bd
000001a0: 6cf1 7d3d a481 6cbd a00a dd3c bfcb 953c
000001b0: b359 acbc 9629 4bbd 0880 3e3d b8f0 143d
000001c0: 240f ac3c dd27 fdbc f1cc 8bbd d0f6 b63b
000001d0: 4a10 94bb 9eca 3dbd 2298 693d a01f 78bd
000001e0: e5a3 07bd 3636 63bd 1877 81bc 0697 623d
000001f0: c941 38bd a613 733d c244 c8ba 6396 05bc
00000200: 30a3 cc3b 8445 96bc 8d7b 883d aca6 5a3d
00000210: 2cf5 c53c 1992 643d d892 763c 333e 04bc
00000220: 12e4 8fbb cc6e c4bc 0030 ad39 df0a 32bc
00000230: 922c 573d 3e84 3b3c 1110 a0bd 4da7 743d
00000240: 1bc4 873d cda8 63bd 3369 f23c 79e3 9a3d
00000250: d1f5 41bd f8e9 733d 6ef7 213d 54eb e83c
00000260: 0d8f 2fbd df56 2fbd c2e0 333d a771 fa3b
00000270: e301 94bc dff2 c03c a9cd 523d 003c 603a
00000280: 52b9 23bd 8dc5 75bd 2d14 85bd 5a1b 5d3d
00000290: dc07 debc c66a d0bc 9b93 1a3d e9d2 8e3c
000002a0: 43a3 fa3c 6572 883d 0a95 45bd fbbe c03c
000002b0: 92d7 263d 2b97 f53c 1e91 263d 9ae1 923c
000002c0: f3bf 74bd 6330 8d3d e014 dbbc f277 313d
000002d0: 6309 bc3c 1133 2fbd 6672 39bc 32a0 9f3d
000002e0: e52b 98bd 5fb0 863d 4855 76bc 2f62 b73d
000002f0: 2642 e93c 436c 51bb 9515 e53c b6bd 6ebd
00000300: 3a33 8dbd 0f3c abbd 28d9 003c 1027 393c
00000310: 12b7 923d b0cb 513d 4b33 0bbd 5eed 72bd
00000320: 9582 90bd 4cfb a4bc c465 803d b7ce 2a3d
00000330: 1990 543d 9bc7 a1bc 132a 7fbd a2e0 98bd
00000340: 9aa1 54bc a7cb 0b3d 6fd5 513d c866 443c
00000350: 69af 64bb 78a0 823c e1e5 45bd 1584 c03c
00000360: 6af9 ccbc 509f 963c 06f1 ac3d a8e0 9e3d
00000370: 5bff 44bd 8ab7 28bd 30b0 7cbd 0833 423d
00000380: 376f 92bd c68a afbd 3419 703d 520c 013a
00000390: d015 e2bd 61b5 953d 492d a33d 8fe5 ac3d
000003a0: 703d 293d 3cca 68bd 9545 74bc 5bdc 58bd
000003b0: 4fca 5d3d 9c23 aa3d 33a8 7f3c c9c0 af3d
000003c0: 691a 873d 4579 253b 13e3 4a3d 7ee5 833d
000003d0: 9fd6 50bc 979a 063d 779c 89bd fa83 96bd
000003e0: 0b95 8b3d 0ae1 7ebd 757d 29bd c4ec 73bc
000003f0: 72d4 653d ba5e 493d ba1c 803d 928a 503d
-0.07866597 -0.0780049 -0.024074618 0.051440068 -0.032833308 -0.08041732 -0.044818435 0.02234567
-0.01618523 0.011291027 -0.03181612 -0.053146068 -0.032201227 0.032762945 0.016613223 0.063582964
-0.044254232 -0.07643653 -0.05316273 -0.05648344 0.03891225 -0.0011403162 -0.0047492594 -0.033816863
-0.048657916 0.012335525 -0.00040048073 0.039703734 -0.035572134 -0.024188913 -0.03992385 -0.04567777
-0.01150274 0.019127041 -0.06922884 -0.057390973 0.014921763 -0.011011861 -0.07053815 -0.04631419
-0.020273678 -0.04044675 0.056419276 -0.0047755684 -0.06431017 -0.041442737 0.06766127 -0.06984609
-0.013601976 -0.055014078 -0.020916272 -0.07505152 0.05394616 0.05242742 0.0016395727 0.049680166
-0.042586494 -0.051883668 -0.013550364 -0.022933012 0.043576524 -0.07839457 0.04428853 -0.062938
-0.07502489 0.062956706 -0.047037695 -0.06461151 -0.03605625 -0.06581564 0.06324575 0.040269703
-0.03793194 -0.05855763 0.064502746 -0.033941027 0.033886023 0.016069457 0.034614548 -0.03391181
0.020344265 0.026015311 0.036174297 0.051539574 0.05690866 0.024474226 0.0616493 -0.053620547
0.023606248 0.054761678 0.044603035 0.009575978 -0.06805108 -0.07739314 0.04431779 0.05242903
0.03246972 -0.067991346 -0.0131435245 0.04518177 0.043337464 -0.023644133 -0.07306798 -0.04463354
0.061997816 -0.057740822 0.026982605 0.01828563 -0.021038866 -0.049600206 0.04650882 0.03636238
0.021003313 -0.030902797 -0.06826199 0.0055836216 -0.0045185434 -0.04633581 0.05702985 -0.060577035
-0.033115286 -0.05547162 -0.015803859 0.05531981 -0.044984613 0.05934491 -0.001527928 -0.008153531
0.0062450394 -0.018343695 0.066641904 0.053381607 0.024164759 0.055803392 0.015049659 -0.00807147
-0.004391202 -0.023978613 0.00033032894 -0.01086685 0.05253274 0.011445103 -0.078155644 0.059729863
0.06629201 -0.055580903 0.029591179 0.07562918 -0.04735357 0.059549302 0.039542608 0.028432526
-0.042861033 -0.042807456 0.043915518 0.007642943 -0.018067306 0.02355331 0.051465664 0.00085538626
-0.039971657 -0.060002852 -0.06497989 0.053981163 -0.027103357 -0.025441539 0.037738424 0.017434554
0.030595427 0.06662444 -0.048237838 0.023528567 0.040732928 0.029979309 0.04066574 0.01792984
-0.05975337 0.06893995 -0.026743352 0.04332728 0.022953695 -0.04277331 -0.011318779 0.07794227
-0.07430247 0.06576609 -0.015034981 0.08954274 0.028473925 -0.0031955398 0.027964393 -0.05828639
-0.06894536 -0.08361065 0.007864274 0.011300817 0.07163824 0.051219642 -0.033984464 -0.059308402
-0.070561565 -0.020139359 0.0626941 0.041701045 0.051895235 -0.0197485 -0.062295984 -0.0746472
-0.012977982 0.034129765 0.051228937 0.011987396 -0.0034894592 0.015945658 -0.048314933 0.023500482
-0.025021274 0.018386513 0.08444409 0.077576935 -0.04809509 -0.04119066 -0.061691463 0.04741195
-0.07150119 -0.08571391 0.058617786 0.00049227953 -0.11039317 0.07309986 0.07967622 0.08442222
0.041318357 -0.05683349 -0.014909168 -0.052944522 0.054148015 0.08307573 0.015604067 0.08581693
0.06596834 0.0025249284 0.04953296 0.064402565 -0.012746482 0.032862272 -0.067192964 -0.07349391
0.06815537 -0.062226333 -0.04137941 -0.014887992 0.056110807 0.049162604 0.06255479 0.0509134
