best_model_RNN.pth (torch, 6725 bytes, 5 tensors)

rnn.weight_ih_l0 f4 [32, 1]
000000 09 5e 97 be 2b ad 6d be c3 bf 23 3e b9 59 e3 3d
       -0.2956393 -0.2321059 0.1599112 0.111010976
000010 fa a1 52 be 0d 58 a0 be e7 c0 e1 3e c5 70 6d be
       -0.20569602 -0.31317177 0.44092485 -0.2318755
000020 ae ce b9 3e 1d 69 d3 be 02 d3 c3 be 14 24 b2 3e
       0.36290497 -0.41291133 -0.38246924 0.3479315
000030 b2 12 d6 be 40 1c 6c be d7 d8 f5 bd f2 61 a2 3e
       -0.41811138 -0.23057652 -0.120042495 0.3171535
000040 e9 2c 0f be 5e 67 d4 3c 49 6c e0 be c2 e8 42 3e
       -0.13981976 0.025928196 -0.43832615 0.19034103
000050 70 d9 92 3c b6 d2 0b be aa bb ed 3c 75 a8 d0 3e
       0.017925948 -0.13654599 0.02902015 0.40753523
000060 6c 8d 99 bb 22 be 63 3e 13 35 d3 3e 6e 7f 7a be
       -0.0046860483 0.22240499 0.4125143 -0.24462673
000070 39 37 74 3e 23 99 b1 3e 39 49 b4 be f7 4b df be
       0.23849191 0.34687147 -0.35212114 -0.43612644

rnn.weight_hh_l0 f4 [32, 32]
000000 5c c5 9d 3e 95 ee e6 bb 69 07 8c be 00 8a a9 be
       0.30814636 -0.007047484 -0.27349404 -0.33113098
000010 42 ca 86 3e ed 9c 54 be c1 b2 eb bc 68 82 18 3e
       0.26326185 -0.20762987 -0.02877176 0.14893496
000020 2d 34 17 3e 2a e5 43 be 74 40 91 bd 1b 9c 60 3e
       0.14765997 -0.19130388 -0.070923716 0.2193455
000030 19 db 9c bd 4d cc 1e 3e f4 c4 f6 3d f4 46 6b 3e
       -0.07658977 0.15507622 0.120492846 0.22976285
000040 ad 7e 58 3e a9 e7 36 be f7 e2 99 3e ce ca 63 be
       0.21142073 -0.17861809 0.30055973 -0.22245333
000050 89 87 3d bd c9 e7 f1 bd e2 a0 26 bb e3 1d af bd
       -0.046271835 -0.11811788 -0.0025425483 -0.08550622
000060 1b f7 db 3d 2c 15 55 3e 89 35 7a 3b 17 16 6d be
       0.10740491 0.20808858 0.0038178882 -0.23152958
000070 32 64 26 3e 4f 2c be 3d 54 ac 8d be eb d2 8b be
       0.16249159 0.09285795 -0.27670538 -0.27309355
000080 70 4d 6b 3e 32 55 62 3e ff 7d a2 3d 6f 97 35 be
       0.22978759 0.22102812 0.07934188 -0.17733549
000090 13 c1 58 3e be de 5b bd 4e 65 35 3d 19 82 8d 3e
       0.21167402 -0.05367922 0.044286065 0.2763832
0000a0 fa 31 ab bd 5e 69 de bd c3 00 10 bd 48 42 45 be
       -0.08359142 -0.10859941 -0.035156976 -0.19263566
0000b0 3a ff a5 3e 20 90 43 3e ea 47 64 3e 35 61 85 3d
       0.32421285 0.19097948 0.22293058 0.065126814
0000c0 06 57 73 bd eb 3a 85 be a9 29 a3 bd dd 9d 5b 3e
       -0.059409164 -0.26021513 -0.079669304 0.21446939
0000d0 c5 1f e1 3c f4 21 4a 3d ea 1a 0b be 77 fb ad bd
       0.02748097 0.049348786 -0.13584486 -0.08495229
0000e0 ce c4 1c 3e ea bf 84 3e a4 1b 80 3e d5 ed 54 bd
       0.1530945 0.2592767 0.25021088 -0.051984627
0000f0 75 f8 93 3e 06 33 4a be b5 4b 97 3e ad 99 94 3d
       0.28900495 -0.19746026 0.29549947 0.07255874
000100 4f b2 cf bd 6b bd 40 3e d3 a1 11 be 54 7a 60 be
       -0.101414315 0.18822257 -0.14221887 -0.21921664
000110 8f 2d d1 3c 43 71 22 bd c1 20 49 3e 14 b9 ac 3d
       0.02553442 -0.039658796 0.19641401 0.08433738
000120 d5 6e 59 3e ca f6 9b be f8 6e 7e 3e 82 b0 7b be
       0.21233685 -0.30461723 0.24847019 -0.24579051
000130 da f8 f2 3c 2f ce b4 3d bd 74 5f be 3e 34 50 3e
       0.029659677 0.08828389 -0.21821876 0.20332429
000140 c3 c8 91 be c4 b0 a3 bd 30 6a 7a be fe 11 ec 3c
       -0.28473482 -0.079927 -0.2445457 0.028817173
000150 54 7c 8e 3e 3e dc 94 bd c4 6c 67 3e 75 1f 28 be
       0.2782923 -0.0726857 0.22600085 -0.1641825
000160 df 58 2d 3e ba c3 57 bb 81 00 0c be af 4b 14 3e
       0.16928433 -0.0032923059 -0.13672067 0.14481996
000170 84 da 50 3e c6 e1 97 3d 65 8e 8c bd e6 e8 56 be
       0.20395857 0.0741611 -0.06863097 -0.20987281
000180 ee d6 07 3e 8b d3 3f bd 4c 02 73 be ef 7f 86 3e
       0.13265583 -0.046832602 -0.23731345 0.2626948
000190 97 ad e2 3d ee e1 bc 3d 2c 92 8f 3e 1a f9 a4 be
       0.11068266 0.0922278 0.28041208 -0.322213
0001a0 4f 77 b6 bd 51 90 3d be 68 17 dc bc 31 50 1a be
       -0.08909475 -0.18512084 -0.02686663 -0.15069653
0001b0 e7 c5 8b be 0f d9 9f 3d e5 4d 00 3e 14 8c fb bd
       -0.27299425 0.078050725 0.12529714 -0.12282577
0001c0 38 eb de 3b fb ca 62 be aa 4f 82 be b6 91 4d be
       0.0068029426 -0.22147743 -0.25451404 -0.20075116
0001d0 ca e4 12 3e dc d5 22 be 23 92 06 3e 26 7b 32 3e
       0.14345089 -0.15901893 0.13141684 0.1742979
0001e0 c6 f9 9a be c9 25 61 3e f5 5c d8 bd ec e9 59 3d
       -0.30268687 0.2198707 -0.10564605 0.0532016
0001f0 b5 6d 04 be 55 4c e3 bb 34 83 86 3d 8e d2 45 bc
       -0.12932475 -0.0069365897 0.06567994 -0.012074126
000200 3c c0 0c be 5a 59 82 be 30 3a 0c 3e 68 77 28 3d
       -0.13745207 -0.25458795 0.13694072 0.0411295
000210 6f df 48 38 a6 ea bd 3d a7 24 57 be 86 80 1b be
       4.7891805e-05 0.09273271 -0.21010076 -0.15185747
000220 7a ba 93 bd 82 fa 90 3d a8 2b 47 be d6 5a b6 3d
       -0.07213302 0.070790306 -0.19450247 0.08904044
000230 a0 08 17 bd 4f 63 b2 3e 08 76 8d 3e 7c c2 ed ba
       -0.03687346 0.3484139 0.27629113 -0.0018139626
000240 4b 2f 9f 3e 4f 93 c4 bd bb 81 44 bd 5e 7c 25 3e
       0.3109077 -0.095984094 -0.047975283 0.16160724
000250 9a 37 52 3b 58 42 68 be e7 7c 96 be b4 7b ec 3d
       0.0032076598 -0.22681558 -0.29392168 0.11547032
000260 d3 74 60 3e 86 83 06 3d 45 ee 3f 3e e0 53 9b bd
       0.21919565 0.032840274 0.18743236 -0.07584357
000270 7b db 31 3e c8 71 b1 bd b9 4b a5 3e 63 65 43 bd
       0.17368881 -0.0866428 0.32284334 -0.04770411
000280 eb 01 53 be 80 66 22 3e 35 14 2f be 79 50 c0 3d
       -0.206062 0.15859413 -0.17097552 0.09390349
000290 61 07 51 be bd eb 72 bd 64 bf a0 bd 81 97 52 be
       -0.20412971 -0.05930685 -0.07849005 -0.20565607
0002a0 c8 90 8f be eb 76 86 be fd d4 a5 3e 80 72 79 be
       -0.28040147 -0.26262602 0.3238906 -0.24360085
0002b0 12 3e ea 3d ad 47 9a 3d 09 ec 14 3e 53 9a cf bd
       0.1143762 0.07533202 0.14543165 -0.10136857
0002c0 1f 1b 52 be b6 39 40 3e 64 ba 4c 3d 16 bb 05 3e
       -0.20518158 0.18772015 0.049982443 0.13059649
0002d0 fd c6 52 3e 9d 0f 69 3e f9 fd d8 bd 4c 50 9e be
       0.2058372 0.22759862 -0.105953164 -0.30920637
0002e0 a8 a1 2b be f2 3f a8 be 51 5f bc 3d 3f 0e 30 be
       -0.16760886 -0.32861286 0.09197868 -0.17192934
0002f0 f0 aa 83 3e 01 17 49 3e ba af 93 3e 52 95 4b 3e
       0.25716352 0.19637682 0.28845006 0.1988118
000300 95 80 40 be b5 3a 5b 3e 22 b3 53 be 52 b7 34 be
       -0.1879905 0.21409114 -0.20673802 -0.17648056
000310 8d f7 d2 bd 98 00 5e be 6d 8d 8f 3e 02 f1 85 bd
       -0.10301123 -0.21679914 0.28037587 -0.06540109
000320 6f 83 7c 3e 78 21 54 bc 2c 13 a6 3c 89 55 91 bb
       0.24659513 -0.012947433 0.020272814 -0.0044352454
000330 7b ec 5f 3e df 11 29 3e 5a 8d 93 be 33 ab 09 3d
       0.21867554 0.16510724 -0.2881878 0.033610534
000340 58 3b 9f bd bd 44 01 be ef 85 46 3d 47 97 0e bd
       -0.07774991 -0.12623878 0.048467573 -0.034812238
000350 91 29 a2 3e 47 34 21 3e 3a 22 63 be 78 93 ea 3d
       0.31672338 0.15742598 -0.22181025 0.11453909
000360 0e 2e 68 3e 20 c5 86 bd 5b 26 1e be 33 15 98 bd
       0.22673818 -0.06580567 -0.15444319 -0.074259184
000370 86 b7 8c be c1 d1 ac 3c be 81 94 3d c9 16 1d 3d
       -0.27483767 0.021096112 0.07251309 0.038351808
000380 9b 55 e8 bc d8 91 6b bd 03 ba cc bd 45 e2 63 be
       -0.028361132 -0.057512134 -0.099964164 -0.22254284
000390 b3 34 23 3b 43 ad e4 3c 94 4f 9c be 3d 74 40 be
       0.0024903237 0.027914649 -0.30529463 -0.18794341
0003a0 28 77 f9 3d 7d 14 1d 3e ed 2a 14 be f5 80 c1 bd
       0.121809304 0.15339847 -0.144695 -0.09448425
0003b0 a3 f3 bb bd b0 d0 5e 3d 30 94 13 3e 54 34 f4 bd
       -0.091773294 0.05439824 0.14411998 -0.11924043
0003c0 7a d8 44 bd 50 01 74 3e de de 58 3d 80 b2 15 3e
       -0.04805801 0.23828626 0.052946918 0.14618874
0003d0 06 e3 f1 bc 6d cd ab 3e 2c f2 1b 3e cd f3 6d bd
       -0.029527199 0.33555165 0.152291 -0.058093835
0003e0 cb fe 85 be 02 28 f8 3d 97 af 25 3e 79 ca f6 3d
       -0.26170954 0.12117006 0.16180263 0.12050337
0003f0 86 0a 93 bb 38 01 0b 3e f3 e8 76 3e cf a4 06 be
       -0.0044873385 0.13574684 0.241123 -0.13148807

rnn.bias_ih_l0 f4 [32]
000000 92 46 a6 bc 9f b1 9f bc b8 0e 6a 3d 67 cb 1d 3d
       -0.020297322 -0.019493876 0.057142943 0.038524058
000010 9b 12 3b bd d2 60 fd bc 5c da d8 3c 46 80 17 bd
       -0.04567204 -0.030929957 0.02647131 -0.036987565
000020 48 21 db 3c bd c6 51 bc 0e e2 3a bc 63 4f 63 bd
       0.026749268 -0.012803731 -0.011406435 -0.05549563
000030 9a 6e 42 bc 1e 06 b4 bc f8 63 85 bd c3 f5 f0 3c
       -0.01186719 -0.021975573 -0.06513208 0.029414063
000040 b5 c6 32 bd c3 22 4d 3d d1 4e d0 bc 97 ed 1b bc
       -0.043646533 0.05008198 -0.025428208 -0.009517095
000050 01 2c 5b 3d f2 08 28 bd b4 7d 89 3d b4 08 9f 3c
       0.053508762 -0.041024156 0.06713429 0.01941333
000060 ca 27 3e bd c7 93 a7 bc 13 b0 22 bc 82 2b 12 bd
       -0.046424665 -0.020456208 -0.009929675 -0.035686024
000070 d2 fa 82 bc b7 ec cb 3c 53 3f 01 3d b0 1d 11 bc
       -0.015988741 0.024893148 0.03155453 -0.008857176

rnn.bias_hh_l0 f4 [32]
000000 92 46 a6 bc 9f b1 9f bc b8 0e 6a 3d 67 cb 1d 3d
       -0.020297322 -0.019493876 0.057142943 0.038524058
000010 9b 12 3b bd d2 60 fd bc 5c da d8 3c 46 80 17 bd
       -0.04567204 -0.030929957 0.02647131 -0.036987565
000020 48 21 db 3c bd c6 51 bc 0e e2 3a bc 63 4f 63 bd
       0.026749268 -0.012803731 -0.011406435 -0.05549563
000030 9a 6e 42 bc 1e 06 b4 bc f8 63 85 bd c3 f5 f0 3c
       -0.01186719 -0.021975573 -0.06513208 0.029414063
000040 b5 c6 32 bd c3 22 4d 3d d1 4e d0 bc 97 ed 1b bc
       -0.043646533 0.05008198 -0.025428208 -0.009517095
000050 01 2c 5b 3d f2 08 28 bd b4 7d 89 3d b4 08 9f 3c
       0.053508762 -0.041024156 0.06713429 0.01941333
000060 ca 27 3e bd c7 93 a7 bc 13 b0 22 bc 82 2b 12 bd
       -0.046424665 -0.020456208 -0.009929675 -0.035686024
000070 d2 fa 82 bc b7 ec cb 3c 53 3f 01 3d b0 1d 11 bc
       -0.015988741 0.024893148 0.03155453 -0.008857176

fc.weight f4 [1, 32]
000000 6d 13 73 be 2c 91 8f be 1d e3 5f 3e a6 25 9c 3e
       -0.23737879 -0.28040445 0.2186398 0.30497473
000010 39 b8 24 be 5e e7 a0 be 81 28 cf 3d 81 ae 88 be
       -0.160859 -0.3142652 0.101151474 -0.26695636
000020 2f 06 25 3e e8 67 5c be 59 69 ce bd ce 9c 40 3b
       0.1611564 -0.21524012 -0.10078687 0.0029390338
000030 45 95 84 bd 47 ec 87 be e6 aa 6f be 9e 85 9d 3e
       -0.064737834 -0.26547453 -0.23405036 0.30766004
000040 7e 30 59 be b7 cd 73 3e c5 2d 6e be ee 01 15 3e
       -0.21209905 0.23808943 -0.23259647 0.14551517
000050 8e e9 6e 3e 75 0c 92 be f3 ea 76 3e c9 85 ed 3c
       0.23331282 -0.2852513 0.24113064 0.028994458
000060 40 f9 7e be 42 b5 2d 3d ab c7 cd 3d 95 0b 6f be
       -0.24899769 0.04240919 0.10047849 -0.23344262
000070 21 54 9f 3d 85 bf 8f 3e c4 cc 04 bd 39 f1 06 be
       0.07779718 0.28075805 -0.032421842 -0.13177957
