best_model_RNN.pth (torch, 202117 bytes, 9 tensors)

rnn.weight_ih_l0 f4 [128, 1]
0	0x3ebf4de3	0.3736411
1	0x3e4ca4e2	0.19984773
2	0xbdd15380	-0.102210045
3	0xbce0a833	-0.027423954
4	0xbdd7f7b5	-0.10545293
5	0x3e687760	0.22701788
6	0x3e5aed51	0.21379592
7	0xbe2f0c37	-0.17094503
8	0x3e0c34cf	0.1369202
9	0xbda5c74f	-0.08094656
10	0xbe8e0515	-0.27738252
11	0x3e7e7f43	0.24853234
12	0x3b759db1	0.0037478025
13	0xbe137138	-0.14398658
14	0xbe00fa05	-0.12595375
15	0xbe36656e	-0.1781213
16	0x3dec53ec	0.11539444
17	0xbe5b9ca7	-0.21446477
18	0x3e48383c	0.19552702
19	0xbe54cfa9	-0.20782341
20	0xbe935021	-0.2877207
21	0xbdf1ff1e	-0.11816238
22	0xbe1a5224	-0.15070397
23	0xbde9c498	-0.114144504
24	0x3e797e14	0.24364501
25	0xb97fa037	-0.0002437838
26	0xbe5e8ee7	-0.217342
27	0x3e296747	0.16543303
28	0xbe8fc95c	-0.28083313
29	0xbe450c7e	-0.19243047
30	0xbdf40045	-0.11914114
31	0x3dbe0312	0.09277929
32	0xbda3c3a7	-0.07996302
33	0xbe968dba	-0.29405004
34	0xbe6701d4	-0.22559291
35	0x3e4e8dc2	0.20171264
36	0x3e692b0a	0.22770324
37	0xbe88458f	-0.2661557
38	0xbe701ba0	-0.23448038
39	0xbe297c35	-0.16551287
40	0xbcfb1be1	-0.030652942
41	0x3d7b2789	0.061317
42	0xbd238475	-0.039921243
43	0xbdd7c8c3	-0.10536339
44	0xbdb29f2e	-0.08721767
45	0xbda5e782	-0.08100797
46	0x3dbe8de8	0.0930441
47	0x3e6e1b4a	0.23252597
48	0x3df32eaa	0.11874135
49	0xbd63a1dc	-0.055574283
50	0x3dc16c8e	0.09444533
51	0x3cfb226e	0.030656066
52	0xbe0c97a6	-0.13729724
53	0xbe54334c	-0.20722693
54	0x3d634f58	0.05549559
55	0xbe702b94	-0.23454124
56	0x3e798d32	0.24370268
57	0x3dd37861	0.10325695
58	0x3d364160	0.04449594
59	0xbdebdafa	-0.11516376
60	0x3e68a146	0.22717771
61	0x3e28669f	0.16445397
62	0x3d8f0aa2	0.0698445
63	0xbe223890	-0.1584189
64	0x3d427684	0.047476307
65	0xbe26bf02	-0.16283801
66	0x3e765838	0.2405709
67	0xbea162cd	-0.31520692
68	0xbdae1742	-0.0850053
69	0xbdeb844a	-0.114998415
70	0xbe67c180	-0.22632408
71	0x3e83bcfc	0.2573012
72	0x3ae2aaa7	0.001729329
73	0x3ea11f29	0.31469086
74	0xbe640d68	-0.22270739
75	0x3e54349f	0.20723198
76	0xbe722ec5	-0.23650654
77	0x3d66332c	0.056201145
78	0xbe53171a	-0.20614281
79	0xbe17a755	-0.14809926
80	0x3daa39b9	0.08311791
81	0x3db3b7e9	0.087753125
82	0x3e76ce20	0.24102068
83	0x3e0b9e74	0.13634664
84	0xbe04268c	-0.1290533
85	0x3ec8b4e4	0.3920051
86	0x3e2b63f2	0.16737345
87	0xbdcbcf43	-0.099516414
88	0xbe37ef4c	-0.17962378
89	0x3ea83274	0.32850993
90	0xbdb97cbf	-0.090569966
91	0x3dd1e46a	0.10248645
92	0x3dcc7253	0.09982743
93	0xbe45e5c0	-0.19325924
94	0xbd7bba15	-0.06145676
95	0x3e2888f7	0.16458498
96	0xbe0a6363	-0.13514476
97	0xbe217b39	-0.15769662
98	0x3dd3d7ad	0.10343871
99	0x3db644ba	0.08899827
100	0xbe309200	-0.17243195
101	0x3e744364	0.23853832
102	0xbcfdc301	-0.030976774
103	0x3da85f4c	0.082213014
104	0xbe1cc878	-0.15310848
105	0x3db019bb	0.08598658
106	0x3df57122	0.11984469
107	0x3e1abc8d	0.15110989
108	0xbc77a445	-0.0151148485
109	0xbb914de3	-0.0044343336
110	0x3e4683be	0.19386193
111	0x3e898079	0.2685583
112	0xbdff7afc	-0.12474629
113	0xbe80826e	-0.2509951
114	0x3d1b149c	0.03786145
115	0xbdd9afbe	-0.10629223
116	0xbeabc3b4	-0.33547747
117	0xbe87a573	-0.26493415
118	0xbe88ab93	-0.266934
119	0xbeaa5c0f	-0.3327336
120	0xbe955394	-0.29165328
121	0x3e0564ec	0.1302678
122	0x3d9b1d79	0.07573981
123	0xbdb76852	-0.089554444
124	0x3ed52f57	0.4163768
125	0xbdad379a	-0.08457871
126	0x3e318080	0.17334175
127	0xbe683422	-0.22676137

rnn.weight_hh_l0 f4 [128, 128]
0	0xbd92c731	-0.07166899
1	0xbc8cf947	-0.017208708
2	0xbd4b7aa8	-0.04967752
3	0xbe9ae73c	-0.30254543
4	0xbe2958fc	-0.16537851
5	0xbda99bce	-0.082816705
6	0x3cd40131	0.025879474
7	0xbdd82583	-0.1055403
8	0xbe1e6817	-0.15469395
9	0xbd95a301	-0.07306481
10	0x3e08efdf	0.13372754
11	0x3be09648	0.0068538524
12	0x3c656e71	0.014003382
13	0xbe5b7098	-0.2142967
14	0xbe02ee34	-0.1278618
15	0x3de78684	0.11304954
16	0x3a36be89	0.0006971141
17	0xbd874a2e	-0.066059455
18	0xbd28404a	-0.041076936
19	0xbe44abfe	-0.19206235
20	0xbd9f379d	-0.07774279
21	0xbd72afde	-0.05924975
22	0xbc9b5fb5	-0.018966535
23	0x3c047423	0.00808433
24	0xbdad1991	-0.08452142
25	0xbdb5b8b1	-0.08873118
26	0xbe0b0264	-0.1357513
27	0x3e13bca0	0.14427423
28	0xbe0e3d17	-0.13890491
29	0x3dc4d597	0.096110515
30	0xbd37e78f	-0.044898566
31	0xbe0ca5b5	-0.13735087
32	0x3e4ebca7	0.20189153
33	0xbd3b4bef	-0.045726713
34	0x3da2af3b	0.07943579
35	0xbcd3f98e	-0.025875833
36	0x3d6420ad	0.055695225
37	0xbb69b19e	-0.0035658847
38	0xbe030bec	-0.12797517
39	0xbe5255e8	-0.20540583
40	0xbc306fa6	-0.010768807
41	0xbe1fbfb8	-0.15600479
42	0x3e093c91	0.1340201
43	0x3cf37959	0.029720949
44	0xbe46a634	-0.19399339
45	0x3dfd66fa	0.12373157
46	0xbe01a9c3	-0.12662415
47	0xbd972284	-0.0737963
48	0x3c1b0348	0.0094612315
49	0xbde3c480	-0.11121464
50	0x3dd34228	0.10315353
51	0xbcc07493	-0.023493087
52	0x3d04eced	0.032452513
53	0xbd438b9f	-0.047740575
54	0x3e69b8bd	0.22824378
55	0x3dd3eaf3	0.103475474
56	0xbd4d4031	-0.050110046
57	0x3dacba7e	0.08434008
58	0xbd6df795	-0.05809744
59	0xbd840505	-0.0644627
60	0xbe01e779	-0.12685956
61	0x3d88ae93	0.066739224
62	0xbd7219dc	-0.059106693
63	0xbe086dd8	-0.13323152
64	0xbcaeff23	-0.021361893
65	0x3dc59965	0.09648398
66	0xbd4a48b4	-0.04938574
67	0x3d6efcdf	0.058346625
68	0xbe5168d3	-0.20450144
69	0x3e125656	0.14290747
70	0xbca87a73	-0.0205662
71	0xbe149adf	-0.14512204
72	0xbe3fb594	-0.1872161
73	0xbe0ec352	-0.13941696
74	0x3dff1a7a	0.12456222
75	0x3e4147ef	0.18875097
76	0x3cd492fa	0.02594899
77	0xbd213893	-0.039360594
78	0xbd826c32	-0.06368293
79	0x3e035cdc	0.12828392
80	0xbdc3b8aa	-0.09556706
81	0xbc0986f0	-0.008393988
82	0xbbf36bd1	-0.007428624
83	0x3cb3e7b9	0.02196108
84	0x3e1d5e9c	0.15368122
85	0x3b3e1d53	0.0029009178
86	0x3d954c35	0.07289926
87	0xbd5fdcd8	-0.054653972
88	0xbdc1d534	-0.094644934
89	0xbbb78614	-0.0056007
90	0x3e62fda6	0.22167072
91	0xbd2cd0a3	-0.04219116
92	0x3e8c72a3	0.2743121
93	0x389c8907	7.464183e-05
94	0xbda4a918	-0.080400646
95	0x3d077c50	0.033077538
96	0xbd622c97	-0.055218305
97	0xbe3c4cfe	-0.18388745
98	0x3debfba9	0.1152261
99	0xbd073aac	-0.03301494
100	0xbc48ff99	-0.0122679705
101	0x3dac382c	0.084091514
102	0xbd9a9d2e	-0.07549511
103	0x3e5883c3	0.21144013
104	0x3e1ca5ef	0.15297674
105	0x3e0467c1	0.12930204
106	0xbdc888ae	-0.097916946
107	0x3b7b1129	0.0038309789
108	0x3d7ee4f5	0.06223007
109	0x3e770a77	0.24125086
110	0xbe406465	-0.18788297
111	0x3e3c0781	0.18362238
112	0x3d60ae76	0.05485388
113	0xbd93282d	-0.07185397
114	0x3a960ab9	0.0011447287
115	0x3e15f7b2	0.1464527
116	0xbdbff3ae	-0.0937265
117	0xbd5c0206	-0.053712867
118	0x3d2bd213	0.04194839
119	0x3dc92e03	0.09823229
120	0x3d8437b5	0.06455938
121	0xbd935d54	-0.07195535
122	0xbc26c7ce	-0.010179473
123	0xbe761fb1	-0.24035527
124	0x3d9530d0	0.07284701
125	0x3dd7d89e	0.10539363
126	0xbe4844fa	-0.19557562
127	0x3d278f8b	0.040908378
128	0xbe1cf820	-0.15329027
129	0xbd2278c9	-0.03966597
130	0xbda347f5	-0.07972709
131	0x3d9922d2	0.074773446
132	0x3d6fa064	0.05850257
133	0xbe024f13	-0.12725477
134	0x3e3f5358	0.18684137
135	0xbe3d9401	-0.1851349
136	0xbd216786	-0.03940537
137	0xbdd3ea51	-0.10347427
138	0xbdd2e560	-0.10297656
139	0x3e3cc129	0.1843306
140	0x3c35e240	0.0111013055
141	0x3b38c20b	0.002819183
142	0x3e44c683	0.19216351
143	0xbe152248	-0.14563859
144	0xbc676af4	-0.014124621
145	0x3d28eec1	0.04124332
146	0x3dd98c13	0.1062242
147	0x3db6afb5	0.08920232
148	0xbdcef14f	-0.1010462
149	0xbd82cb63	-0.06386449
150	0xbe31a7f9	-0.17349233
151	0xbd615833	-0.055015754
152	0xbd416e65	-0.04722442
153	0xbd889182	-0.066683784
154	0xbd637644	-0.05553271
155	0xbe28ae74	-0.16472799
156	0x3e06ac52	0.13151672
157	0xbd8497dc	-0.064742774
158	0x3d90466f	0.07044684
159	0xbc649a3e	-0.01395279
160	0xbdfa1066	-0.12210159
161	0xbd7d72e5	-0.06187715
162	0xbdfdaf29	-0.12386925
163	0x3e6591e4	0.22418934
164	0xbcc08035	-0.023498634
165	0x3b8267b7	0.003979649
166	0x3e37960c	0.17928332
167	0xbe7a5892	-0.2444785
168	0xbe5571cc	-0.20844191
169	0x3dfd4597	0.12366789
170	0xbe4e075f	-0.2012
171	0xbde6baa7	-0.1126607
172	0xbced528d	-0.028970027
173	0x3e15a8da	0.14615193
174	0x3de3418f	0.11096489
175	0x3e2857a9	0.1643969
176	0xbd2b4bb7	-0.041820254
177	0xbbb906d6	-0.005646567
178	0x3dc64821	0.09681726
179	0x3c8b9b10	0.017041713
180	0xbca78e2d	-0.020453537
181	0xbcc57af5	-0.024106482
182	0x3e1735f2	0.14766672
183	0x3df3cdc1	0.11904479
184	0x3e3fecb9	0.18742646
185	0x3c0e6e7c	0.008693334
186	0xbd33fce6	-0.043942355
187	0xbe51e562	-0.20497659
188	0x3dc64d58	0.09682721
189	0x3d84636c	0.06464276
190	0xbe23f8d7	-0.16012894
191	0xbd7a1ac6	-0.06106069
192	0xbcbdd684	-0.023173578
193	0xbd99586c	-0.07487568
194	0xbd6afeb2	-0.057371803
195	0xbde24a76	-0.110493585
196	0xbdd7c9d2	-0.10536541
197	0xbdce7507	-0.10080915
198	0x3e3ab6ac	0.18233746
199	0xbbbe4e52	-0.0058076764
200	0x3dfd79ec	0.123767704
201	0x3d84b462	0.06479718
202	0xbe752ed2	-0.23943642
203	0xbd1acf7b	-0.037795525
204	0xbdecd4ff	-0.11564063
205	0xbd6032bd	-0.054735888
206	0xbcbf4d42	-0.02335227
207	0xbd3b9372	-0.04579491
208	0xbd185561	-0.0371908
209	0x3d2dc04a	0.04241971
210	0x3b1f1cd9	0.002427867
211	0xbe4c8cc2	-0.1997557
212	0xbd62a997	-0.055337515
213	0xbd3a1632	-0.045431323
214	0xbd89d425	-0.067299165
215	0x3dc0016a	0.0937527
216	0xbd052a0e	-0.03251081
217	0xbe0530bd	-0.13006873
218	0xbd9a75ac	-0.075419754
219	0x3e2d66fc	0.16933817
220	0x3e1c18e6	0.15243873
221	0xbe4984ce	-0.19679567
222	0xbd1dbec4	-0.038512006
223	0x3e5431e6	0.2072216
224	0x3e0d3373	0.13789158
225	0xba9db1fe	-0.0012031195
226	0x3cd379b4	0.025814869
227	0x3e50ee9c	0.20403522
228	0xbdf722fd	-0.1206722
229	0xbd1c1ef3	-0.038115453
230	0xba41aa4e	-0.0007387743
231	0x3d9eee2e	0.07760273
232	0xbdf4d6cd	-0.119550325
233	0x3e55a0ec	0.20862168
234	0xbd9dca1a	-0.077045634
235	0x3e3f2fa1	0.18670513
236	0xbe4c58de	-0.19955775
237	0xbd9cbf49	-0.07653672
238	0xbbd01292	-0.00634987
239	0x3dd7cba8	0.10536891
240	0xbd7b344e	-0.06132918
241	0xbe442b2e	-0.19157097
242	0x3d82f1df	0.063937895
243	0xbd463d64	-0.04839839
244	0xbdd48974	-0.103777796
245	0x3e258b9c	0.16166538
246	0x3de160f0	0.110048175
247	0x3d8ca5d4	0.06867567
248	0x3de9b523	0.11411502
249	0x3d4537c4	0.048148885
250	0xbcd2aae1	-0.025716247
251	0x3e411285	0.18854721
252	0x3d2ce96b	0.042214792
253	0xbbfabc97	-0.007651876
254	0xbdc13c7b	-0.09435364
255	0xbd95d8ab	-0.07316717

rnn.bias_ih_l0 f4 [128]
0	0xbd2bd901	-0.041954998
1	0x3dbdc2b8	0.09265655
2	0x3bd2a0be	0.0064278534
3	0x3e269313	0.16267042
4	0x3e1985f1	0.14992501
5	0x3c84fd74	0.016234137
6	0x3daf5d09	0.08562667
7	0xbd82f67e	-0.06394671
8	0x3d982c1e	0.0743029
9	0x3e3dae24	0.1852346
10	0x3d652381	0.055942062
11	0x3dcbdaca	0.0995384
12	0xbdbb0d12	-0.09133352
13	0x3e29029a	0.16504899
14	0x3e0b5ef7	0.13610445
15	0xbd57ab9c	-0.052653894
16	0xbe2bf041	-0.16790868
17	0x3db7edab	0.089808784
18	0x3d6ce784	0.057837978
19	0x3dbe237f	0.09284114
20	0xbd059c9c	-0.032620057
21	0xbd9f6c80	-0.077843666
22	0xbde9fa72	-0.11424722
23	0x3dcaea59	0.099079795
24	0x3c76cc83	0.015063408
25	0x3cf85f47	0.03031887
26	0xbd91049d	-0.07080958
27	0xbe352d71	-0.17693116
28	0x3c828702	0.015933517
29	0x3e30972c	0.17245167
30	0x3e2bdc1b	0.16783182
31	0x3d9072df	0.0705316
32	0xbda0ff00	-0.078611374
33	0x3e08cf9a	0.13360444
34	0xbd43a5f3	-0.047765683
35	0x3d6f8000	0.05847168
36	0x3d692155	0.056916554
37	0xbd689cd5	-0.05679019
38	0x3dd1d5cc	0.10245857
39	0x3e15a4b9	0.14613618
40	0xbe004b59	-0.12528743
41	0x3dec6d3b	0.115442716
42	0xbe1bdf22	-0.15221837
43	0x3dee8870	0.11647117
44	0x3e2c3aff	0.1681938
45	0x3e486723	0.19570594
46	0x3e13e66a	0.14443365
47	0x3e061939	0.13095559
48	0x3dfb6881	0.12275792
49	0xbdbb1e54	-0.09136644
50	0xbd65fddd	-0.056150306
51	0x3dbc3d87	0.09191423
52	0xbd677e00	-0.056516647
53	0x3e011660	0.12606192
54	0xbe44ff61	-0.19238044
55	0x3d9aae1c	0.0755274
56	0x3d297dbe	0.041379683
57	0xbe4c01fe	-0.19922635
58	0x3dbdd5ff	0.09269332
59	0xbd86f5a0	-0.06589818
60	0xbe49a4b1	-0.19691731
61	0x3d993c5e	0.07482217
62	0xbe079133	-0.13238983
63	0x3d32e2f9	0.04367349
64	0x3d4dac9a	0.050213434
65	0xbd8bc924	-0.06825474
66	0x3c8445fb	0.01614665
67	0x3c8ab714	0.016933002
68	0xbd9a6d53	-0.07540383
69	0xbd614f73	-0.05500741
70	0x3d29fdf2	0.041501947
71	0xbe0cfbb6	-0.13767895
72	0x3dff1781	0.12455655
73	0x3db328a2	0.087479845
74	0xbd99e7c2	-0.075149074
75	0xbc44bebf	-0.012008368
76	0xbd0165d6	-0.03159126
77	0x3cb49cad	0.022047365
78	0x3e163556	0.14668784
79	0xbd2387dd	-0.03992449
80	0x3d9362dc	0.0719659
81	0xbe4f195e	-0.2022452
82	0xbe107e29	-0.14110626
83	0xbdb2e5e8	-0.087352574
84	0x3d1160fa	0.035492875
85	0x3d2baa63	0.04191054
86	0xbbe25dec	-0.006908169
87	0x3e7edd63	0.2488914
88	0xbd771847	-0.060325887
89	0xbda0f76f	-0.07859694
90	0xbda7a4e8	-0.0818575
91	0x3d946df9	0.07247538
92	0xbd62a03a	-0.055328585
93	0xbd75fa7f	-0.060053345
94	0x3e3bba41	0.18332769
95	0x3dc37426	0.09543638
96	0xbd7b9464	-0.061420813
97	0x3e1e591d	0.15463682
98	0xbe4a5591	-0.19759203
99	0x3d4801d4	0.04882987
100	0x3e09cabe	0.13456246
101	0xbc6e3f7f	-0.014541506
102	0x3cd88a0e	0.026433017
103	0xbe17b5d6	-0.14815459
104	0xbd95c76e	-0.07313429
105	0x3df51d33	0.1196846
106	0x3c89446b	0.016756257
107	0x3dabb924	0.08384922
108	0xbe3662f8	-0.17811191
109	0x3e35eab4	0.17765313
110	0x3d88a30c	0.06671724
111	0xbe04be33	-0.1296318
112	0xbd8a7663	-0.06760862
113	0xbd538674	-0.051641896
114	0x3e048e8b	0.12945001
115	0xbda4cbbb	-0.08046671
116	0xbb7aa04f	-0.0038242524
117	0x3dee321e	0.11630653
118	0xbc0c4c39	-0.008563095
119	0x3d00d67c	0.03145455
120	0x3d9bd85f	0.07609629
121	0x3db34c78	0.0875482
122	0xbe3cd246	-0.18439588
123	0x3db7eaf9	0.08980364
124	0xbd9c8f60	-0.07644534
125	0xbd8bc3f7	-0.06824487
126	0xbdf64e41	-0.120266445
127	0xbd772d0e	-0.060345702

rnn.bias_hh_l0 f4 [128]
0	0xbd2bd901	-0.041954998
1	0x3dbdc2b8	0.09265655
2	0x3bd2a0be	0.0064278534
3	0x3e269313	0.16267042
4	0x3e1985f1	0.14992501
5	0x3c84fd74	0.016234137
6	0x3daf5d09	0.08562667
7	0xbd82f67e	-0.06394671
8	0x3d982c1e	0.0743029
9	0x3e3dae24	0.1852346
10	0x3d652381	0.055942062
11	0x3dcbdaca	0.0995384
12	0xbdbb0d12	-0.09133352
13	0x3e29029a	0.16504899
14	0x3e0b5ef7	0.13610445
15	0xbd57ab9c	-0.052653894
16	0xbe2bf041	-0.16790868
17	0x3db7edab	0.089808784
18	0x3d6ce784	0.057837978
19	0x3dbe237f	0.09284114
20	0xbd059c9c	-0.032620057
21	0xbd9f6c80	-0.077843666
22	0xbde9fa72	-0.11424722
23	0x3dcaea59	0.099079795
24	0x3c76cc83	0.015063408
25	0x3cf85f47	0.03031887
26	0xbd91049d	-0.07080958
27	0xbe352d71	-0.17693116
28	0x3c828702	0.015933517
29	0x3e30972c	0.17245167
30	0x3e2bdc1b	0.16783182
31	0x3d9072df	0.0705316
32	0xbda0ff00	-0.078611374
33	0x3e08cf9a	0.13360444
34	0xbd43a5f3	-0.047765683
35	0x3d6f8000	0.05847168
36	0x3d692155	0.056916554
37	0xbd689cd5	-0.05679019
38	0x3dd1d5cc	0.10245857
39	0x3e15a4b9	0.14613618
40	0xbe004b59	-0.12528743
41	0x3dec6d3b	0.115442716
42	0xbe1bdf22	-0.15221837
43	0x3dee8870	0.11647117
44	0x3e2c3aff	0.1681938
45	0x3e486723	0.19570594
46	0x3e13e66a	0.14443365
47	0x3e061939	0.13095559
48	0x3dfb6881	0.12275792
49	0xbdbb1e54	-0.09136644
50	0xbd65fddd	-0.056150306
51	0x3dbc3d87	0.09191423
52	0xbd677e00	-0.056516647
53	0x3e011660	0.12606192
54	0xbe44ff61	-0.19238044
55	0x3d9aae1c	0.0755274
56	0x3d297dbe	0.041379683
57	0xbe4c01fe	-0.19922635
58	0x3dbdd5ff	0.09269332
59	0xbd86f5a0	-0.06589818
60	0xbe49a4b1	-0.19691731
61	0x3d993c5e	0.07482217
62	0xbe079133	-0.13238983
63	0x3d32e2f9	0.04367349
64	0x3d4dac9a	0.050213434
65	0xbd8bc924	-0.06825474
66	0x3c8445fb	0.01614665
67	0x3c8ab714	0.016933002
68	0xbd9a6d53	-0.07540383
69	0xbd614f73	-0.05500741
70	0x3d29fdf2	0.041501947
71	0xbe0cfbb6	-0.13767895
72	0x3dff1781	0.12455655
73	0x3db328a2	0.087479845
74	0xbd99e7c2	-0.075149074
75	0xbc44bebf	-0.012008368
76	0xbd0165d6	-0.03159126
77	0x3cb49cad	0.022047365
78	0x3e163556	0.14668784
79	0xbd2387dd	-0.03992449
80	0x3d9362dc	0.0719659
81	0xbe4f195e	-0.2022452
82	0xbe107e29	-0.14110626
83	0xbdb2e5e8	-0.087352574
84	0x3d1160fa	0.035492875
85	0x3d2baa63	0.04191054
86	0xbbe25dec	-0.006908169
87	0x3e7edd63	0.2488914
88	0xbd771847	-0.060325887
89	0xbda0f76f	-0.07859694
90	0xbda7a4e8	-0.0818575
91	0x3d946df9	0.07247538
92	0xbd62a03a	-0.055328585
93	0xbd75fa7f	-0.060053345
94	0x3e3bba41	0.18332769
95	0x3dc37426	0.09543638
96	0xbd7b9464	-0.061420813
97	0x3e1e591d	0.15463682
98	0xbe4a5591	-0.19759203
99	0x3d4801d4	0.04882987
100	0x3e09cabe	0.13456246
101	0xbc6e3f7f	-0.014541506
102	0x3cd88a0e	0.026433017
103	0xbe17b5d6	-0.14815459
104	0xbd95c76e	-0.07313429
105	0x3df51d33	0.1196846
106	0x3c89446b	0.016756257
107	0x3dabb924	0.08384922
108	0xbe3662f8	-0.17811191
109	0x3e35eab4	0.17765313
110	0x3d88a30c	0.06671724
111	0xbe04be33	-0.1296318
112	0xbd8a7663	-0.06760862
113	0xbd538674	-0.051641896
114	0x3e048e8b	0.12945001
115	0xbda4cbbb	-0.08046671
116	0xbb7aa04f	-0.0038242524
117	0x3dee321e	0.11630653
118	0xbc0c4c39	-0.008563095
119	0x3d00d67c	0.03145455
120	0x3d9bd85f	0.07609629
121	0x3db34c78	0.0875482
122	0xbe3cd246	-0.18439588
123	0x3db7eaf9	0.08980364
124	0xbd9c8f60	-0.07644534
125	0xbd8bc3f7	-0.06824487
126	0xbdf64e41	-0.120266445
127	0xbd772d0e	-0.060345702

rnn.weight_ih_l1 f4 [128, 128]
0	0x3ed3f99b	0.4140137
1	0x3df7352f	0.12070691
2	0xbcbdd9d9	-0.023175167
3	0xbe865493	-0.262364
4	0xbea1d1cc	-0.31605375
5	0x3d7c0734	0.061530307
6	0x3da037f9	0.07823176
7	0xbdb9fad9	-0.090810485
8	0xbe0bbcc1	-0.13646223
9	0xbdb76371	-0.08954514
10	0xbd16b591	-0.03679425
11	0xbdc7e526	-0.097605035
12	0x3dd3d1b6	0.103427336
13	0xbeb9d194	-0.36292708
14	0xbecd665c	-0.40117157
15	0xbd09de28	-0.03365913
16	0x3d5cde6e	0.053923063
17	0x3c6453b9	0.013935977
18	0x3ce74500	0.028231144
19	0xbddf8cec	-0.109155506
20	0xbd29406f	-0.041321214
21	0x3ccd288c	0.025043748
22	0xbdd2ebe7	-0.10298901
23	0xbe0ac329	-0.1355101
24	0x3e6868c0	0.22696209
25	0xbd75fd77	-0.060056176
26	0x3d3b976f	0.045798715
27	0x3e53553e	0.20637986
28	0xbdb60080	-0.08886814
29	0xbe52f590	-0.20601487
30	0xbe1f88ab	-0.15579478
31	0xbdb0565c	-0.08610222
32	0xbdc12fef	-0.09432971
33	0xbdd4abcd	-0.10384331
34	0x3cd0cb93	0.025487697
35	0xbd4bf7e1	-0.049796943
36	0x3da6e86c	0.081498
37	0xbd680d82	-0.056653507
38	0xbd3dbbd3	-0.0463217
39	0xbe4cbc9d	-0.19993825
40	0x3c5ec31e	0.013596324
41	0x3c7c4c01	0.01539898
42	0xbe0cf6fb	-0.1376609
43	0xbe5a4372	-0.21314791
44	0xbee083dc	-0.438506
45	0x3d0e6824	0.034767285
46	0xbc8189fa	-0.015812863
47	0x3d8c7a20	0.06859231
48	0xbdfe786c	-0.124253124
49	0xbd97ed10	-0.07418263
50	0xbded866e	-0.11597906
51	0x3c805d01	0.015669348
52	0xbd0efb1d	-0.03490745
53	0xbed02968	-0.4065659
54	0x3eed6803	0.46368417
55	0x3d50bcfd	0.050961483
56	0x3de1d7b8	0.11027473
57	0x3db4b6c0	0.08823919
58	0x3dc2320f	0.09482204
59	0x3e0260e7	0.12732278
60	0x3e1b4a34	0.15165025
61	0x3e242b07	0.16032039
62	0x3ed9f134	0.42566836
63	0xbe22c816	-0.15896639
64	0x3e29526f	0.16535352
65	0xbd98e119	-0.07464809
66	0x3a2184a6	0.0006161429
67	0xbd2b9c61	-0.04189718
68	0xbd5c9360	-0.053851485
69	0xbd43260d	-0.04764371
70	0x3c81f519	0.015863942
71	0x3e005e52	0.1253598
72	0xbe14ba9c	-0.14524311
73	0x3d76b64e	0.060232453
74	0xbd6d9076	-0.057999097
75	0x3e39c32e	0.18140861
76	0xbe118c03	-0.14213566
77	0x3e17e008	0.14831555
78	0xbe888dc5	-0.26670662
79	0xbd38981f	-0.04506695
80	0xbe8131a6	-0.2523319
81	0xbe2c00c9	-0.16797175
82	0xbcbdb243	-0.02315629
83	0x3d73d1db	0.059526306
84	0xbd08ae62	-0.03336943
85	0x3ddfcbc0	0.10927534
86	0x3b1f7dce	0.002433646
87	0xbc4ad39f	-0.012379556
88	0x3d4afb4c	0.04955606
89	0x3e965b9c	0.29366767
90	0xbdad102c	-0.0845035
91	0xbcbf6fd1	-0.023368748
92	0x3e924320	0.28566837
93	0x3c0422db	0.008064951
94	0xbf01ddd7	-0.50729126
95	0xbe0b6e63	-0.13616328
96	0xbe1c3aa8	-0.1525675
97	0xbe887346	-0.26650447
98	0xbd858b85	-0.06520752
99	0xbdf334a7	-0.11875277
100	0xbebda7be	-0.3704204
101	0x3e4360c1	0.19079877
102	0xbee0e16f	-0.43921992
103	0xb8a5849c	-7.8925135e-05
104	0xbe0bb575	-0.13643439
105	0x3d5ede77	0.054411378
106	0xbcd9b96e	-0.026577678
107	0x3caba831	0.020954223
108	0x3d7131f3	0.058885526
109	0x3e71d6bc	0.23617071
110	0x3de3f525	0.11130742
111	0x3e9ae1bb	0.30250344
112	0xbe23643e	-0.15956208
113	0xbe18bf70	-0.14916778
114	0xbe190878	-0.14944637
115	0xbe0600b2	-0.13086203
116	0xbda72ba8	-0.08162624
117	0xbe255816	-0.16146883
118	0xbe3be78a	-0.18350044
119	0xbe4b2e30	-0.19841838
120	0xbe61a7ff	-0.22036742
121	0x3deebc90	0.11657059
122	0x3ec6df6f	0.3884234
123	0xbf04e5c1	-0.51913077
124	0x3da221cd	0.07916603
125	0xbca8f9f3	-0.020626998
126	0x3e02b88e	0.12765715
127	0xbdd6f2ef	-0.10495555
128	0x3d408825	0.047004838
129	0xbdee4129	-0.11633522
130	0xbe3c75d0	-0.18404317
131	0xbf17de7e	-0.5932387
132	0xbeed7f3c	-0.46386135
133	0x3e3ebf7c	0.18627733
134	0xbe07de86	-0.1326848
135	0x3d8128f4	0.06306639
136	0x3d7d2ae3	0.061808478
137	0xbe7d4460	-0.24733114
138	0xbe589149	-0.21149172
139	0x3da22b81	0.07918454
140	0x3e0e1f41	0.1387911
141	0xbd8d2a53	-0.06892838
142	0xbec1c982	-0.3784905
143	0x3d36171c	0.044455633
144	0x3e47d2d0	0.19514012
145	0xbdf3c2e5	-0.119024076
146	0x3d604607	0.054754283
147	0xbe822f21	-0.25426582
148	0xbe3f6999	-0.18692626
149	0x3debbf71	0.11511124
150	0xbdd24d25	-0.102686204
151	0x3d415ffd	0.047210682
152	0x3d52471f	0.051337358
153	0xbd70fb45	-0.05883338
154	0xbc80ab4b	-0.015706679
155	0x3ef5db31	0.48018792
156	0xbdb8bfb5	-0.0902094
157	0xbee870b3	-0.45398483
158	0xbe948b47	-0.2901251
159	0xbe1bd590	-0.15218186
160	0xbd1f1115	-0.03883465
161	0xbe877597	-0.264569
162	0x3dbc1c3a	0.09185071
163	0xbd0764ed	-0.033055235
164	0x3c1d9a85	0.00961936
165	0xbe101d3e	-0.14073655
166	0xbea27b3d	-0.31734648
167	0xbe5c998e	-0.21542951
168	0x3e2fa4d0	0.17152715
169	0x3d8752a8	0.06607562
170	0x3d2ffaf1	0.042963926
171	0xbe83b826	-0.25726432
172	0xbe81ed3e	-0.25376314
173	0xbe817443	-0.25284013
174	0x3d4cbc5c	0.04998432
175	0xbe26c5f0	-0.16286445
176	0xbdc25eb9	-0.09490723
177	0x3d925156	0.0714442
178	0x3e0c32a5	0.13691194
179	0xbcb509a0	-0.022099316
180	0xbd944498	-0.07239646
181	0xbe1eb179	-0.15497388
182	0x3ed3f1e3	0.41395482
183	0xbdee7eff	-0.11645316
184	0x3d5af535	0.053456504
185	0x3e198ffb	0.1499633
186	0xbe1f39d0	-0.15549397
187	0x3e001c8f	0.12510894
188	0x3ea8afc7	0.32946607
189	0x3ce8a30d	0.028398061
190	0x3ecf3895	0.40472856
191	0xbd326f77	-0.043563332
192	0x3befeed2	0.007322171
193	0x3dcc33d4	0.09970823
194	0x3d2dbfac	0.04241912
195	0xbe027b09	-0.12742247
196	0xbda1a00c	-0.07891855
197	0x3e08b64d	0.13350792
198	0xbdf4ac33	-0.11946907
199	0x3e2c754b	0.16841619
200	0x3c60b7fe	0.013715742
201	0xbd6f8e46	-0.058485292
202	0xbc3f9b0c	-0.011694681
203	0xbd346bf6	-0.044048272
204	0x3b624d1d	0.0034530826
205	0x3d80ed5f	0.06295275
206	0xbee889ba	-0.45417577
207	0x3d1dd851	0.038536374
208	0x3e08ed7f	0.13371848
209	0xbe81dec2	-0.25365263
210	0x3e746013	0.23864774
211	0x3d0d2cae	0.034466438
212	0xbe697caa	-0.22801462
213	0x3d296582	0.04135657
214	0xbdd5a4e4	-0.10431841
215	0xbdd3755c	-0.10325119
216	0x3c93899e	0.018009957
217	0x3e73613e	0.23767564
218	0xbd24f98b	-0.040277045
219	0x3e237f6c	0.15966576
220	0x3ef5948e	0.479649
221	0xbd312fd0	-0.04325849
222	0xbee04d1d	-0.43808833
223	0x3ccfa988	0.025349393
224	0x3cd13dec	0.025542222
225	0xbdff4cff	-0.12465858
226	0x3de9bea2	0.114133134
227	0xbdc99570	-0.09842956
228	0xbebe98dd	-0.37226
229	0xbc4e3eae	-0.012588186
230	0xbee41804	-0.44549572
231	0x3e15c662	0.14626458
232	0x3dd0728c	0.10178098
233	0xbcd21a4a	-0.025647301
234	0x3ce53836	0.027980905
235	0xbda0abb4	-0.0784525
236	0x3e88c3ec	0.26711977
237	0x3ca5a94c	0.020222329
238	0x3e063883	0.13107495
239	0x3e9cc0f8	0.30615973
240	0x3cd6437e	0.02615523
241	0xbd6c9548	-0.057759553
242	0xbe4291df	-0.19000958
243	0xbdd4c04e	-0.10388242
244	0xbe08025e	-0.13282153
245	0xbdd33e26	-0.10314588
246	0xbe391acd	-0.1807663
247	0xbdac5985	-0.08415512
248	0xbe324a2c	-0.17411107
249	0xbd3ddc94	-0.046352938
250	0x3e92264c	0.28544843
251	0xbf1a102b	-0.6018092
252	0x3d5edf82	0.054412372
253	0xbc9e0eba	-0.019294132
254	0x3d0a0a42	0.03370119
255	0xbde8bd9e	-0.113642916

rnn.weight_hh_l1 f4 [128, 128]
0	0xbe7bdca7	-0.24595891
1	0xbe7812e9	-0.24225964
2	0x3d3905e8	0.04517165
3	0x3c6c02f0	0.014404997
4	0x3d400319	0.046877954
5	0xbca87264	-0.020562358
6	0x39876664	0.00025825494
7	0xbd903604	-0.07041553
8	0x3e4ac689	0.19802298
9	0x3e0b318a	0.13593116
10	0x3d8d1f72	0.06890763
11	0x3e2bc8ce	0.1677582
12	0xbe9b8b3b	-0.30379662
13	0x3db3d5f6	0.08781044
14	0x3e070f35	0.13189395
15	0x3c8325c7	0.016009225
16	0x3d9e346f	0.07724845
17	0xbebe3999	-0.3715332
18	0xbd4b765e	-0.04967343
19	0x3b653cfe	0.003497898
20	0xbea56d38	-0.3230989
21	0x3d899f0c	0.06719789
22	0xbeae402c	-0.34033334
23	0x3e980bbf	0.29696462
24	0xbaf8f032	-0.0018992482
25	0xbe28ee27	-0.16497098
26	0xbd1b17b9	-0.03786442
27	0xbcb451a8	-0.022011593
28	0x3d3e38f9	0.046441052
29	0xbeb56a06	-0.35432452
30	0x3d13452d	0.035954643
31	0x3e65519d	0.22394414
32	0x3db3d77d	0.087813355
33	0xbe9db32f	-0.3080077
34	0x3daa66c5	0.08320383
35	0x3e4de075	0.20105155
36	0xbe0d8688	-0.13820851
37	0xbd03eb98	-0.0322071
38	0x3d0d0722	0.03443063
39	0x3e3f3d00	0.18675613
40	0xbe0214f4	-0.12703305
41	0x3e59ff74	0.21288854
42	0xbcdefaae	-0.027219143
43	0x3eccbd9e	0.39988416
44	0xbea29efd	-0.31761923
45	0x3c34a502	0.011025669
46	0xbd5aebb3	-0.053447437
47	0xbe8c208e	-0.27368587
48	0xbe87a067	-0.26489565
49	0xbce1dc95	-0.027571002
50	0x3dea3653	0.11436143
51	0x3d9220a9	0.07135136
52	0xbddfdb94	-0.10930553
53	0x3d332d9e	0.043744676
54	0xbd84b6ac	-0.064801544
55	0xbec3c470	-0.38235807
56	0x3c46e3c2	0.012139263
57	0xbd60eba1	-0.054912213
58	0xbd55e8d9	-0.052224014
59	0x3e29d1b8	0.16583908
60	0x3e1aef2f	0.15130304
61	0xbeb82e3c	-0.35972774
62	0x3e09bcb4	0.13450891
63	0xba8b9398	-0.0010648845
64	0x3e4e0d5d	0.20122285
65	0x3dec69d6	0.11543624
66	0xbeff4b45	-0.49862114
67	0x3c179c9f	0.00925365
68	0x3d75941e	0.05995571
69	0xbca2c81d	-0.019870812
70	0x3c72bce3	0.014815542
71	0x3dd7278a	0.10505588
72	0x3df5edbb	0.12008234
73	0xbb386437	-0.0028135905
74	0xbe1869c5	-0.14884098
75	0xbd5e5c55	-0.054287273
76	0x3e3a7cbd	0.18211646
77	0xbd41fe27	-0.04736152
78	0x3e600562	0.21877053
79	0xbe2ecaa0	-0.17069483
80	0x3e185f5a	0.14880124
81	0x3ea8a87e	0.3294105
82	0xbdcce042	-0.10003711
83	0xbe871d69	-0.26389626
84	0x3ea580c5	0.32324806
85	0x3c3e50b1	0.011615918
86	0x3e547b80	0.20750237
87	0xbb5c30ee	-0.00335985
88	0x3c94b304	0.018151768
89	0x3d6a5f34	0.0572197
90	0xbc74dc60	-0.01494512
91	0x3e0fbe16	0.14037356
92	0x3e232939	0.15933694
93	0x3dd8ffe3	0.105956815
94	0xbdda9717	-0.10673349
95	0xbe1e8795	-0.15481408
96	0x3d10517e	0.035233967
97	0x3dc032df	0.09384703
98	0xbde59067	-0.11209183
99	0x3e7b2521	0.24525882
100	0xbd591d16	-0.053006254
101	0x3d512651	0.051061932
102	0xbe381f78	-0.17980754
103	0xbd911beb	-0.07085403
104	0x3e02c620	0.12770891
105	0xbe964e0d	-0.29356423
106	0x3da90a51	0.08253921
107	0xbe6330fc	-0.22186655
108	0xbd789219	-0.060686205
109	0xbe17ff20	-0.14843416
110	0x3c3eeb7b	0.011652823
111	0xbdad7787	-0.08470064
112	0x3d25c3da	0.04046998
113	0x3dfd9c9b	0.12383386
114	0x3e116dbe	0.1420202
115	0x3d0a2714	0.033728674
116	0x3d930157	0.0717799
117	0xbe0912e3	-0.13386111
118	0x3e1db00a	0.15399185
119	0x3ee7dbfd	0.45285025
120	0x3e06bc92	0.13157871
121	0xbd92262f	-0.07136189
122	0x3de0c769	0.109755345
123	0x3de0237f	0.1094427
124	0xbdb920fa	-0.09039493
125	0x3bec1564	0.0072046984
126	0x3d92983a	0.07157941
127	0x3e19ab52	0.1500676
128	0x3e91006f	0.28320643
129	0xbda31c7a	-0.07964416
130	0x3deda7b7	0.11604255
131	0xbda1247d	-0.07868288
132	0xbd56c31f	-0.052432176
133	0x3cb1c203	0.021698957
134	0xbe37964f	-0.17928432
135	0x3ebb605e	0.3659696
136	0xbd3f010c	-0.046631858
137	0x3e1f3cca	0.15550533
138	0xbdac3a14	-0.08409515
139	0xbdf5c9fc	-0.12001416
140	0x3d0ef94a	0.03490571
141	0xbd13e7ac	-0.03610961
142	0x3bcaff16	0.0061949594
143	0x3dfd6aae	0.12373863
144	0x3e141af5	0.14463408
145	0xbc8ddadd	-0.017316276
146	0x3e3de722	0.18545201
147	0xbd6b718c	-0.057481334
148	0x3dd19860	0.10234141
149	0x3cf19132	0.02948818
150	0x3e7da8e9	0.24771465
151	0x3dd07e59	0.10180349
152	0x3d835e44	0.06414464
153	0xbd650bb7	-0.055919375
154	0x3d939585	0.07206253
155	0xbdf8dc25	-0.12151364
156	0xbce31dd4	-0.027724184
157	0xbe1e6aa9	-0.15470375
158	0x3d2b02f3	0.04175086
159	0xbe698fe1	-0.22808792
160	0xbcd71a54	-0.026257671
161	0x3d4d7cbb	0.05016778
162	0xbda0395b	-0.0782344
163	0xbe8ee64d	-0.2791008
164	0xbe1e185e	-0.15438983
165	0x3e1e90e4	0.15484959
166	0xbdba2b13	-0.09090247
167	0x3dd34123	0.10315158
168	0xbe6d43c7	-0.23170386
169	0x3e9de89e	0.30841535
170	0xbd7475bd	-0.059682596
171	0xbe809dba	-0.25120336
172	0x3e2a1a0d	0.166115
173	0xbdb013e8	-0.08597547
174	0xbd7ab910	-0.061211646
175	0xbe3998e6	-0.18124732
176	0xbe103680	-0.1408329
177	0xbe14ffb6	-0.14550671
178	0x3c23be39	0.009994083
179	0x3da7c4d5	0.081918396
180	0xbe16d89b	-0.14731066
181	0x3d91ec61	0.07125164
182	0xbdcf8e18	-0.10134524
183	0xbe266672	-0.16250017
184	0xbcdd2583	-0.026995426
185	0xbe0be584	-0.13661772
186	0xbe256da1	-0.16155101
187	0x3e0815f7	0.13289629
188	0xbba19077	-0.0049305516
189	0xbd1989f6	-0.037485085
190	0x3e4745fe	0.19460294
191	0xbd7e0404	-0.06201555
192	0xbd6a90f2	-0.057267137
193	0xbe03206a	-0.12805334
194	0xbda2e8f6	-0.0795459
195	0x3d786183	0.06063987
196	0x3de403dd	0.11133549
197	0x3d40c982	0.047067173
198	0xbdb1532f	-0.08658444
199	0xbc4d79e5	-0.012541269
200	0xbe31e1c8	-0.17371285
201	0xbe14445b	-0.144792
202	0xbd447970	-0.047967374
203	0x3df7a23d	0.12091491
204	0x3e81b35c	0.25332153
205	0xbdcf0a71	-0.101094134
206	0xbe817824	-0.25286973
207	0x3d968964	0.07350424
208	0x3d961233	0.0732769
209	0xbdcb9b7a	-0.09941764
210	0x3c566dd2	0.013087707
211	0xbd0612f8	-0.032732934
212	0x3d4bbec1	0.049742464
213	0xbddc85d2	-0.10767712
214	0xbe826c24	-0.2547313
215	0x3d9d024b	0.07666453
216	0xbe0c2293	-0.13685064
217	0xbce7732b	-0.028253159
218	0xbdb7cc5c	-0.08974525
219	0x3da90ec7	0.08254772
220	0xbdeaa0dc	-0.11456463
221	0x3cc65bd7	0.024213715
222	0xbc908774	-0.017642714
223	0xbc973325	-0.018457005
224	0x3e078ab5	0.13236506
225	0xbdbc7b46	-0.092032
226	0x3d929a47	0.07158332
227	0xbd7f1529	-0.06227604
228	0x3e3c9423	0.18415885
229	0xbe3d6535	-0.18495639
230	0xbe251c44	-0.16124064
231	0xbe030b80	-0.12797356
232	0x3e263354	0.16230518
233	0xbde7d148	-0.11319214
234	0x3ce285b2	0.027651642
235	0xbddd1ee5	-0.10796908
236	0xbd098c38	-0.03358099
237	0xbe6186b4	-0.22024041
238	0xbd1d6e91	-0.038435522
239	0x3d7a0595	0.06104048
240	0x3e1015fe	0.1407089
241	0x3e53cec0	0.20684338
242	0x3cb8db79	0.02256559
243	0xbd37483c	-0.044746622
244	0xbd819ee7	-0.06329136
245	0x3df527ec	0.11970505
246	0xbdd37449	-0.10324914
247	0xbdcb183e	-0.09916733
248	0x3cce206e	0.025161948
249	0xbe7c588c	-0.24643153
250	0xbdd7d238	-0.10538143
251	0x3e334b61	0.17509224
252	0x3ca175d0	0.019709498
253	0x3e03fb4a	0.12888828
254	0xbb9447fa	-0.004525182
255	0x3e3d9353	0.18513231

rnn.bias_ih_l1 f4 [128]
0	0x3c950591	0.01819113
1	0xbc69b547	-0.014264411
2	0xbd0bbf58	-0.034118026
3	0xbda576fe	-0.080793366
4	0x3de80e7e	0.11330889
5	0x3d979b99	0.07402725
6	0x3dc43229	0.0957988
7	0xbcf9de43	-0.03050149
8	0xbd173da2	-0.036924012
9	0xbd8824c5	-0.06647638
10	0x3d402a33	0.046915244
11	0x3d8b6537	0.068064146
12	0xbd3bea29	-0.04587761
13	0x3daccd2d	0.08437572
14	0x3daf32c9	0.085546084
15	0xbdd43c51	-0.10363067
16	0xbe06ab26	-0.13151225
17	0xbd048d30	-0.03236121
18	0xbcc6a31b	-0.024247697
19	0x3da5a2d3	0.08087697
20	0xbd4fc619	-0.05072603
21	0x3e05c1ae	0.13062164
22	0xbd0143f6	-0.031558953
23	0xbdddaced	-0.108239986
24	0x3dcb9b80	0.09941769
25	0xbd0615c2	-0.032735594
26	0xbca599e6	-0.020214986
27	0x3da1c134	0.07898179
28	0xbd856dfb	-0.06515118
29	0xbcfc62e1	-0.030808868
30	0x3df86eec	0.12130532
31	0x3c229d41	0.009925188
32	0x3da4edec	0.080531925
33	0xbd4f65f5	-0.050634343
34	0x3d7066f0	0.05869192
35	0x3d7cb397	0.061694708
36	0x3dc96e3d	0.098354794
37	0xbdef301f	-0.116791
38	0xbd9031d1	-0.07040752
39	0xbe00133e	-0.1250734
40	0x3d4c7f21	0.049925927
41	0x3d513b1a	0.051081754
42	0x3dc9302c	0.09823641
43	0xbc9a9a4d	-0.018872404
44	0xbd358834	-0.044319347
45	0xbdf2f38d	-0.1186286
46	0x3de9a5ac	0.114085525
47	0x3daa2fab	0.08309873
48	0x3caa55c6	0.020792853
49	0x3bdb7e98	0.0066984408
50	0x3c83cc30	0.016088575
51	0xbe0440b7	-0.12915312
52	0x3d8bc5d5	0.06824843
53	0xbcd2bed9	-0.025725769
54	0x3d9a8241	0.07544375
55	0xbc01e683	-0.007928493
56	0x3d73288a	0.059364833
57	0x3d8346fe	0.06410025
58	0x3bcafb46	0.006194505
59	0xbdca30bc	-0.098725766
60	0xbde8424b	-0.113407694
61	0xbc3067ce	-0.0107669365
62	0x39eceb4c	0.00045188738
63	0xbd3ffcf1	-0.046872083
64	0x3c16d6a7	0.009206451
65	0x3da147fd	0.07875059
66	0x3ad9bff6	0.0016612995
67	0x3dc44162	0.09582783
68	0x3d8b0c19	0.06789417
69	0xbd16d3a4	-0.03682293
70	0xbde8161d	-0.11332343
71	0xbd9e93ea	-0.07743056
72	0x3d1a78ca	0.03771285
73	0x3dcdae4a	0.100430086
74	0xbc0b0ba8	-0.008486666
75	0xbdab2467	-0.083565526
76	0x3d2bca29	0.04194084
77	0xbdd3281c	-0.10310385
78	0x3c97f684	0.018550165
79	0x3d028c3e	0.031872027
80	0x3a66927d	0.0008795632
81	0xbc53f510	-0.012936845
82	0xbe2d3eaf	-0.16918443
83	0x3e185014	0.14874297
84	0xbd827294	-0.0636951
85	0x3d026407	0.031833675
86	0xbd7c249a	-0.061558343
87	0x3d935ee8	0.07195836
88	0x3d55c457	0.052189197
89	0x3daf8cc9	0.085717745
90	0x3d3bf181	0.045884613
91	0xbda13844	-0.0787206
92	0x3e04b623	0.12960105
93	0xbc08a725	-0.008340632
94	0xbd24512f	-0.040116485
95	0x3d89036e	0.06690107
96	0xbe014853	-0.12625246
97	0x3c791632	0.015203046
98	0xbdd77a5e	-0.105213866
99	0xbcac5336	-0.021035772
100	0xbd9a78f2	-0.075426
101	0xbd07bf30	-0.033141315
102	0x3d99bd6b	0.07506832
103	0xbddbd7f0	-0.10734546
104	0x3d218394	0.039432123
105	0x3cf7fdf6	0.030272465
106	0x3d0395b6	0.032125197
107	0x3d3c1b0c	0.04592423
108	0x3da2ecb6	0.07955305
109	0x3ded20c9	0.11578519
110	0x3e0c476e	0.13699123
111	0xbd347933	-0.044060897
112	0xbdcdd639	-0.10050625
113	0xbdd5054e	-0.104014024
114	0x3d5087c8	0.05091074
115	0x3daa7a18	0.08324069
116	0xbdb577ce	-0.088607416
117	0x3c802e2c	0.015647016
118	0xbe110938	-0.14163673
119	0x3cebd682	0.028788809
120	0x3d21fd73	0.03954835
121	0x3dbf69ab	0.093463264
122	0x3df5a42d	0.11994205
123	0xbdbfdd62	-0.09368397
124	0xbe0b901d	-0.13629194
125	0xbda31d6e	-0.07964598
126	0x3c413b27	0.011793888
127	0xbdd3d573	-0.103434466

rnn.bias_hh_l1 f4 [128]
0	0x3c950591	0.01819113
1	0xbc69b547	-0.014264411
2	0xbd0bbf58	-0.034118026
3	0xbda576fe	-0.080793366
4	0x3de80e7e	0.11330889
5	0x3d979b99	0.07402725
6	0x3dc43229	0.0957988
7	0xbcf9de43	-0.03050149
8	0xbd173da2	-0.036924012
9	0xbd8824c5	-0.06647638
10	0x3d402a33	0.046915244
11	0x3d8b6537	0.068064146
12	0xbd3bea29	-0.04587761
13	0x3daccd2d	0.08437572
14	0x3daf32c9	0.085546084
15	0xbdd43c51	-0.10363067
16	0xbe06ab26	-0.13151225
17	0xbd048d30	-0.03236121
18	0xbcc6a31b	-0.024247697
19	0x3da5a2d3	0.08087697
20	0xbd4fc619	-0.05072603
21	0x3e05c1ae	0.13062164
22	0xbd0143f6	-0.031558953
23	0xbdddaced	-0.108239986
24	0x3dcb9b80	0.09941769
25	0xbd0615c2	-0.032735594
26	0xbca599e6	-0.020214986
27	0x3da1c134	0.07898179
28	0xbd856dfb	-0.06515118
29	0xbcfc62e1	-0.030808868
30	0x3df86eec	0.12130532
31	0x3c229d41	0.009925188
32	0x3da4edec	0.080531925
33	0xbd4f65f5	-0.050634343
34	0x3d7066f0	0.05869192
35	0x3d7cb397	0.061694708
36	0x3dc96e3d	0.098354794
37	0xbdef301f	-0.116791
38	0xbd9031d1	-0.07040752
39	0xbe00133e	-0.1250734
40	0x3d4c7f21	0.049925927
41	0x3d513b1a	0.051081754
42	0x3dc9302c	0.09823641
43	0xbc9a9a4d	-0.018872404
44	0xbd358834	-0.044319347
45	0xbdf2f38d	-0.1186286
46	0x3de9a5ac	0.114085525
47	0x3daa2fab	0.08309873
48	0x3caa55c6	0.020792853
49	0x3bdb7e98	0.0066984408
50	0x3c83cc30	0.016088575
51	0xbe0440b7	-0.12915312
52	0x3d8bc5d5	0.06824843
53	0xbcd2bed9	-0.025725769
54	0x3d9a8241	0.07544375
55	0xbc01e683	-0.007928493
56	0x3d73288a	0.059364833
57	0x3d8346fe	0.06410025
58	0x3bcafb46	0.006194505
59	0xbdca30bc	-0.098725766
60	0xbde8424b	-0.113407694
61	0xbc3067ce	-0.0107669365
62	0x39eceb4c	0.00045188738
63	0xbd3ffcf1	-0.046872083
64	0x3c16d6a7	0.009206451
65	0x3da147fd	0.07875059
66	0x3ad9bff6	0.0016612995
67	0x3dc44162	0.09582783
68	0x3d8b0c19	0.06789417
69	0xbd16d3a4	-0.03682293
70	0xbde8161d	-0.11332343
71	0xbd9e93ea	-0.07743056
72	0x3d1a78ca	0.03771285
73	0x3dcdae4a	0.100430086
74	0xbc0b0ba8	-0.008486666
75	0xbdab2467	-0.083565526
76	0x3d2bca29	0.04194084
77	0xbdd3281c	-0.10310385
78	0x3c97f684	0.018550165
79	0x3d028c3e	0.031872027
80	0x3a66927d	0.0008795632
81	0xbc53f510	-0.012936845
82	0xbe2d3eaf	-0.16918443
83	0x3e185014	0.14874297
84	0xbd827294	-0.0636951
85	0x3d026407	0.031833675
86	0xbd7c249a	-0.061558343
87	0x3d935ee8	0.07195836
88	0x3d55c457	0.052189197
89	0x3daf8cc9	0.085717745
90	0x3d3bf181	0.045884613
91	0xbda13844	-0.0787206
92	0x3e04b623	0.12960105
93	0xbc08a725	-0.008340632
94	0xbd24512f	-0.040116485
95	0x3d89036e	0.06690107
96	0xbe014853	-0.12625246
97	0x3c791632	0.015203046
98	0xbdd77a5e	-0.105213866
99	0xbcac5336	-0.021035772
100	0xbd9a78f2	-0.075426
101	0xbd07bf30	-0.033141315
102	0x3d99bd6b	0.07506832
103	0xbddbd7f0	-0.10734546
104	0x3d218394	0.039432123
105	0x3cf7fdf6	0.030272465
106	0x3d0395b6	0.032125197
107	0x3d3c1b0c	0.04592423
108	0x3da2ecb6	0.07955305
109	0x3ded20c9	0.11578519
110	0x3e0c476e	0.13699123
111	0xbd347933	-0.044060897
112	0xbdcdd639	-0.10050625
113	0xbdd5054e	-0.104014024
114	0x3d5087c8	0.05091074
115	0x3daa7a18	0.08324069
116	0xbdb577ce	-0.088607416
117	0x3c802e2c	0.015647016
118	0xbe110938	-0.14163673
119	0x3cebd682	0.028788809
120	0x3d21fd73	0.03954835
121	0x3dbf69ab	0.093463264
122	0x3df5a42d	0.11994205
123	0xbdbfdd62	-0.09368397
124	0xbe0b901d	-0.13629194
125	0xbda31d6e	-0.07964598
126	0x3c413b27	0.011793888
127	0xbdd3d573	-0.103434466

fc.weight f4 [1, 128]
0	0x3faef1cb	1.3667539
1	0x3f9c3c47	1.2205895
2	0x3fab692a	1.3391469
3	0xbf843351	-1.032816
4	0x3f7d6747	0.98985714
5	0x3f85b467	1.044568
6	0x3f80438f	1.0020617
7	0x3faa9835	1.33277
8	0xbf84d236	-1.0376651
9	0xbf81e2e0	-1.0147362
10	0x3f9819dd	1.1882893
11	0x3f838334	1.0274415
12	0x3f9ff46c	1.2496467
13	0x3f8647bc	1.0490642
14	0x3f8857be	1.0651777
15	0xbf8b135a	-1.0865281
16	0xbf84cd16	-1.0375087
17	0x3f9d7ad6	1.2303112
18	0x3fac7c14	1.3475366
19	0x3f8332a9	1.0249835
20	0x3fb19623	1.3873943
21	0x3f86014e	1.0469148
22	0x3faaa617	1.3331937
23	0xbf988ceb	-1.1918005
24	0x3f962e36	1.1732852
25	0x3fa31922	1.2742045
26	0x3fb31fb4	1.399405
27	0x3f7ec3cd	0.9951752
28	0xbf800d6b	-1.0004095
29	0x3f47924f	0.77957624
30	0x3f89b791	1.0759145
31	0xbfad32bd	-1.3531109
32	0x3f852a9e	1.0403631
33	0x3f8a8091	1.0820485
34	0x3f82e2f4	1.0225511
35	0xbfab6531	-1.3390256
36	0x3f885281	1.0650178
37	0xbf80b101	-1.0054017
38	0xbf834333	-1.0254883
39	0xbf828727	-1.0197495
40	0x3f84a58e	1.0363023
41	0xbfa79e2f	-1.3095149
42	0x3f877978	1.0583944
43	0xbf9ca9c2	-1.2239306
44	0x3fb06002	1.3779299
45	0xbf817fe1	-1.011715
46	0x3f7a2450	0.9771166
47	0x3f852a45	1.0403525
48	0xbf98d6ff	-1.1940612
49	0x3fa5dc9b	1.2957948
50	0x3faf835a	1.371196
51	0xbf7e594b	-0.99355
52	0x3f7b1074	0.9807198
53	0x3fb02d11	1.3763753
54	0x3f7a7427	0.97833484
55	0xbfa99690	-1.3249073
56	0xbf5bbb19	-0.85832363
57	0x3f84f8a7	1.0388383
58	0xbfa3e80c	-1.280519
59	0xbf80964d	-1.0045868
60	0xbf82ef65	-1.0229307
61	0x3fa92ee7	1.3217438
62	0x3f9c90b0	1.2231655
63	0xbf8db432	-1.1070616
64	0xbf95e7c7	-1.1711358
65	0x3f832419	1.0245391
66	0x3f6312ab	0.8870036
67	0x3f871b2e	1.055517
68	0x3f7fa056	0.9985403
69	0x3fb35f2c	1.4013419
70	0xbf8470aa	-1.0346882
71	0xbf802bfc	-1.0013423
72	0xbfb33eef	-1.4003581
73	0x3f87f82f	1.0622615
74	0x3f7fefab	0.9997508
75	0xbf891725	-1.0710188
76	0xbf91655a	-1.1359055
77	0xbf8b0736	-1.0861576
78	0xbfa97110	-1.3237629
79	0x3f9c91b4	1.2231965
80	0x3fb7a34a	1.4346707
81	0xbfb0059f	-1.3751715
82	0xbf81411b	-1.0097994
83	0x3f81011a	1.0078461
84	0xbf679e33	-0.9047577
85	0xbfb0ed1f	-1.3822364
86	0xbf9b01d0	-1.2109928
87	0x3f74453a	0.9541813
88	0xbfb91346	-1.4459007
89	0x3f836345	1.026467
90	0xbfa9a0db	-1.3252214
91	0xbf8845d5	-1.0646311
92	0x3f821610	1.0162983
93	0xbf999274	-1.1997819
94	0xbf9e1b04	-1.2351995
95	0x3f87a6d4	1.0597787
96	0xbf8290aa	-1.0200398
97	0xbfa8cb1a	-1.3186982
98	0xbf812be5	-1.009152
99	0xbf987c90	-1.1913013
100	0xbf83a837	-1.028571
101	0xbfa698a8	-1.3015337
102	0x3f87a49c	1.059711
103	0xbf884579	-1.0646201
104	0xbfa735dd	-1.3063313
105	0xbfb9176c	-1.4460273
106	0xbfaa1427	-1.32874
107	0x3f7acd3d	0.9796942
108	0x3f853713	1.0407432
109	0x3f8ea0d3	1.114283
110	0x3f812911	1.0090657
111	0x3fadb7bc	1.3571696
112	0xbf838e9e	-1.0277898
113	0xbf7e8ca9	-0.9943338
114	0x3f92daed	1.1473061
115	0x3f837dab	1.0272726
116	0xbf87ffdc	-1.0624957
117	0x3f9e3e9a	1.2362854
118	0xbf85e776	-1.0461261
119	0xbfad3d42	-1.3534319
120	0xbfa13ee8	-1.2597322
121	0x3f85adaf	1.0443629
122	0xbf0277de	-0.5096415
123	0xbf86b5e5	-1.052426
124	0xbf85888c	-1.0432296
125	0xbf806484	-1.0030675
126	0xbfa590d5	-1.2934824
127	0xbf873a6a	-1.0564702
