Models/best_model_RNN.pth (torch, 609989 bytes, 9 tensors)

rnn.weight_ih_l0 f4 [224, 1]
0	0x3e0376d0	0.12838292
1	0xbe22f834	-0.15914994
2	0x3e2dca12	0.16971615
3	0x3b704aef	0.0036665758
4	0x3d356466	0.0442852
5	0x3e120476	0.14259514
6	0xbdebffae	-0.115233764
7	0x3dfb8ccf	0.122827165
8	0x3c836a0d	0.01604178
9	0x3dded54f	0.10880529
10	0x3cbb95da	0.022898603
11	0x3dab5d74	0.08367434
12	0x3da8fc50	0.0825125
13	0x3dc20d82	0.09475233
14	0xbc8b86c4	-0.017032035
15	0xbd883711	-0.06651128
16	0x3dacd780	0.08439541
17	0x3d93f687	0.07224756
18	0xbdf2346f	-0.11826407
19	0x3d0d5ecc	0.034514233
20	0x3dcc7eb6	0.09985106
21	0xbdedf69e	-0.11619304
22	0x3dc5ba5e	0.09654687
23	0x3c5cac79	0.013468855
24	0xbdc04851	-0.09388793
25	0x3d8d6bd8	0.06905335
26	0xbe20b173	-0.15692692
27	0x3e1a9c74	0.15098745
28	0xbacb66cd	-0.0015518308
29	0xbd912096	-0.070862934
30	0xbd96b0ee	-0.073579654
31	0xbc75a5b4	-0.01499312
32	0xbcf3260d	-0.02968123
33	0x3d853756	0.06504695
34	0xbdc7554a	-0.097330645
35	0xbdc50b85	-0.09621338
36	0xbde18260	-0.11011195
37	0x3c3d6bda	0.011561358
38	0x3da980fe	0.082765564
39	0x3bc4f2f3	0.006010407
40	0x3d53a5a9	0.051671658
41	0x3d0d92fc	0.034564003
42	0xbd4c3f8f	-0.0498653
43	0xbdd270e9	-0.10275442
44	0x3c25a65a	0.010110462
45	0xbdaa2486	-0.083077475
46	0xbdb4f072	-0.08834924
47	0xbd8994e0	-0.06717849
48	0xbc5ef199	-0.013607406
49	0x3e0c3a92	0.13694218
50	0xbdda4292	-0.106572285
51	0xbe13c0ce	-0.14429018
52	0xbddc7f7e	-0.10766505
53	0xbdebf309	-0.11520965
54	0x3c09a81e	0.008401899
55	0x3d4fde94	0.050749376
56	0x3b9aa8e7	0.0047198418
57	0x3e01798f	0.12644027
58	0xbdbe98ff	-0.093065254
59	0x3dbd38e0	0.09239364
60	0x3d9fbcd3	0.07799687
61	0x3e01b759	0.12667598
62	0x3e012cf7	0.12614809
63	0xbd6ecc26	-0.05830016
64	0xbcebfa31	-0.028805824
65	0xbe1c6288	-0.15271962
66	0xbdca3d3b	-0.0987496
67	0xbd1a61db	-0.03769098
68	0x3d32d50b	0.043660205
69	0x3de5bae8	0.1121729
70	0xbc6c5217	-0.014423869
71	0x3d35564c	0.044271752
72	0x3d01297f	0.031533714
73	0xbde91c5e	-0.11382364
74	0xbd1cc8be	-0.03827738
75	0x3df59cce	0.11992799
76	0xbba797d0	-0.005114533
77	0x3e032cf9	0.12810124
78	0x3d6e5d94	0.05819471
79	0x3e222a84	0.15836531
80	0xb98c14d9	-0.00026718414
81	0xbade94c9	-0.0016981597
82	0x3dbfb60a	0.09360893
83	0x3d91b7db	0.07115146
84	0xbde270be	-0.1105666
85	0xbcfb9b48	-0.030713692
86	0xbdbaa038	-0.091125906
87	0xbc365bba	-0.011130268
88	0xbe174a31	-0.14774396
89	0x3db406fb	0.08790394
90	0x3da39e50	0.0798918
91	0x3e037e45	0.12841137
92	0xbe0e981d	-0.13925214
93	0xbdd20ab0	-0.10255945
94	0xbe1004b2	-0.14064291
95	0x3e000aa3	0.12504058
96	0x3cc7dca4	0.024397202
97	0xbdca5dc9	-0.09881169
98	0x3e151091	0.14557101
99	0x3d6cd1b2	0.05781717
100	0x3e2bdcc4	0.16783434
101	0xbe0a43b8	-0.13502395
102	0x3ce5944a	0.028024811
103	0x3cdaa788	0.026691213
104	0x3dd8dad0	0.1058861
105	0xbe1f0fc0	-0.15533352
106	0x3aa437bb	0.0012528816
107	0x3dc8d95c	0.09807083
108	0xbc527830	-0.012846038
109	0x3cea30e4	0.028587766
110	0x3e063657	0.13106667
111	0x3c4842da	0.01222297
112	0x3d95a57f	0.073069565
113	0xbd8fc8c8	-0.07020718
114	0xbcccb24a	-0.024987359
115	0xbd25b8cd	-0.040459443
116	0x3d7576c2	0.05992771
117	0x3dbd1cdd	0.09234021
118	0x3d442553	0.047887158
119	0xbda4c7bf	-0.08045911
120	0x3e01fd28	0.12694228
121	0x3d600df4	0.054700807
122	0x3df30009	0.11865241
123	0x3d78848e	0.06067329
124	0xbe133a17	-0.14377628
125	0xbd1fde19	-0.03903017
126	0xbca4940d	-0.020090127
127	0x3e18cd24	0.14922005
128	0x3cbc426f	0.022980897
129	0xbdf7ac18	-0.12093371
130	0xbcfcf291	-0.030877383
131	0xbddbe023	-0.1073611
132	0xbdf9feda	-0.12206812
133	0xbcf6a25b	-0.030106714
134	0x3d90ac73	0.07064142
135	0x3d17bd37	0.037045684
136	0xbd991165	-0.07474021
137	0xb88571fa	-6.363164e-05
138	0xbe166992	-0.1468871
139	0xbe155c52	-0.14585999
140	0xbe09bd6b	-0.13451163
141	0xbd8595d2	-0.065227166
142	0xbc7ccc73	-0.015429604
143	0xbd8e176d	-0.06938062
144	0x3d4d0022	0.050048955
145	0xbd1312c7	-0.03590658
146	0xbe1be72c	-0.15224904
147	0xbcbfc400	-0.02340889
148	0x3dd7f7a5	0.10545281
149	0xbe0bcdeb	-0.1365277
150	0xbe1149a0	-0.14188242
151	0x3d9cc034	0.07653847
152	0xbd94a17f	-0.072573654
153	0x3e18e15f	0.14929722
154	0x3d77b40b	0.060474437
155	0xbd4e9916	-0.050438963
156	0x3ce9927e	0.028512236
157	0x3cd8700d	0.026420617
158	0x3d3808a0	0.0449301
159	0xbce19fb3	-0.02754197
160	0xba08064d	-0.0005188927
161	0xbde2ab8f	-0.110678785
162	0x3d6f77ca	0.05846385
163	0x3e0a6b7d	0.13517566
164	0x3df3243b	0.11872145
165	0x3d0ebdb8	0.0348489
166	0x3c3fe73c	0.011712845
167	0x3b257b65	0.002525055
168	0x3dafd833	0.085861586
169	0xbdeb2473	-0.114815615
170	0xbdc6ce8c	-0.097073644
171	0xbe134a12	-0.14383724
172	0x3db0819d	0.08618472
173	0xbdf62447	-0.12018638
174	0xbc65ac37	-0.01401811
175	0xbdde3a77	-0.10850995
176	0xbb88842f	-0.004166148
177	0x3de597f3	0.11210623
178	0xbd32647a	-0.043552853
179	0xbd48e018	-0.049041837
180	0xbd6fb573	-0.058522653
181	0x3cd91ac5	0.026502023
182	0x3cb1ee6c	0.021720134
183	0xbc7987ac	-0.015230101
184	0x3e0a3e22	0.13500264
185	0xbe01c215	-0.12671693
186	0xbd908772	-0.07057084
187	0x3bfc787b	0.007704792
188	0x3d3abfde	0.045593135
189	0x3da4abf8	0.08040613
190	0xbd995dad	-0.0748857
191	0x3d68bf51	0.05682308
192	0x3de4075d	0.11134217
193	0xbe1cfc09	-0.15330519
194	0x3dcdc34a	0.10047014
195	0xbe1ebc65	-0.15501554
196	0x3d5a2011	0.053253237
197	0x3dbc5ed0	0.091977715
198	0xbe27b351	-0.16376998
199	0xbe026e53	-0.12737398
200	0x3e212637	0.15737234
201	0x3e04bb96	0.12962183
202	0x3cb55774	0.022136427
203	0xbc739f3e	-0.014869509
204	0xbe113664	-0.14180905
205	0xbd2beec2	-0.041975744
206	0xbe00fa43	-0.12595467
207	0x3e16e73e	0.1473665
208	0xbe106147	-0.14099608
209	0xbd79871d	-0.06091987
210	0xbdbbdce7	-0.09172993
211	0x3df2e866	0.11860733
212	0x3d436a38	0.04770872
213	0x3d84f3be	0.06491803
214	0x3d91466a	0.070935085
215	0x3d3a7608	0.04552272
216	0xbce02445	-0.027361045
217	0xbda4d1f7	-0.0804786
218	0xbe0877ad	-0.13326903
219	0x3df3dbbb	0.11907145
220	0xbe250d2b	-0.16118304
221	0xbdfa8856	-0.12233035
222	0x3c6adb64	0.014334533
223	0x3cc5d67c	0.024150126

rnn.weight_hh_l0 f4 [224, 224]
0	0x3cadb038	0.021202192
1	0xbd9c7021	-0.076385744
2	0xbdd60a53	-0.10451188
3	0x3da27e09	0.079341955
4	0x3dd772ce	0.10519944
5	0x3c4ec055	0.012619098
6	0xbdb3d9ef	-0.08781802
7	0xbc3aa0ff	-0.0113909235
8	0x3c0fc1e1	0.008774252
9	0xbd330e19	-0.043714616
10	0xbd844bb1	-0.064597495
11	0xbd2be521	-0.04196656
12	0xbcde2ecd	-0.027121926
13	0xbdcf30cf	-0.101167314
14	0x3d5d9f99	0.054107282
15	0xbdcee139	-0.101015516
16	0xbdbedd9f	-0.093196146
17	0x3d3b6332	0.045748897
18	0x3dda5591	0.10660852
19	0x3d6f48a3	0.05841888
20	0x3dce3c21	0.100700624
21	0xbbdfaf5a	-0.0068263235
22	0xbdeff8f2	-0.117174044
23	0x3c93f9a6	0.018063378
24	0x3daa177a	0.08305259
25	0xbcde2e5d	-0.027121717
26	0xbdd21528	-0.102579415
27	0xbd32be0d	-0.043638278
28	0xbd94aad4	-0.072591454
29	0xbd2771f2	-0.04088015
30	0x3dd91965	0.10600547
31	0xbdefe138	-0.11712879
32	0x3daf4d0e	0.08559619
33	0xbd684e42	-0.056715257
34	0xbd1c33a1	-0.038135175
35	0xbdc3b0a6	-0.095551774
36	0x3d5a87b4	0.053352073
37	0xbdda2ecf	-0.10653459
38	0x3d4cf742	0.05004049
39	0xbd44eec1	-0.048079256
40	0x3d0263f3	0.0318336
41	0x3d82983f	0.06376695
42	0xbdac566b	-0.084149204
43	0xbd42a22a	-0.047517933
44	0x3d9f697e	0.07783793
45	0x3d9c42c8	0.07629925
46	0xbdcccc8c	-0.09999952
47	0xbdc23da1	-0.09484411
48	0xbd498205	-0.049196262
49	0xbd499568	-0.04921475
50	0x3d2d2453	0.04227097
51	0x3d3bcded	0.045850683
52	0xbdb32fbf	-0.08749341
53	0x3dd62cf7	0.10457795
54	0x3d4912d2	0.049090214
55	0xbd3bb1f0	-0.04582399
56	0xbdb4df48	-0.0883165
57	0xbda42235	-0.08014337
58	0x3dbb49c6	0.091449305
59	0x3cb39c84	0.021925218
60	0x3d02af80	0.03190565
61	0x3db3a99d	0.087725855
62	0x3db1a150	0.08673346
63	0xbdd4337e	-0.10361384
64	0x3c20d4c0	0.009816349
65	0x3dc96435	0.09833566
66	0x3da2dffe	0.07952879
67	0xbd2ca266	-0.042147063
68	0x3d814ec5	0.06313852
69	0xbd03cece	-0.032179646
70	0x3d5bec3b	0.053692084
71	0x3d387fd6	0.04504379
72	0xbd4c3dd8	-0.049863666
73	0xbdd404eb	-0.103525005
74	0xbd4a347f	-0.04936647
75	0xbd94c66a	-0.07264407
76	0xbd94bda6	-0.07262735
77	0xbc1cd76e	-0.009572847
78	0x3d70d061	0.058792476
79	0xbdd445e5	-0.10364894
80	0xbdafcf57	-0.08584469
81	0x3da34cba	0.07973619
82	0xbd94823f	-0.07251405
83	0xbd8f7baa	-0.07006009
84	0x3d70f8a4	0.058830872
85	0x3dbb0d51	0.09133399
86	0x3c91440a	0.017732639
87	0xbccc3fa3	-0.024932688
88	0x3c179efb	0.0092542125
89	0xbdbd9664	-0.092572
90	0xbdc16cff	-0.094446175
91	0xbd333c21	-0.043758515
92	0xbd6d8e01	-0.057996754
93	0x3c83b8e3	0.016079372
94	0x3ce04f75	0.027381638
95	0xbcf58d72	-0.029974673
96	0x3dad8bd7	0.08473938
97	0xbd88348a	-0.06650646
98	0x3d5589f5	0.05213352
99	0x3d2c1460	0.04201162
100	0xbd0009bb	-0.03125928
101	0x3dbf3757	0.09336727
102	0xbd915530	-0.07096326
103	0x3d1f518b	0.038896125
104	0x3c9ef0e8	0.019401982
105	0x3d80363b	0.06260344
106	0xbcd54e46	-0.0260383
107	0xbc83ccd5	-0.016088882
108	0xbd8ea095	-0.06964222
109	0xbda28282	-0.07935049
110	0x3d814e4d	0.06313763
111	0xbd6af156	-0.057359062
112	0xbd976054	-0.0739142
113	0x3daaa805	0.083328284
114	0x3d96a8ae	0.07356392
115	0x3daef170	0.08542144
116	0xbca04abe	-0.01956689
117	0x3d4ee018	0.05050668
118	0x3db65a87	0.089039855
119	0xbd04cbd8	-0.032420963
120	0xbd1d88cd	-0.03846054
121	0x3dc0ea11	0.094196446
122	0xbd9492df	-0.07254576
123	0x3d4481e3	0.047975432
124	0xbd08c311	-0.033389155
125	0xbd09a08a	-0.033600368
126	0xbdca33a1	-0.09873129
127	0xbd3b5b28	-0.04574123
128	0xbddfc152	-0.10925545
129	0x3bb264ef	0.005444161
130	0xbdb7eff9	-0.08981318
131	0x3db5730c	0.08859834
132	0x3dbfa7c8	0.093581736
133	0x3d008946	0.031380914
134	0xbd69b2ef	-0.05705541
135	0x3dcf53a8	0.10123378
136	0x3dd940dd	0.10608075
137	0xbc664185	-0.014053707
138	0x3c48aa2e	0.012247605
139	0x3d591fc3	0.053008806
140	0xbcbe9f03	-0.023269182
141	0xbddc1ece	-0.10748063
142	0xbd9919f7	-0.074756555
143	0xbdd411e2	-0.103549734
144	0xbde5211a	-0.11187954
145	0x3d2885e9	0.04114333
146	0xbd8f599c	-0.069995135
147	0xbd9980f1	-0.07495297
148	0x3ccd4a04	0.025059707
149	0xbd74a29a	-0.05972538
150	0xbd36f464	-0.044666663
151	0x3dcc70f5	0.09982482
152	0xbd0e3a51	-0.034723584
153	0xbdc4410d	-0.0958272
154	0x3de686ea	0.112562016
155	0x3d9df6c2	0.07713081
156	0x3c28c239	0.010300213
157	0x3d24babf	0.040217157
158	0xbd2f2501	-0.0427599
159	0xbdc7c990	-0.09755242
160	0xbbb27819	-0.0054464457
161	0xbd4f9e9e	-0.05068838
162	0x3d85ef1b	0.065397464
163	0xbb977742	-0.004622371
164	0x3cf1a65e	0.029498275
165	0xbdc7f58a	-0.0976363
166	0xbcb9e73b	-0.022693267
167	0xbbc03fbe	-0.0058669737
168	0xbd956a19	-0.07295627
169	0x3dc7b809	0.09751899
170	0xbd3863b6	-0.045016967
171	0xbda45393	-0.08023753
172	0xbc92cc2a	-0.017919619
173	0x3d8d2532	0.0689186
174	0xbda58104	-0.080812484
175	0xbdb79054	-0.08963075
176	0xbd6a6db3	-0.057233524
177	0xbd82c3e5	-0.0638502
178	0xbb91b700	-0.004446864
179	0xbd044386	-0.032290958
180	0xbda27607	-0.07932668
181	0x3cdc5d16	0.026899856
182	0x3d6be19e	0.057588212
183	0x3d1b7aeb	0.03795902
184	0x3cc4b181	0.024010422
185	0x3dc2528b	0.094884
186	0xbd989a8d	-0.07451353
187	0x3da44c69	0.080223866
188	0x3c3f6f4a	0.011684248
189	0x3c9cde4e	0.019148972
190	0x3d73cc00	0.05952072
191	0xbd8c80b1	-0.068604834
192	0x3d9d5ff1	0.07684315
193	0xbcc4a292	-0.0240033
194	0x3b8e79c7	0.004348013
195	0xbda9a89a	-0.08284111
196	0x3d8ca3ac	0.068671554
197	0x3d0a29be	0.033731215
198	0xbca621c6	-0.020279776
199	0xbdb28f19	-0.087187
200	0xbddad08e	-0.1068431
201	0xbd2af435	-0.0417368
202	0x3d2325b3	0.039830875
203	0x3d57423d	0.052553404
204	0xbc2993b2	-0.010350155
205	0xbd9dd184	-0.077059776
206	0xbd9f398b	-0.07774647
207	0x3dae4b1e	0.08510421
208	0xbcd81a0c	-0.026379608
209	0x3c6e7299	0.014553689
210	0x3d920ec5	0.07131723
211	0x3ddb7a69	0.10716707
212	0x3d9089a8	0.07057506
213	0x3c8ab9f2	0.016934369
214	0xbc5e927c	-0.013584729
215	0xbc503676	-0.012708297
216	0x3c35ba1c	0.011091735
217	0x3c522373	0.012825835
218	0xbda58f65	-0.08083991
219	0x3d8de1a6	0.06927805
220	0xbd88abea	-0.06673415
221	0xbdc5cadd	-0.09657834
222	0x3d272ba9	0.040813122
223	0xbd765dff	-0.060148235
224	0xbda13627	-0.07871657
225	0x3db6cd69	0.08925898
226	0x3da8f5b7	0.082499914
227	0xbdd4209f	-0.103577845
228	0xbd1dbb27	-0.03850856
229	0xbdbe8210	-0.09302151
230	0xbd2d34cb	-0.042286675
231	0xbc9eb071	-0.019371243
232	0xbdd2af75	-0.10287372
233	0xbd8a1c65	-0.06743697
234	0xbd0ca6a8	-0.034338623
235	0x3d6cca85	0.057810325
236	0xbd2cdc83	-0.042202484
237	0xbdb21755	-0.086958565
238	0xbddc505d	-0.107575156
239	0x3d1728b5	0.036904056
240	0x3d03d1e8	0.032182604
241	0xbcb0abfa	-0.02156638
242	0x3d003276	0.031298123
243	0xbd40ae27	-0.047041085
244	0xbdb6bb57	-0.08922451
245	0x3c2f81a6	0.010712063
246	0x3deb37fc	0.114852875
247	0xbcde3cb7	-0.02712856
248	0xbd969481	-0.073525436
249	0x3dcd948d	0.100380994
250	0xbd964f6c	-0.07339367
251	0x3d319abf	0.043360468
252	0xbc782f3c	-0.01514798
253	0xbce439da	-0.027859617
254	0x3d24ec50	0.040264428
255	0x3dcb46b8	0.09925598

rnn.bias_ih_l0 f4 [224]
0	0xba44de56	-0.0007509937
1	0x3c3fb502	0.0117008705
2	0xbc171925	-0.0092223035
3	0x3b7bac62	0.0038402309
4	0xbb9d38e5	-0.004798042
5	0xbaf5bd54	-0.0018748441
6	0xbad5bcab	-0.0016306838
7	0xbbd9d860	-0.0066481084
8	0x3af0b254	0.0018363693
9	0xbc120e11	-0.0089144865
10	0x3ab959ce	0.0014141144
11	0xbac787a3	-0.0015222918
12	0xbaf44e64	-0.0018639085
13	0xbc3b0d9b	-0.011416818
14	0xbb812551	-0.003941216
15	0xbc7d0efd	-0.015445468
16	0xbb93ee61	-0.004514501
17	0xba8cd8e6	-0.0010745793
18	0x3b8cfe65	0.004302787
19	0xbab1ff10	-0.0013580043
20	0xbc98b001	-0.018638613
21	0x3ba9edf1	0.0051858355
22	0xba4acb22	-0.00077359576
23	0x3b2611d0	0.0025340207
24	0x3c23c833	0.009996462
25	0x3b727dd2	0.0037001264
26	0x3bc74a42	0.0060818503
27	0xbb979ab9	-0.0046265987
28	0x3b58029a	0.0032960535
29	0xbc033469	-0.008008101
30	0x3ba02a9b	0.0048878915
31	0x3a876dd0	0.0010332409
32	0x3a8134de	0.0009857675
33	0xbb97098c	-0.0046092924
34	0x3b551a39	0.003251685
35	0x3bd2c3b2	0.00643202
36	0x3b7eaff1	0.0038862193
37	0xbb9ed45e	-0.0048470935
38	0xbc0b6cbb	-0.00850981
39	0xbbd65ea2	-0.006542043
40	0x3b661d2f	0.003511261
41	0xbbf65cc8	-0.0075183846
42	0x3b793bcc	0.0038030026
43	0x3aad560d	0.0013224498
44	0x3c17bc4a	0.0092612
45	0xbc0b7bb5	-0.008513381
46	0x3c14a698	0.009072922
47	0x3afbdfb3	0.0019216448
48	0xbaf27946	-0.0018499277
49	0xbb656283	-0.0035001345
50	0x3befb338	0.0073150657
51	0x3c0b2cea	0.008494595
52	0x3b82eb8c	0.0039953645
53	0xbb0ddcb7	-0.002164645
54	0x3c09a45e	0.008401005
55	0xbb5445fb	-0.0032390344
56	0x3b34fe65	0.0027617451
57	0xbbce0e7d	-0.006288348
58	0x3a45353f	0.0007522888
59	0xbb62b3f4	-0.0034592124
60	0x3a9f300c	0.0012145056
61	0xbb921f3c	-0.00445929
62	0xbc1f5263	-0.009724232
63	0xba36e271	-0.00069764914
64	0x3b04c7a4	0.0020260597
65	0x3bd3356c	0.0064455774
66	0x3b1b621e	0.0023709605
67	0xbab4720d	-0.00137669
68	0xbbef3deb	-0.0073010824
69	0x3aea7553	0.0017887749
70	0x3a190204	0.0005836787
71	0xbb90965f	-0.004412457
72	0xbb446699	-0.002996838
73	0x3b876677	0.004132088
74	0x3bca3f0f	0.006172068
75	0x3b02fcb0	0.001998704
76	0xba47da35	-0.0007623763
77	0xba76c887	-0.0009414036
78	0xbbd1687c	-0.0063906293
79	0xbb140c77	-0.0022590437
80	0x3b3a877e	0.0028462107
81	0x3b707742	0.0036692177
82	0xbb897bed	-0.0041956813
83	0xbb91b4fa	-0.004446623
84	0x3b0d7209	0.0021582863
85	0x3c154862	0.009111496
86	0x3bd4a477	0.0064893323
87	0x3bc21d60	0.005923912
88	0x3c613881	0.013746382
89	0xbb829dba	-0.0039860876
90	0xbbf576e4	-0.0074909795
91	0xbbe3f5ec	-0.0069568064
92	0x3ba1d600	0.004938841
93	0x3b3f976c	0.0029234542
94	0x3b8cb605	0.0042941594
95	0xbc0ff915	-0.008787413
96	0x3b8eb995	0.004355619
97	0x3ae890a8	0.0017743306
98	0xbae16abb	-0.0017197946
99	0xba9a1778	-0.0011756262
100	0xbb7d160b	-0.0038617875
101	0x3b16f12b	0.002303193
102	0xbb3a7159	-0.0028448908
103	0xba7086c4	-0.0009175355
104	0xbbf48cc4	-0.0074630696
105	0xbad17811	-0.0015981217
106	0x3b2a3d05	0.0025976312
107	0xbbad02e7	-0.005279887
108	0x3c3a3429	0.011364975
109	0x3bbe7621	0.005812422
110	0xbbba4de0	-0.005685553
111	0x3be04b71	0.006844931
112	0xbbda0d71	-0.0066544344
113	0x38892c6c	6.540943e-05
114	0xbc0158cc	-0.007894706
115	0x3bee1e78	0.0072668158
116	0xbb79b77d	-0.0038103752
117	0xbbe56c20	-0.007001415
118	0xbc04d0e6	-0.008106446
119	0xbabc8df3	-0.0014385566
120	0xbc0807ff	-0.008302688
121	0xbb2ee4b4	-0.002668661
122	0x3b020780	0.0019840896
123	0xbb00c5f6	-0.0019649244
124	0x3c1142af	0.008865996
125	0xbad7401e	-0.0016422307
126	0xbb9e8477	-0.0048375684
127	0xbc15e6e0	-0.009149283
128	0x3b09c602	0.0021022563
129	0x3bc50552	0.006012597
130	0x3a57dff5	0.00082349713
131	0xbab65358	-0.0013910336
132	0x3b988e9d	0.0046556727
133	0x3b459365	0.0030147668
134	0xbb2d85eb	-0.0026477526
135	0xbc0dbee5	-0.00865147
136	0xbb412235	-0.0029469852
137	0xbb55f43c	-0.0032646796
138	0x3b9b540e	0.0047402447
139	0x3bcda975	0.0062763044
140	0x3ba95694	0.0051677916
141	0x3b329777	0.0027250925
142	0xbb287b37	-0.0025708207
143	0x3a41ac94	0.0007388082
144	0xb9ff3ec9	-0.0004868417
145	0x3b49967c	0.0030759862
146	0x3b0c6f40	0.0021428615
147	0xb8c472fe	-9.367427e-05
148	0x39f71eac	0.00047134364
149	0xbb22557f	-0.0024770198
150	0x3b684c73	0.0035445958
151	0xbaf6c01e	-0.0018825566
152	0x3a9bac40	0.0011876896
153	0x3804f49e	3.169907e-05
154	0xbb94f01c	-0.004545225
155	0xbb0f8d0e	-0.0021904144
156	0xba033e82	-0.0005006568
157	0x3be67177	0.007032569
158	0x3c11fce3	0.008910391
159	0xbbc09406	-0.005877021
160	0xbbdeb8b7	-0.006796922
161	0x3b8c974b	0.0042904965
162	0xbbe7cd27	-0.0070740166
163	0xbb7833e9	-0.0037872738
164	0x36633ae4	3.3859915e-06
165	0x3b3ac4bf	0.0028498617
166	0xba99df9e	-0.0011739617
167	0xbb92a1f5	-0.004474873
168	0x3aab708f	0.001307981
169	0xbb628100	-0.0034561753
170	0x3beaf7f8	0.0071706735
171	0x3c0c5f76	0.008567682
172	0x3ac6c93d	0.0015166175
173	0xbb234815	-0.002491479
174	0x3bbd0839	0.0057688025
175	0x3aa52a9a	0.0012601197
176	0xbb9dded6	-0.004817824
177	0xbc123161	-0.008922906
178	0xbac527a9	-0.0015041727
179	0x3b802279	0.0039103595
180	0xbbe5090e	-0.006989605
181	0xbb82ba62	-0.0039895037
182	0x3bed8945	0.00724903
183	0x3b709a4b	0.003671306
184	0xbbd987af	-0.006638489
185	0x3a8ce490	0.0010749269
186	0x3ba3ec0e	0.005002505
187	0xbb4ee0eb	-0.0031567167
188	0xbbd3f440	-0.006468326
189	0xbbcaf31a	-0.0061935307
190	0x3b315afd	0.002706229
191	0x39965bcf	0.00028678632
192	0xbbcc8e59	-0.006242555
193	0x3bb54b68	0.0055326708
194	0xbc3435e0	-0.010999173
195	0x3b443445	0.0029938382
196	0x39f37fba	0.00046443735
197	0xbc336626	-0.010949647
198	0x3b347f25	0.0027541604
199	0x3c09d4d8	0.008412562
200	0xbbb49d26	-0.0055118976
201	0xbac51c88	-0.001503841
202	0x3b601e76	0.0034197844
203	0x3c08ce35	0.008349945
204	0xb9bdecee	-0.00036225416
205	0x3ba88e86	0.0051439432
206	0x3be68781	0.0070351963
207	0xbbcb4377	-0.006203111
208	0x3b10a457	0.002207061
209	0xbb5b8480	-0.0033495724
210	0x3af5ca46	0.0018752299
211	0xbb951f8a	-0.004550879
212	0xbbbb5ba5	-0.005717712
213	0xbc711412	-0.014714258
214	0x3b0a3c71	0.0021093155
215	0x3b77d18b	0.0037814106
216	0xba0315ab	-0.0005000482
217	0xbc132f4f	-0.008983447
218	0x3a35cdbf	0.00069352606
219	0xbbd7b9c6	-0.006583425
220	0x3bbc998b	0.0057556084
221	0x3b880155	0.0041505494
222	0xba81f501	-0.0009914936
223	0x39febb41	0.0004858617

rnn.bias_hh_l0 f4 [224]
0	0xba44de56	-0.0007509937
1	0x3c3fb502	0.0117008705
2	0xbc171925	-0.0092223035
3	0x3b7bac62	0.0038402309
4	0xbb9d38e5	-0.004798042
5	0xbaf5bd54	-0.0018748441
6	0xbad5bcab	-0.0016306838
7	0xbbd9d860	-0.0066481084
8	0x3af0b254	0.0018363693
9	0xbc120e11	-0.0089144865
10	0x3ab959ce	0.0014141144
11	0xbac787a3	-0.0015222918
12	0xbaf44e64	-0.0018639085
13	0xbc3b0d9b	-0.011416818
14	0xbb812551	-0.003941216
15	0xbc7d0efd	-0.015445468
16	0xbb93ee61	-0.004514501
17	0xba8cd8e6	-0.0010745793
18	0x3b8cfe65	0.004302787
19	0xbab1ff10	-0.0013580043
20	0xbc98b001	-0.018638613
21	0x3ba9edf1	0.0051858355
22	0xba4acb22	-0.00077359576
23	0x3b2611d0	0.0025340207
24	0x3c23c833	0.009996462
25	0x3b727dd2	0.0037001264
26	0x3bc74a42	0.0060818503
27	0xbb979ab9	-0.0046265987
28	0x3b58029a	0.0032960535
29	0xbc033469	-0.008008101
30	0x3ba02a9b	0.0048878915
31	0x3a876dd0	0.0010332409
32	0x3a8134de	0.0009857675
33	0xbb97098c	-0.0046092924
34	0x3b551a39	0.003251685
35	0x3bd2c3b2	0.00643202
36	0x3b7eaff1	0.0038862193
37	0xbb9ed45e	-0.0048470935
38	0xbc0b6cbb	-0.00850981
39	0xbbd65ea2	-0.006542043
40	0x3b661d2f	0.003511261
41	0xbbf65cc8	-0.0075183846
42	0x3b793bcc	0.0038030026
43	0x3aad560d	0.0013224498
44	0x3c17bc4a	0.0092612
45	0xbc0b7bb5	-0.008513381
46	0x3c14a698	0.009072922
47	0x3afbdfb3	0.0019216448
48	0xbaf27946	-0.0018499277
49	0xbb656283	-0.0035001345
50	0x3befb338	0.0073150657
51	0x3c0b2cea	0.008494595
52	0x3b82eb8c	0.0039953645
53	0xbb0ddcb7	-0.002164645
54	0x3c09a45e	0.008401005
55	0xbb5445fb	-0.0032390344
56	0x3b34fe65	0.0027617451
57	0xbbce0e7d	-0.006288348
58	0x3a45353f	0.0007522888
59	0xbb62b3f4	-0.0034592124
60	0x3a9f300c	0.0012145056
61	0xbb921f3c	-0.00445929
62	0xbc1f5263	-0.009724232
63	0xba36e271	-0.00069764914
64	0x3b04c7a4	0.0020260597
65	0x3bd3356c	0.0064455774
66	0x3b1b621e	0.0023709605
67	0xbab4720d	-0.00137669
68	0xbbef3deb	-0.0073010824
69	0x3aea7553	0.0017887749
70	0x3a190204	0.0005836787
71	0xbb90965f	-0.004412457
72	0xbb446699	-0.002996838
73	0x3b876677	0.004132088
74	0x3bca3f0f	0.006172068
75	0x3b02fcb0	0.001998704
76	0xba47da35	-0.0007623763
77	0xba76c887	-0.0009414036
78	0xbbd1687c	-0.0063906293
79	0xbb140c77	-0.0022590437
80	0x3b3a877e	0.0028462107
81	0x3b707742	0.0036692177
82	0xbb897bed	-0.0041956813
83	0xbb91b4fa	-0.004446623
84	0x3b0d7209	0.0021582863
85	0x3c154862	0.009111496
86	0x3bd4a477	0.0064893323
87	0x3bc21d60	0.005923912
88	0x3c613881	0.013746382
89	0xbb829dba	-0.0039860876
90	0xbbf576e4	-0.0074909795
91	0xbbe3f5ec	-0.0069568064
92	0x3ba1d600	0.004938841
93	0x3b3f976c	0.0029234542
94	0x3b8cb605	0.0042941594
95	0xbc0ff915	-0.008787413
96	0x3b8eb995	0.004355619
97	0x3ae890a8	0.0017743306
98	0xbae16abb	-0.0017197946
99	0xba9a1778	-0.0011756262
100	0xbb7d160b	-0.0038617875
101	0x3b16f12b	0.002303193
102	0xbb3a7159	-0.0028448908
103	0xba7086c4	-0.0009175355
104	0xbbf48cc4	-0.0074630696
105	0xbad17811	-0.0015981217
106	0x3b2a3d05	0.0025976312
107	0xbbad02e7	-0.005279887
108	0x3c3a3429	0.011364975
109	0x3bbe7621	0.005812422
110	0xbbba4de0	-0.005685553
111	0x3be04b71	0.006844931
112	0xbbda0d71	-0.0066544344
113	0x38892c6c	6.540943e-05
114	0xbc0158cc	-0.007894706
115	0x3bee1e78	0.0072668158
116	0xbb79b77d	-0.0038103752
117	0xbbe56c20	-0.007001415
118	0xbc04d0e6	-0.008106446
119	0xbabc8df3	-0.0014385566
120	0xbc0807ff	-0.008302688
121	0xbb2ee4b4	-0.002668661
122	0x3b020780	0.0019840896
123	0xbb00c5f6	-0.0019649244
124	0x3c1142af	0.008865996
125	0xbad7401e	-0.0016422307
126	0xbb9e8477	-0.0048375684
127	0xbc15e6e0	-0.009149283
128	0x3b09c602	0.0021022563
129	0x3bc50552	0.006012597
130	0x3a57dff5	0.00082349713
131	0xbab65358	-0.0013910336
132	0x3b988e9d	0.0046556727
133	0x3b459365	0.0030147668
134	0xbb2d85eb	-0.0026477526
135	0xbc0dbee5	-0.00865147
136	0xbb412235	-0.0029469852
137	0xbb55f43c	-0.0032646796
138	0x3b9b540e	0.0047402447
139	0x3bcda975	0.0062763044
140	0x3ba95694	0.0051677916
141	0x3b329777	0.0027250925
142	0xbb287b37	-0.0025708207
143	0x3a41ac94	0.0007388082
144	0xb9ff3ec9	-0.0004868417
145	0x3b49967c	0.0030759862
146	0x3b0c6f40	0.0021428615
147	0xb8c472fe	-9.367427e-05
148	0x39f71eac	0.00047134364
149	0xbb22557f	-0.0024770198
150	0x3b684c73	0.0035445958
151	0xbaf6c01e	-0.0018825566
152	0x3a9bac40	0.0011876896
153	0x3804f49e	3.169907e-05
154	0xbb94f01c	-0.004545225
155	0xbb0f8d0e	-0.0021904144
156	0xba033e82	-0.0005006568
157	0x3be67177	0.007032569
158	0x3c11fce3	0.008910391
159	0xbbc09406	-0.005877021
160	0xbbdeb8b7	-0.006796922
161	0x3b8c974b	0.0042904965
162	0xbbe7cd27	-0.0070740166
163	0xbb7833e9	-0.0037872738
164	0x36633ae4	3.3859915e-06
165	0x3b3ac4bf	0.0028498617
166	0xba99df9e	-0.0011739617
167	0xbb92a1f5	-0.004474873
168	0x3aab708f	0.001307981
169	0xbb628100	-0.0034561753
170	0x3beaf7f8	0.0071706735
171	0x3c0c5f76	0.008567682
172	0x3ac6c93d	0.0015166175
173	0xbb234815	-0.002491479
174	0x3bbd0839	0.0057688025
175	0x3aa52a9a	0.0012601197
176	0xbb9dded6	-0.004817824
177	0xbc123161	-0.008922906
178	0xbac527a9	-0.0015041727
179	0x3b802279	0.0039103595
180	0xbbe5090e	-0.006989605
181	0xbb82ba62	-0.0039895037
182	0x3bed8945	0.00724903
183	0x3b709a4b	0.003671306
184	0xbbd987af	-0.006638489
185	0x3a8ce490	0.0010749269
186	0x3ba3ec0e	0.005002505
187	0xbb4ee0eb	-0.0031567167
188	0xbbd3f440	-0.006468326
189	0xbbcaf31a	-0.0061935307
190	0x3b315afd	0.002706229
191	0x39965bcf	0.00028678632
192	0xbbcc8e59	-0.006242555
193	0x3bb54b68	0.0055326708
194	0xbc3435e0	-0.010999173
195	0x3b443445	0.0029938382
196	0x39f37fba	0.00046443735
197	0xbc336626	-0.010949647
198	0x3b347f25	0.0027541604
199	0x3c09d4d8	0.008412562
200	0xbbb49d26	-0.0055118976
201	0xbac51c88	-0.001503841
202	0x3b601e76	0.0034197844
203	0x3c08ce35	0.008349945
204	0xb9bdecee	-0.00036225416
205	0x3ba88e86	0.0051439432
206	0x3be68781	0.0070351963
207	0xbbcb4377	-0.006203111
208	0x3b10a457	0.002207061
209	0xbb5b8480	-0.0033495724
210	0x3af5ca46	0.0018752299
211	0xbb951f8a	-0.004550879
212	0xbbbb5ba5	-0.005717712
213	0xbc711412	-0.014714258
214	0x3b0a3c71	0.0021093155
215	0x3b77d18b	0.0037814106
216	0xba0315ab	-0.0005000482
217	0xbc132f4f	-0.008983447
218	0x3a35cdbf	0.00069352606
219	0xbbd7b9c6	-0.006583425
220	0x3bbc998b	0.0057556084
221	0x3b880155	0.0041505494
222	0xba81f501	-0.0009914936
223	0x39febb41	0.0004858617

rnn.weight_ih_l1 f4 [224, 224]
0	0x3d840856	0.064469025
1	0xbcd87e0b	-0.02642729
2	0x3dd58828	0.1042636
3	0x3dba8a43	0.091084026
4	0x3dd919e0	0.106006384
5	0x3bc3b2f2	0.0059722597
6	0xbddfa370	-0.10919845
7	0x3d45fd40	0.04833722
8	0xbd741fa2	-0.05960048
9	0xbdb5bb96	-0.0887367
10	0xbd96a756	-0.073561355
11	0x3d9d1edc	0.076719016
12	0x3dc625c6	0.096751735
13	0x3dd567e4	0.10420206
14	0xbd57c9bb	-0.05268262
15	0xbd32a505	-0.043614406
16	0xbdd508f5	-0.10402099
17	0xbdaa5f86	-0.08319001
18	0x3cebfd7c	0.028807394
19	0x3c430400	0.011902809
20	0xbda13007	-0.078704886
21	0xbdd5c635	-0.104381956
22	0xbdd60b5e	-0.10451387
23	0xbccebb33	-0.025235748
24	0x3dbc9f01	0.09210015
25	0x3d1d1c3d	0.03835701
26	0x3d93c96a	0.07216151
27	0x3d6e9d05	0.058255214
28	0xbdab2e2b	-0.08358415
29	0xbddb5222	-0.10709025
30	0x3dd4f1e3	0.10397699
31	0x3d76024a	0.060060777
32	0xbd5585ad	-0.052129436
33	0x3da9b48a	0.08286388
34	0x3d5e629b	0.054293256
35	0x3dcfc466	0.10144882
36	0x3dacffc1	0.08447219
37	0xbdada629	-0.08478958
38	0x3d7c376a	0.061576284
39	0x3db92485	0.09040169
40	0x3de93159	0.113863654
41	0xbdcbfc54	-0.09960237
42	0x3dc0adb3	0.094081305
43	0x3cf87fad	0.030334318
44	0x3d2099a4	0.039209023
45	0x3dedd340	0.11612558
46	0x3dbc2b03	0.09187891
47	0x3dbf9e7c	0.093564
48	0x3dc1ca65	0.09462432
49	0x3db96770	0.09052932
50	0x3d82f0cd	0.06393585
51	0xbd6503c8	-0.05591181
52	0x3da1ecad	0.079064704
53	0xbdbd3d7e	-0.09240244
54	0xbd1991b6	-0.037492476
55	0x3d962f8e	0.07333289
56	0x3d1db899	0.038506124
57	0xba8f6b66	-0.0010942041
58	0x3d9f5fe5	0.07781962
59	0xbda998bd	-0.08281086
60	0x3caac63a	0.020846475
61	0xbc1196c1	-0.00888604
62	0xbde01c3e	-0.10942887
63	0x3d439994	0.047753885
64	0x3cd2ddbe	0.0257405
65	0xbc5cf27b	-0.013485546
66	0x3d916600	0.07099533
67	0x3c98c09f	0.018646536
68	0x3b383304	0.002810658
69	0xbdb7bffa	-0.089721635
70	0x3d66088e	0.056160502
71	0xbb2af400	-0.0026085377
72	0x3b821e45	0.0039708936
73	0x3da45d6c	0.08025631
74	0xbd93627f	-0.07196521
75	0x3c3d4470	0.011551961
76	0xbdd9a3ed	-0.106269695
77	0x3d268c61	0.04066122
78	0xbdc87f2f	-0.09789883
79	0xbbb9e790	-0.0056733564
80	0xbdc2ea2a	-0.095173195
81	0xbd636a05	-0.05552103
82	0xbcfa8932	-0.030582998
83	0xbc1a9e68	-0.009437181
84	0x3d945b0d	0.07243929
85	0x3d968690	0.073498845
86	0xbde3dde7	-0.11126309
87	0x3dd03bf7	0.101676874
88	0xbdc674b9	-0.09690232
89	0x3d27722d	0.04088037
90	0xbcb22ad4	-0.021748938
91	0x3d96f8d9	0.07371683
92	0xbdfe8299	-0.12427253
93	0x3dbe64fb	0.09296604
94	0x3d93fd42	0.072260395
95	0xbd814830	-0.06312597
96	0xbdaa6115	-0.08319298
97	0xbdbf9b9b	-0.09355851
98	0x3d9ada73	0.07561197
99	0xbd48fdca	-0.049070157
100	0x3d12f8a6	0.03588166
101	0x3d1086bb	0.03528474
102	0x3c6f4f33	0.014606285
103	0x3cbdec41	0.023183944
104	0xbd6597e0	-0.056053042
105	0x3dc0d5ee	0.09415804
106	0x3d9fcab4	0.078023344
107	0x3bbc698c	0.005749887
108	0xbdd62282	-0.104558006
109	0xbd436eb6	-0.047713004
110	0x3dc14670	0.09437263
111	0x3dc34932	0.09535445
112	0xbdf71af6	-0.12065689
113	0x3dab2aaa	0.08357747
114	0x3d69bf91	0.057067458
115	0x3d99dcb8	0.07512802
116	0xbc997608	-0.01873304
117	0x3dcf6eef	0.10128581
118	0xbd3b308d	-0.0457006
119	0xbba22aad	-0.004948935
120	0x3d86fa15	0.06590668
121	0xbda8a21c	-0.08234045
122	0x3d66acc1	0.056317095
123	0xbc9044b7	-0.01761089
124	0xbdf6005d	-0.12011788
125	0xbdd71a21	-0.105030306
126	0xbdcf9e98	-0.10137671
127	0x3d079a75	0.033106286
128	0x3d9b300f	0.07577526
129	0xbda9c8c9	-0.0829025
130	0xbdaed83c	-0.08537337
131	0x3c6aaf0b	0.01432396
132	0x3d21aa88	0.039469272
133	0x3d38bde9	0.045102987
134	0x3db73fa3	0.089476846
135	0xbca4ebd8	-0.02013199
136	0x3da09e06	0.078426406
137	0x3dcfdcf4	0.10149565
138	0xbdec5484	-0.115395576
139	0x3ddadcca	0.106866434
140	0x3dd24ad6	0.1026818
141	0x3dce42ca	0.10071333
142	0xbcb93663	-0.022608941
143	0xbc7f2ed6	-0.015575131
144	0xbbcdb97d	-0.0062782154
145	0xbc123e28	-0.008925952
146	0xbca84e43	-0.02054513
147	0x3d861834	0.06547585
148	0x3d85767b	0.06516739
149	0xbd965f61	-0.07342411
150	0x3d9f09a2	0.07765509
151	0x3d9c65f9	0.07636637
152	0x3d60de29	0.05489937
153	0x3d8bf48e	0.068337545
154	0x3b4c1e2d	0.0031145916
155	0x3d0dbe52	0.03460533
156	0xbdbbb884	-0.09166053
157	0xbd91ca93	-0.07118716
158	0x3d8e3f10	0.06945622
159	0xbdb58650	-0.08863509
160	0xbd00f28b	-0.031481307
161	0x3dd750a6	0.10513429
162	0xbd548522	-0.051884778
163	0x3d019d85	0.031644363
164	0x3de66e26	0.11251478
165	0x3d7e31ac	0.06205909
166	0xbb312570	-0.002703037
167	0xbde98cd0	-0.11403811
168	0x3d54ee61	0.05198515
169	0x3d9064d6	0.07050483
170	0x3c645fc4	0.013938848
171	0x3ce76151	0.028244646
172	0x3dd9c1e3	0.10632684
173	0xbd39d0ef	-0.04536527
174	0x3d984020	0.07434106
175	0x3db88e14	0.09011474
176	0x3d96778c	0.073470205
177	0xbdae5cb9	-0.08513779
178	0xbd7963e4	-0.06088628
179	0x3da3e189	0.08002002
180	0xbd475358	-0.048663467
181	0xbdceb99b	-0.10093995
182	0x3d5c16dc	0.053732738
183	0x3d5a42a3	0.053286206
184	0x3d9fcafb	0.07802387
185	0xbcd8950a	-0.026438255
186	0x3dc4d513	0.09610953
187	0x3d42130f	0.047381457
188	0xbd9d2ef1	-0.07674969
189	0x3d5498ce	0.05190354
190	0xba96dd50	-0.0011510048
191	0x3b5be9e8	0.0033556167
192	0xbdcb6dad	-0.09933028
193	0xbdef4fb1	-0.11685122
194	0xbd471ac6	-0.048609518
195	0x3b481e6e	0.0030535716
196	0x3d4d91e4	0.05018796
197	0x3ded72fb	0.115941964
198	0xbc49adbe	-0.01230949
199	0xbdaa31c0	-0.0831027
200	0x3c8c27f2	0.017108891
201	0x3dc3cc0a	0.09560402
202	0x3a8cce05	0.0010742551
203	0xbd913974	-0.070910364
204	0x3d878ff2	0.06619252
205	0xbd44ee84	-0.04807903
206	0xbc644419	-0.013932251
207	0x3dc29e8b	0.09502896
208	0xbc40b0e1	-0.011760921
209	0x3d236645	0.039892454
210	0xbd76f3b2	-0.060291
211	0xbcd9844b	-0.02655234
212	0x3d8cc707	0.06873899
213	0x3d0200a9	0.03173891
214	0xbd9fabc9	-0.07796437
215	0x3d1285e9	0.035772238
216	0x3d085267	0.03328171
217	0x3c38e6a3	0.011285457
218	0xbd4ca64b	-0.049963277
219	0x3d5b8e0f	0.053602275
220	0x3d2dfba8	0.042476326
221	0x3d745709	0.059653316
222	0xbc976056	-0.018478554
223	0xbce9aae9	-0.02852388
224	0xbd4a20ab	-0.04934756
225	0xbd838d9f	-0.064234965
226	0x3d9c77d0	0.0764004
227	0xbdea5ffa	-0.11444087
228	0xbdfc74d9	-0.123269744
229	0x3da4fb07	0.08055692
230	0x3c42f6ba	0.0118996445
231	0xbd52d092	-0.05146844
232	0x391a78d2	0.00014731594
233	0xbd7f09d3	-0.06226523
234	0xbc5be816	-0.013422033
235	0xbde8f2f4	-0.11374465
236	0xbc34c3a3	-0.011032972
237	0x3d42d8d1	0.047570053
238	0xbdc00741	-0.093763836
239	0x3da69c9c	0.081353396
240	0x3d6dbbfb	0.0580406
241	0x3d0b24c0	0.033970594
242	0xbccb8b51	-0.024846705
243	0xbd48ea5d	-0.04905163
244	0xbd002e4a	-0.031294145
245	0x3d92f372	0.0717534
246	0xbdc552f1	-0.096349604
247	0x3d61574e	0.0550149
248	0x3df966c8	0.12177807
249	0x3d8a5ab6	0.06755583
250	0xbd1dab8a	-0.03849367
251	0x3da752de	0.081701025
252	0x3da33d99	0.07970733
253	0x3d77af20	0.060469747
254	0xbdc2ee87	-0.09518152
255	0xba8affe8	-0.001060483

rnn.weight_hh_l1 f4 [224, 224]
0	0xbdb63124	-0.088960916
1	0xbc047c14	-0.008086223
2	0x3e0044a3	0.12526183
3	0xbd5bb0de	-0.05363547
4	0xbdc570bf	-0.09640645
5	0x3c80f068	0.015739635
6	0xbd5f1769	-0.054465685
7	0xbd4954e4	-0.049153224
8	0xbdca35f4	-0.09873572
9	0xbce5a4ec	-0.028032742
10	0xbaf4e1ea	-0.001868305
11	0x3dc7b07d	0.09750459
12	0x3d99ae5c	0.075039595
13	0x3df2868d	0.1184207
14	0xbd3e1b8c	-0.04641299
15	0x3d59fe22	0.053220876
16	0x3d87fbc5	0.06639818
17	0x3da39815	0.07987992
18	0x3d2dd62f	0.04244059
19	0x3dbc97b6	0.09208624
20	0x3d79b7e6	0.060966395
21	0xbd345911	-0.044030253
22	0xbda839d1	-0.082141526
23	0xbd5c11ab	-0.053727787
24	0x3d11af05	0.035567302
25	0xbd94f4d4	-0.0727326
26	0xbde1a48e	-0.110177144
27	0xbd9aeb59	-0.0756442
28	0x3d7bde58	0.06149134
29	0xbde19003	-0.11013796
30	0xbda1c665	-0.07899169
31	0x3d8333b1	0.06406344
32	0xbd9dc3af	-0.07703339
33	0xbd0e7d56	-0.0347875
34	0xbd0a55cc	-0.03377323
35	0xbc0acd5e	-0.008471815
36	0x3ddddbcf	0.10832941
37	0x3da1ae60	0.078945875
38	0x3b74d940	0.0037360936
39	0xbba24fd0	-0.004953362
40	0xbda067b7	-0.07832282
41	0xbdb385ae	-0.08765732
42	0xbdbb3fd0	-0.09143031
43	0xbd4e12f5	-0.050311048
44	0xbdd77be2	-0.10521676
45	0xbda19d95	-0.078913845
46	0x3d57ea12	0.05271346
47	0xbc47b5ee	-0.0121893715
48	0xbc037996	-0.008024594
49	0x3be7b55a	0.0070711793
50	0xbadeee2c	-0.0017008237
51	0xbc0848f5	-0.008318176
52	0xbd103d94	-0.035214975
53	0x3c554ccb	0.013018797
54	0x3df66ff3	0.12033071
55	0xbd42aa16	-0.047525488
56	0x3dc43c4e	0.09581815
57	0xbdeff479	-0.11716551
58	0xbdd6d091	-0.10489
59	0x3cbd2ad1	0.023091706
60	0xbda51a11	-0.080616124
61	0xbdabbafe	-0.08385275
62	0x3d27367c	0.040823445
63	0xbd2a0f68	-0.0415186
64	0x3db855f2	0.09000768
65	0x3dc3dc8d	0.09563551
66	0xbc8221b5	-0.015885213
67	0x3d927562	0.07151295
68	0xbd05190f	-0.0324946
69	0xbd615856	-0.055015884
70	0x3d0edeae	0.034880333
71	0xbd29175c	-0.041282043
72	0x3dce1700	0.10062981
73	0x3dd712cf	0.10501634
74	0xbdd73afd	-0.10509298
75	0xbc68534f	-0.014180019
76	0xbd3fe758	-0.046851486
77	0x3d24bf08	0.040221244
78	0x3dd5d4f6	0.1044101
79	0x3d1640df	0.03668296
80	0x3d3f44de	0.046696536
81	0x3d099fd1	0.03359968
82	0xbdb8b51c	-0.09018919
83	0x3d07e2ab	0.03317515
84	0x3bbdadd3	0.0057885437
85	0xbd2de4a6	-0.042454384
86	0xbdceed92	-0.10103907
87	0xbcb75977	-0.022381527
88	0x3c1ba8ec	0.009500723
89	0x3d87a672	0.06623544
90	0x3d1583cd	0.03650265
91	0x3dd5a262	0.10431363
92	0x3dc08da0	0.09402013
93	0xbc8b5d18	-0.017012164
94	0xbc0ee998	-0.008722685
95	0xbd9f79bd	-0.077868916
96	0xbbf0ec5b	-0.0073523945
97	0xbd2fedf8	-0.042951554
98	0xbd412dc0	-0.04716277
99	0xbddec30b	-0.10877045
100	0xbd906ef2	-0.07052411
101	0x3dc1ee6c	0.094693035
102	0x3dbe338a	0.09287174
103	0xbdfa96e1	-0.12235809
104	0xbd73538e	-0.059405856
105	0x3e0342ec	0.12818497
106	0xbc887a8b	-0.016659996
107	0xbdca6ae7	-0.09883671
108	0x3d72d161	0.05928171
109	0x3b2d01b2	0.0026398716
110	0x3d2a99df	0.04165065
111	0x3d75062e	0.059820347
112	0xbc7a21b6	-0.015266826
113	0xbd77657e	-0.060399525
114	0xbda95568	-0.08268243
115	0xbda748f3	-0.08168211
116	0x3daa51b0	0.08316362
117	0x3c2e1508	0.010625131
118	0x3d99f251	0.07516921
119	0x3d93434c	0.0719057
120	0x3dc93dae	0.098262176
121	0xbdcb75df	-0.099345915
122	0xbda3745e	-0.0798118
123	0x3cc017ec	0.023448907
124	0xbd61636d	-0.05502646
125	0xbcd587d9	-0.026065754
126	0x3d74443a	0.05963538
127	0xbddcc40c	-0.107795805
128	0x3d2b9098	0.041885942
129	0xbd9d41e8	-0.07678586
130	0xbd103841	-0.035209898
131	0xbdd29648	-0.1028257
132	0xbddb2c8f	-0.10701858
133	0xbd451248	-0.048113137
134	0x3c546d71	0.012965546
135	0xbd891529	-0.06693489
136	0xbd9b2438	-0.075752676
137	0x3d421766	0.047385596
138	0x3d49b492	0.04924447
139	0x3db0350d	0.08603869
140	0xbc2030ed	-0.00977729
141	0x3bbf2444	0.0058331806
142	0x3d2b196b	0.041772287
143	0xbd0d0d92	-0.03443677
144	0x3ca32765	0.019916246
145	0xbdb1f685	-0.08689598
146	0x3dd2abd4	0.1028668
147	0x3d593206	0.05302622
148	0x3da3f968	0.08006555
149	0x3d4cef5b	0.050032955
150	0xbd995746	-0.07487349
151	0xbcfa9698	-0.030589387
152	0x3cb68f31	0.022285076
153	0x3c824cca	0.015905757
154	0x3de0be8d	0.10973845
155	0x3dd98a30	0.1062206
156	0x3d89ba96	0.067250416
157	0xbd4461f4	-0.047944978
158	0xbd855913	-0.0651113
159	0xbdaa3dfc	-0.08312604
160	0xbafb1354	-0.001915554
161	0x3ce80bc1	0.028325917
162	0xbd557410	-0.05211264
163	0x3db121ce	0.08649026
164	0x3db29bee	0.087211475
165	0xbdf44f7b	-0.11929222
166	0xbdae2061	-0.085022695
167	0x3cfa0aaa	0.030522663
168	0xbdcd27f8	-0.10017389
169	0x3d34284b	0.04398374
170	0x3d53c09c	0.05169736
171	0x3c4609b3	0.012087273
172	0xbd62280c	-0.055213973
173	0x3b114a6c	0.0022169603
174	0x3dcc3cab	0.09972509
175	0xbcf8d482	-0.03037477
176	0x3d5ab2e5	0.053393263
177	0xbdca72b2	-0.09885158
178	0xbc66ccb5	-0.014086892
179	0x3dada8df	0.08479475
180	0xbd64152d	-0.055684257
181	0x3c9dbb51	0.019254358
182	0xbd74ed03	-0.059796344
183	0xbdb40dd0	-0.08791697
184	0x3d68d5e2	0.0568446
185	0xbd870561	-0.06592823
186	0xbd7e1834	-0.0620348
187	0xbc21c3c2	-0.009873332
188	0xbd8ac4e2	-0.06775834
189	0x3dafa12a	0.085756615
190	0xbd88e00e	-0.0668336
191	0xbd1cfd0a	-0.038327254
192	0x3dcc5e89	0.09978969
193	0x3dc92389	0.09821231
194	0xbdd511a5	-0.10403756
195	0xbc36f2c0	-0.011166275
196	0xbd830795	-0.063979305
197	0xbdbdfd38	-0.09276813
198	0x3ce28e7a	0.027655829
199	0xbd0280d6	-0.03186115
200	0x3ddb4d75	0.10708133
201	0x3d73358a	0.05937723
202	0x3c11dd7a	0.008902902
203	0x3d46ac6d	0.04850428
204	0x3cbb1328	0.022836283
205	0x3dd9fdbe	0.106441006
206	0x3d8d9329	0.06912834
207	0x3d0c1eac	0.03420894
208	0x3dac161a	0.08402653
209	0xbdb90835	-0.090347685
210	0xbafa6940	-0.0019104853
211	0xbccc36f1	-0.024928542
212	0x3d311a05	0.043237705
213	0x3cba53a1	0.022744955
214	0x3d67b816	0.056572042
215	0x3d2e3326	0.042529248
216	0xbdd9cc37	-0.10634654
217	0xbd76fe92	-0.06030137
218	0xbd96dc24	-0.07366207
219	0x3dcc30bb	0.09970232
220	0x3dd395e0	0.10331321
221	0xbdbb3159	-0.09140272
222	0x3bdad5bd	0.0066783116
223	0xbde28954	-0.110613495
224	0x3cb71020	0.022346556
225	0x3d1ea9af	0.03873604
226	0xbb657a41	-0.0035015496
227	0x3d812ee9	0.063077755
228	0x3d827301	0.063695915
229	0xbcab31d7	-0.020897789
230	0xbddc0e15	-0.107448734
231	0xbde7b6d8	-0.113141716
232	0xbd0b7caf	-0.034054454
233	0x3dc0050d	0.09375963
234	0x3d25ceb2	0.040480323
235	0xbcc1d507	-0.02366115
236	0x3ced641e	0.028978404
237	0xbcec4653	-0.028842127
238	0xbd900c4d	-0.07033596
239	0x3d4d567e	0.050131314
240	0x3ceadf7b	0.028671017
241	0xbce9b0e0	-0.028526723
242	0x3dc8dff7	0.09808343
243	0xbbffd74b	-0.0078076473
244	0x3d0dd91e	0.034630887
245	0xbdd6c23b	-0.10486265
246	0x3d2784a5	0.040897984
247	0xbd44633b	-0.047946196
248	0xbc997459	-0.018732237
249	0xbd62bf0f	-0.05535799
250	0xbcfed654	-0.031108059
251	0xbdc155a3	-0.09440162
252	0xbdbdbc65	-0.09264449
253	0x3df4cc1c	0.11952993
254	0x3db0dc7e	0.086358055
255	0x3d03c8ba	0.03217385

rnn.bias_ih_l1 f4 [224]
0	0x3a776787	0.0009437729
1	0xbc3ade11	-0.011405484
2	0x3b62a3a2	0.0034582396
3	0x3b338533	0.0027392625
4	0xbc500e46	-0.012698716
5	0xbc836418	-0.01603894
6	0x3ba26fe2	0.004957185
7	0x3c2b5250	0.010456637
8	0xbbb30329	-0.005463023
9	0xbb7724fe	-0.0037711258
10	0xb88d83de	-6.747966e-05
11	0xbc7abdc5	-0.015304034
12	0x3b5ae4c4	0.0033400515
13	0x3bf40fa3	0.007448153
14	0x3ba33951	0.004981198
15	0xbbc385c0	-0.005966872
16	0x3b6038d4	0.003421356
17	0x3b0f2a5f	0.0021845323
18	0xbb85f3cf	-0.004087902
19	0xbb1c4ee8	-0.0023850743
20	0xb9621383	-0.00021560308
21	0x3a5d5796	0.0008443532
22	0xbbdfdc9a	-0.0068317177
23	0xbc24be19	-0.010055088
24	0x3c215f4a	0.009849379
25	0x3c3e32b5	0.011608769
26	0xbb2dde37	-0.0026530155
27	0xbb48026f	-0.0030519029
28	0x3c14b119	0.0090754265
29	0xbba2ce0e	-0.0049684113
30	0xb9961837	-0.0002862827
31	0xbc2a6dbb	-0.010402138
32	0xbbda0fac	-0.0066547003
33	0xbb83f3be	-0.004026859
34	0xbbeca252	-0.0072214985
35	0xbc9e8712	-0.019351516
36	0x3926efb2	0.00015920287
37	0x3ab13652	0.0013520217
38	0xbbd8bae5	-0.0066140764
39	0xbbbf5946	-0.0058394996
40	0xbb766ecc	-0.0037602661
41	0x3c990c5d	0.018682653
42	0xbc4e425e	-0.012589065
43	0xbbf3c614	-0.0074393842
44	0xbb845253	-0.004038134
45	0x3c1c6078	0.009544484
46	0xbb9d2ea1	-0.0047968184
47	0x3c2d20b1	0.010566876
48	0x3b9b0f1c	0.004732026
49	0xbbfd336e	-0.007727078
50	0xb701e515	-7.7423365e-06
51	0xbb513d4b	-0.0031927403
52	0xbc07449a	-0.008256102
53	0x3a1bfdbe	0.00059505913
54	0x3abf55a0	0.0014597662
55	0xbbd4bf80	-0.006492555
56	0x3b80d143	0.003931196
57	0x3bcee33a	0.0063137086
58	0x3c4a5cf9	0.012351268
59	0x3bf8b7ed	0.007590285
60	0x3b1c8d32	0.002388787
61	0xbaf9c815	-0.0019056821
62	0xbbae9b23	-0.0053285523
63	0x3bc743ae	0.006081066
64	0x3c0a5496	0.008443018
65	0x3c74dc1b	0.014945055
66	0xbc0bba29	-0.008528271
67	0x3b81022b	0.003937026
68	0xbb8b68d8	-0.0042544417
69	0x3b0ea3c4	0.0021765092
70	0xba7bd4c1	-0.0009606593
71	0x3bdfd268	0.0068305023
72	0xbbaaedec	-0.005216351
73	0x3bd00adf	0.006348952
74	0xbc3206a3	-0.01086584
75	0xbb870a19	-0.004121077
76	0x3b29bf2c	0.00259013
77	0xbc133fc4	-0.008987371
78	0x3bfe92d2	0.007768967
79	0x3c686229	0.014183559
80	0xbb06daa8	-0.0020577107
81	0xbb4d0631	-0.0031284208
82	0xbb761757	-0.0037550533
83	0x3c2ec9be	0.010668216
84	0x3b959d9e	0.0045659086
85	0x3b44e98e	0.0030046436
86	0x3c2faf9a	0.010723019
87	0x3abb2125	0.0014276846
88	0x3bc65382	0.0060524354
89	0x3b310966	0.0027013659
90	0x3bd0b839	0.0063696173
91	0x3b367fef	0.002784725
92	0x3bd67986	0.0065452484
93	0x3c51a2a6	0.012795126
94	0xbc6174f1	-0.013760791
95	0xbc1fb76a	-0.009748319
96	0x3b8ca0a1	0.0042916094
97	0x3b921b43	0.0044588163
98	0x3ad426d0	0.0016185883
99	0x3c6fe460	0.014641851
100	0x3c1a5f06	0.009422069
101	0x3c1baaf0	0.009501204
102	0x3c214222	0.009842427
103	0x3c01d6af	0.00792472
104	0xbaa41578	-0.0012518605
105	0xbb8e4578	-0.0043417774
106	0xbc876365	-0.016526887
107	0xbbd9a7af	-0.006642304
108	0x39fcf883	0.0004825034
109	0x3aa977eb	0.0012929415
110	0x3c4345c0	0.011918485
111	0x3c38b125	0.011272703
112	0x3bf4deaa	0.0074728327
113	0xbbebb8ff	-0.007193684
114	0xbb244158	-0.0025063362
115	0x3ada9621	0.0016676822
116	0x3a132cad	0.0005614262
117	0xbbfce9d9	-0.0077183065
118	0xbb8ca49c	-0.004292084
119	0x3946f1be	0.00018972807
120	0x3b230789	0.0024876317
121	0xbc32d2eb	-0.010914545
122	0x3aa98be3	0.0012935366
123	0xbab5ddba	-0.0013875284
124	0x3b347171	0.0027533437
125	0xbc3c34b1	-0.011487172
126	0xbb6bb225	-0.0035964337
127	0xbae4b3ec	-0.001744864
128	0xb9fb3f69	-0.00047921695
129	0x3c17d72c	0.00926761
130	0x3b0df71a	0.0021662177
131	0xbc5068a2	-0.012720259
132	0x3bc95ba2	0.0061449567
133	0xba139e86	-0.0005631227
134	0xbc3cf00d	-0.011531842
135	0xb9bad6ad	-0.0003563663
136	0x3b49b472	0.003077772
137	0xbc1a9a08	-0.009436138
138	0xbc29e32b	-0.0103691025
139	0xb8bb7964	-8.9394656e-05
140	0xbbe2f0fd	-0.0069257007
141	0x3ac12d03	0.0014738146
142	0x3935b2af	0.0001732807
143	0x3b891100	0.0041829348
144	0xba83471f	-0.0010015703
145	0x3c49df5d	0.01232132
146	0x3bc3fdfd	0.0059812055
147	0x3c207d77	0.009795538
148	0xbbf145d9	-0.007363063
149	0xbb316254	-0.0027066665
150	0x3c1677a0	0.009183794
151	0xba228d56	-0.000620087
152	0x3b12f21b	0.0022422138
153	0xbb44c15a	-0.0030022473
154	0x3bddde12	0.0067708576
155	0xbb2aeb58	-0.0026080217
156	0xbbf75991	-0.007548519
157	0xbab2a3d3	-0.0013629146
158	0xbc538909	-0.01291109
159	0x3aff9487	0.0019499221
160	0x3ad090f0	0.0015912335
161	0xbc1061f7	-0.008812419
162	0x3c4350e5	0.011921142
163	0x3b2ecfec	0.0026674224
164	0x3a037e13	0.000501604
165	0x3bbb21e6	0.005710828
166	0xbc120641	-0.008912624
167	0xbbd859e7	-0.006602514
168	0xbb48affd	-0.0030622475
169	0xbbc9c67c	-0.0061576944
170	0x3af679a7	0.0018804566
171	0x3c16e15f	0.009209006
172	0xbbc127ea	-0.0058946507
173	0x3a4057bb	0.00073372916
174	0xbc084a0b	-0.0083184345
175	0xbc43bf7a	-0.011947507
176	0xbad0d1d3	-0.0015931673
177	0x3b889910	0.004168637
178	0x3bb031a5	0.005377012
179	0xbc06900a	-0.0082130525
180	0x3c331fc0	0.010932863
181	0x3c1def46	0.009639567
182	0xbbe067d7	-0.006848316
183	0xbc1767b7	-0.009241036
184	0xbb4ae1dc	-0.0030957377
185	0x38f28f86	0.000115661926
186	0x3a81449d	0.0009862367
187	0x3ac92050	0.0015344713
188	0x3b2b38dd	0.0026126422
189	0x3b228181	0.0024796429
190	0x3c19fe52	0.009399014
191	0xbb85e41a	-0.0040860297
192	0x3baa200a	0.0051918076
193	0xbc948bee	-0.01813313
194	0x3ab6b758	0.0013940139
195	0xbbe2e06a	-0.006923725
196	0xbc1b01fd	-0.009460923
197	0xbc00996c	-0.007849079
198	0xbb8db8da	-0.0043250145
199	0x3bafa9ad	0.005360803
200	0xbb8ed261	-0.004358575
201	0xbabb575f	-0.0014293006
202	0xbc2d93dc	-0.010594334
203	0xbc1eb733	-0.009687233
204	0xbc8783be	-0.016542312
205	0xbb865d74	-0.004100496
206	0x3b431c16	0.002977138
207	0x3c4d467e	0.012529014
208	0xbb26c9e9	-0.0025449938
209	0x3adaed16	0.0016702737
210	0xbb0db85d	-0.0021624782
211	0x3bd260f6	0.00642025
212	0x3c54db1f	0.012991696
213	0xbb061708	-0.0020460505
214	0xbaba162a	-0.0014197279
215	0x3c601eae	0.01367919
216	0x3c3382ce	0.010956479
217	0xba102be6	-0.00054997054
218	0x3c63c2db	0.013901438
219	0x3a51f2e3	0.000800891
220	0x3a509c16	0.0007957829
221	0xbc44a711	-0.012002722
222	0xbc489692	-0.01224293
223	0x3c62590d	0.013815177
