Models/best_model_GRU_WITH_DROPOUT.pth (torch, 600672 bytes, 9 tensors)

gru.weight_ih_l0 f4 [384, 1]
00000000: b76c 92bc 358d 4e3d 2cc7 f03d 71fb 8e3d
00000010: f4e7 203d 9f25 70bd 22a7 91be 5495 53be
00000020: 2ef3 1ebe 429c e53d 4da2 4eb9 763d 023e
00000030: d1e1 4cbd bc6b 803d 9af9 62bb 7b4e 58be
00000040: 4594 46be 14b3 f6bd effb cebd 37eb d2bd
00000050: 5291 bbbd 773a d63d 3f44 39bb 7b90 92bc
00000060: fea2 babc 0cb9 2dbd d253 b6bd 7aed 03be
00000070: 8398 223c e554 88bd be86 95bd 2516 dbbd
00000080: 6217 d33c 0915 a23d a133 043c 8480 ea3c
00000090: 6a0f 8abd b673 14bd c8e0 133e 4142 e5bd
000000a0: 76d5 093d d071 90bd 3081 d1bb 416e 43bd
000000b0: 66de babd 4cff 8b3d 3bc1 463d beb8 a3bd
000000c0: 2eab d43d 141e b63d 7a83 7cbd 3645 2abd
000000d0: e4a4 08be f37c f03c 8b83 51bd e9a1 12be
000000e0: 8099 253d d0ad ee3d 0f61 4b3d 779b 863d
000000f0: 0b4c 81be 5317 123d 7b26 e2bd bd89 1ebe
00000100: 6475 243d c877 fb3c 967f 873d c7f9 813e
00000110: 9c0f d9bd 46aa 90bd 12a9 e43c 8650 e9bd
00000120: 9f51 d2bc 3207 68bb b8e2 393e e006 a63c
00000130: 506e 95bd 7521 f93c b266 8c3d 04a3 34bd
00000140: 1e58 813c c36c 85be 8d36 12be f7e4 c7bd
00000150: b430 aa3b ae81 e83d 6c5f 05be 6c80 4dbe
00000160: 12ec d7bd 464c 8bbd abdd 863d 3237 8abd
00000170: d2ec d3bd 0fb7 7a3d df9c ddbd 51c3 99bd
00000180: bb31 adbd 28f4 08bd b88f 0d3d 867b e7bc
00000190: 39e1 f23c f2e7 d53c b7a2 413e 753d b2bd
000001a0: 92f4 a9bc 106f c5bd fe1b e2bd 99c8 023d
000001b0: 8474 3dbc 7565 39bd 5b74 00be b08d 24bd
000001c0: 05ec e2bc db1a 543d b6bc 41bd 799d afbd
000001d0: f62a 1cbe b21e 64be 3781 c3bc dfae 843c
000001e0: 4936 c3bd bc28 92bd 0e54 203e 48a5 18be
000001f0: 4513 58bd 45bb 0fbe 1309 bd3d 560c 853d
00000200: 0e4e efbd 8761 99bd 4c34 53be 4972 ffbb
00000210: 883a 11be 525d a8bd 1494 873b 724e fcbd
00000220: 0133 85bd 8398 9bbd 532c 6d3d 378f 95bc
00000230: 1d0d 86bd a5a1 d4bd d269 92bc b907 6cbd
00000240: 4e3f 07be d637 0cbe 0f1b 763c 6d21 733d
00000250: f76f c6bb eba6 83be 3e14 aebd 9e5f ebbd
00000260: 22cd 04be 061a 2c3e 4d6e dfbd 10bc 45bd
00000270: b552 c2bc 0125 1f3c 10a5 a2bd 018b 823a
00000280: 460e 3b3c d2ce 8e3d 368c 7fbd 9798 1cbd
00000290: 7443 cabc 5708 7dbd 1874 17be e810 3bbd
000002a0: 172c f23d 7b31 9f3d 1360 e53d 25e9 76bd
000002b0: ce1e a13b eb54 edbc 575f c4bd f518 363d
000002c0: a39f 9abd 69eb 3cbd 2acb 493c f0e1 9cbd
000002d0: 23f9 993d 843e 933d 50d5 0cbe 873a 52be
000002e0: b529 df3d 03c1 28bd 8be4 46bc 7670 9d3d
000002f0: fe3b 99bc a2d5 ad3d 6694 a4bd c4b7 543e
00000300: 8d55 25be dad9 37bd fa8f 2ebe 23bc debd
00000310: 8df3 af3d d890 a53c 234d 623d 2b37 97bc
00000320: f37a 9c3d 61f2 b73d 0495 92bd fd52 96bd
00000330: 1b4a 10be a91a 2c3d a749 f5bc f74e f93d
00000340: d3f3 e63d fc4d 96bd 120b 57bd 17f1 f93b
00000350: 90c8 ce3b d4a2 c73c e300 4b3d 5c79 fa3b
00000360: 3dfd aeba e39d d1bd 27f8 ebbd 70dc bfbc
00000370: 3097 fabd d235 623d 55ff 853e 6d10 90bc
00000380: bb7b 70bd 8eb8 23bd 0a62 b83d 5416 d03c
00000390: 8cb0 41be b80e 043e 20b1 6cbd adae 1bbc
000003a0: 9c13 24bc d750 b4bd db53 a13d 30ab dfbd
000003b0: 6cbf e3bc 83af 4f3d 89a2 3bbd 8d83 96bd
000003c0: 764f 54bb 407d edbd 082e 47bd a9d4 76bd
000003d0: 56d5 57be fe08 5ebd 2607 97bd 0566 bbbd
000003e0: 78ed 113e 2afe a0bd 8152 12be 57ca e43d
000003f0: 0d4d f93c 18b9 1b3e cbc5 8d3d a575 0c3e
-0.017874105 0.050427634 0.11756739 0.069815524 0.039283708 -0.05862963 -0.28447825 -0.20662433
-0.15522453 0.112114444 -0.00019706153 0.12718758 -0.050020043 0.06270549 -0.0034633637 -0.21123688
-0.19392498 -0.12045875 -0.10106646 -0.1029877 -0.09158577 0.1046037 -0.0028269438 -0.01789116
-0.022782799 -0.042412803 -0.08902706 -0.12883559 0.009924057 -0.06656817 -0.07301091 -0.10697583
0.025767986 0.079141684 0.00806895 0.028625734 -0.06741221 -0.036243163 0.14441216 -0.111942776
0.033650838 -0.07052958 -0.006393574 -0.04771257 -0.091244504 0.068358034 0.048524123 -0.07994221
0.103842124 0.08892456 -0.061648823 -0.04156991 -0.13344151 0.029356455 -0.05115084 -0.14319576
0.040429592 0.11654246 0.04965311 0.06572621 -0.2525333 0.035666775 -0.11042496 -0.1548223
0.040151015 0.030696765 0.06616132 0.25385877 -0.105986804 -0.07063727 0.02791265 -0.11392312
-0.025673686 -0.003540468 0.18152893 0.02026695 -0.07296431 0.030411461 0.06855525 -0.044100776
0.015789088 -0.2605954 -0.14278622 -0.097604685 0.005193794 0.113528594 -0.13024682 -0.2006852
-0.10543074 -0.068016574 0.065852486 -0.06748809 -0.10347904 0.061209735 -0.108209364 -0.07507957
-0.08456751 -0.03343597 0.03456089 -0.028257143 0.02964841 0.026111577 0.18909727 -0.08703128
-0.020746503 -0.09640324 -0.11040495 0.031929586 -0.011563424 -0.045262773 -0.12544386 -0.040174186
-0.027700434 0.051783424 -0.04729911 -0.085749574 -0.15250763 -0.22277334 -0.023865325 0.016196666
-0.095318384 -0.07136676 0.15657064 -0.149068 -0.05275275 -0.14036281 0.092302464 0.064964935
-0.116848096 -0.07489305 -0.20625418 -0.0077956063 -0.14182484 -0.082209244 0.0041375253 -0.1231965
-0.06503869 -0.07597449 0.0579036 -0.018256767 -0.0654547 -0.10382394 -0.017872725 -0.057624552
-0.13207743 -0.13693175 0.0150211 0.05935805 -0.0060558277 -0.25713286 -0.08499955 -0.11492847
-0.12968877 0.16806802 -0.1090971 -0.048275054 -0.023721078 0.009713412 -0.079416394 0.0009959639
0.011416977 0.069730416 -0.062389575 -0.03823146 -0.024690367 -0.06177553 -0.1479038 -0.04567042
0.11824816 0.077731095 0.11199965 -0.060280938 0.0049170023 -0.028971156 -0.09588497 0.044457395
-0.075499795 -0.046122942 0.0123165045 -0.07660282 0.07518222 0.07189658 -0.13753247 -0.20530139
0.10896627 -0.041199695 -0.01213945 0.07687466 -0.018705364 0.08488013 -0.08036117 0.20773226
-0.16145916 -0.044885494 -0.1704711 -0.10875728 0.085913755 0.020210668 0.055249345 -0.018458923
0.07640638 0.08981777 -0.07157329 -0.073400475 -0.14090769 0.042017613 -0.029942347 0.121732645
0.112769745 -0.07339093 -0.05250079 0.007627617 0.00631053 0.024369635 0.049561393 0.0076438617
-0.0013350617 -0.102351926 -0.11521941 -0.023420542 -0.12235868 0.05522711 0.26171365 -0.017585957
-0.05871175 -0.039970927 0.090030745 0.025401272 -0.18915004 0.1289624 -0.057786107 -0.009502095
-0.010014441 -0.088044815 0.07877322 -0.10921323 -0.027801238 0.05070449 -0.045809302 -0.0734931
-0.0032395995 -0.11596155 -0.048627883 -0.060261402 -0.21077475 -0.054207794 -0.0737441 -0.09150318
0.14250743 -0.07860978 -0.14289285 0.11171406 0.030432248 0.15207326 0.06922492 0.13716753

gru.weight_hh_l0 f4 [384, 128]
00000000: 746a 863d b82d 35bd 5110 57bc ac10 2a3d
00000010: da25 f2bb fa23 ebbb 5b1e 46bd 848e e4bc
00000020: 9e67 edbd aa86 333b fbf5 5f3d 5327 04bc
00000030: 5801 f4bd 04e4 adbd 08e9 b83c c4e4 353d
00000040: fc59 843d 42da a63d 93d1 9ebd fff8 d6bd
00000050: fe4f e03b 2482 2e3e 3b3d 3e3d e6ef bdbb
00000060: 584d debd 3692 d13c 95c4 b73c 5438 eebc
00000070: 10ac 97bd 9120 493c 6a62 493d ea08 383c
00000080: 5e97 903c 3176 98bc 199c 683d dd00 8dbd
00000090: 7403 c13d 27ff ca3d a41f bd3d 7080 9b3d
000000a0: 289a a4bc 9b21 b83b db87 843d 750b da3d
000000b0: 4d31 e2bc ffdd 883c 7843 3fbc 537f 26bd
000000c0: c5b0 5bbc 14c6 8dbc 5efe 923d 8337 9dbc
000000d0: 413f 643d 1361 8ebc 333c 01be 834e 1e3a
000000e0: a39f 9a3d 2b79 023e be72 00be 7f94 693d
000000f0: 7282 cb3d 4143 af3c ac8d 063c 1395 d6bc
00000100: 317d fc39 f727 f3bd 02a5 bcbd 7160 5cbd
00000110: 59d5 033d 58ea 2abe e53b a03d a053 1ebe
00000120: 368e a23d a984 8b3c 9ea2 1a3d dac5 00be
00000130: 8773 173d 9ffd a7bd 71eb 96bc 5d20 733d
00000140: 79cb b3bd d43f e13c 554c 713d f896 e33b
00000150: 02f9 1c3d 8271 073c fcae 66bd 67c4 ecbd
00000160: ffee 9abd 8fd0 80bd e387 01be b80f 90bc
00000170: 7ffa ddbd ac64 de3d 810b 193d c1b2 283d
00000180: b258 02bc 22a7 1b3d c503 003e 597f 7fbb
00000190: b739 393d e507 1b3d 173a 78bc f6d5 2e3d
000001a0: 7795 ee3c 8aea 2a3d 0fad a63c 7b26 c93c
000001b0: b1bc 5a3d 441a 87bd 26fc 9b3d 368b 9cbc
000001c0: ebf6 0a3d a43d 133e 5a8d d1bc e79d 17bd
000001d0: e3f0 a2bd 93df 84bd 3178 4c3d 6d4c 3abd
000001e0: 63b3 19be fe32 3e3d 28d9 753d 9de8 58bd
000001f0: daaa e2bd e26d 873b 27c6 babd d6f7 0b3e
00000200: e6b4 47bd 8d48 9d3d 2289 0a3c a9ae c53c
00000210: 8d64 9f3d 7b1d 02be a471 db3d 71a5 2f3c
00000220: 7540 bebd c688 033d 30fb f63d 3010 623d
00000230: 8e1c 8b3d 4595 8fbd 30ba 3fbd 8638 60bd
00000240: 3c03 113e 8db1 19be 862b 613d 36a6 943d
00000250: 23d5 9cbd 656d b9bd 6c00 0dbe 2b9f 363d
00000260: cb3d 363d 4cfb 1c3d a339 9e3d 90b0 f7bc
00000270: eeff 143d 0581 d9bb 723b 9d3d 4fbe 11bd
00000280: 975c 92bd 22cd 873d 633d c53b b2d5 0f3c
00000290: 06aa d33c 1a27 c73b f36b 8a3c a566 183d
000002a0: c97c 3ebd 748e b3bc fdbe 903c a68e 1739
000002b0: 46b2 b0bd 0b31 d7bd eaf3 e8bd c6cf 0b3e
000002c0: e3e1 d7bb b355 95bd 7be7 b1bc 0ec2 a4bd
000002d0: d85c 82bc 9872 e2bd cd03 c7bc ad36 3c3d
000002e0: ccc2 c0bd e789 6c3d 90b5 f93c 3f4a 07be
000002f0: 88d4 83bc 241a c53c 953d 233c 861f 873d
00000300: 9e85 af3d b235 b73d 73fe 803d e9f2 3cbd
00000310: a0aa 59bd f0af 8e3d db91 13be 297a ea3d
00000320: 8130 0dbd 7a67 173d 8fb7 da3d 29fa aabd
00000330: 9886 21be c1a4 733d 9156 eb3b 1734 4bbd
00000340: b20e 20bd 0c5e 143c 607a 683d 2b29 3abd
00000350: bd04 8f3d ea9d a0bd 16c2 41bd 0866 233d
00000360: 0400 9d3d 67c5 03bd abf0 663d 94fc 10be
00000370: 76f7 f9bc 3db1 46bd ece8 c83d 18c1 b1bd
00000380: e840 283e c10b 103d dac9 a8bd 509d a53c
00000390: 060c 85bb f939 debd a2b3 12be a23a b63d
000003a0: 3769 363e 59ea 2ebd 634b 00be ed14 d13c
000003b0: 1c5c 63bd f15e b63d f29e acba 1cc3 9fbc
000003c0: 32c7 9fbd 5420 57bd 0e6e 66bd 01e2 403d
000003d0: 6edb afbd 7476 933d d2a8 67bd 5a56 54bd
000003e0: 4cf3 fc3d b3c4 963c 70a9 a13b 0e5f d5bc
000003f0: 5a0d 19bd bcb5 01be 8e19 f73d 84c3 32bd
0.06563273 -0.044233054 -0.013126449 0.041519806 -0.007389766 -0.0071759196 -0.048368793 -0.027899988
-0.11592029 0.0027393498 0.054677945 -0.008066016 -0.11914319 -0.08490756 0.022572055 0.04440762
0.06462476 0.08147098 -0.07754817 -0.10496711 0.0068454733 0.17041832 0.046445113 -0.0057964204
-0.10854596 0.025582414 0.022432605 -0.029079594 -0.07405865 0.012275831 0.04916612 0.011232594
0.017650302 -0.018611046 0.05678949 -0.0688493 0.09424487 0.09911948 0.092345506 0.07592857
-0.020093039 0.0056192405 0.06471225 0.106467165 -0.0276114 0.016707418 -0.011673801 -0.04064877
-0.013408844 -0.017306365 0.07177423 -0.01919151 0.055724386 -0.017380273 -0.1262062 0.0006038921
0.075499795 0.12741534 -0.1254377 0.057026383 0.0993699 0.021394374 0.008212488 -0.026194131
0.0004815846 -0.11872857 -0.0921116 -0.05380291 0.032185886 -0.16690958 0.07823924 -0.15461588
0.07937281 0.01703103 0.03775274 -0.12575474 0.03697541 -0.08202671 -0.018422814 0.059357036
-0.08779044 0.027496256 0.058910687 0.006945487 0.03832341 0.008266808 -0.05631922 -0.11560898
-0.07565116 -0.062897794 -0.12649493 -0.01758562 -0.10838794 0.108590454 0.037364487 0.041186098
-0.007955717 0.038001187 0.12501438 -0.0038985817 0.045221057 0.037849326 -0.015150568 0.042684518
0.029124005 0.04172758 0.020346193 0.024554482 0.053402606 -0.06596807 0.07616453 -0.01910935
0.033926886 0.14378983 -0.025580097 -0.03701582 -0.07956102 -0.06487956 0.04991931 -0.04548304
-0.15009837 0.04643535 0.06002155 -0.052956212 -0.110677436 0.004132972 -0.09119826 0.1366876
-0.048756503 0.076798536 0.008455547 0.024131136 0.077828504 -0.12706558 0.107150346 0.010720597
-0.09289638 0.03211286 0.12059629 0.05519122 0.06792556 -0.07010893 -0.04680842 -0.054741405
0.1416139 -0.15009136 0.054973148 0.07258265 -0.0765784 -0.090540685 -0.13769692 0.04458539
0.044492524 0.038325593 0.07725837 -0.030235559 0.036376886 -0.006637695 0.07677354 -0.035581883
-0.07146566 0.06630923 0.0060192808 0.008778976 0.02583791 0.0060776593 0.016897177 0.037207264
-0.046505723 -0.021918513 0.017669195 0.00014453623 -0.08627753 -0.10507401 -0.11374648 0.13653478
-0.006588207 -0.072917365 -0.021716824 -0.080448255 -0.015913412 -0.11057013 -0.024293805 0.04595058
-0.094121546 0.0577487 0.030482084 -0.13211916 -0.016092554 0.024060316 0.009963413 0.065978095
0.08570407 0.089457884 0.06298532 -0.046130095 -0.053141236 0.06967151 -0.14411108 0.114490815
-0.034470085 0.036963917 0.10679542 -0.083484955 -0.15774 0.059483293 0.0071819504 -0.049610224
-0.039076515 0.009055626 0.05675733 -0.045449417 0.06983326 -0.0784262 -0.047304235 0.039892226
0.076660186 -0.03217068 0.056381863 -0.14158851 -0.030513506 -0.04850887 0.09810051 -0.08679408
0.1643101 0.03516746 -0.08241625 0.020216614 -0.004060271 -0.10850901 -0.14326337 0.08897902
0.17813574 -0.04270396 -0.12528758 0.025522674 -0.055507764 0.089048274 -0.0013169928 -0.019502215
-0.07801665 -0.052521065 -0.0562573 0.047090534 -0.08586775 0.072003275 -0.056557484 -0.051840164
0.12351093 0.01840434 0.0049335286 -0.026046302 -0.03736625 -0.12666982 0.12065421 -0.04364349

gru.bias_ih_l0 f4 [384]
00000000: 8fff 4fbd 34f8 48bd 2150 413a bca4 04bd
00000010: ffef 47bd a68d 44bc 4aa8 e6bc c643 96bd
00000020: 6797 62bc 4c92 0ebd bce3 403c efac d5bd
00000030: 2eea 15bd f85e 1fbe 61f4 7b3c 4ee7 c9bb
00000040: 3dca 11bd 7ce4 a3bc d964 d53c d98f 51bd
00000050: ec53 e3bd d6cf 7ebb 43dc a43d 3778 073d
00000060: 899c debd 598d 2ebd 6bcd ddbd c253 ccbd
00000070: 873f 493d 9c05 f73c 7245 bebd aa24 efbd
00000080: 2540 a6bd e697 77bd 0936 ec3c ee50 11bd
00000090: 7f3c 08be 19e9 75bd 4cd7 823c 64c6 50be
000000a0: fa5e 1b3c c728 8abd 4509 22be eca7 90bc
000000b0: 8aee 62bd 4d8f 08bd b5f7 2cbc 3ab6 ba3d
000000c0: b058 763d 39ed 0c3d 85b5 00be 7b4a 4cbd
000000d0: 1e39 7bbd 7498 f0bc ee3d 33bd 445a 493d
000000e0: 31ab 33bc 8113 7fbd 5374 c2bd 7abe 2eba
000000f0: 0108 fbbd 2992 a23c 19fb 82bd df58 2cbd
00000100: ac5a 9dbd e638 e0bc 5324 a03d 8b0e d4bb
00000110: 557d 55bd 7b5f c1bc 5220 72bc 6b57 f2bd
00000120: e75a ccb9 eeb8 263b 99df 0dbe 4bbd 01bd
00000130: f97e ddbd bb94 a3bd 676d b0bd 8412 813d
00000140: 91f0 57bd a261 183c 8dc7 e5bd 3526 e13b
00000150: 3d88 403d 891f cebd 5ef1 88bc ab7a b6bd
00000160: 3085 3cbc 4e75 9abd 49e1 b73d b06b 6bbd
00000170: 189b 513d 2590 f4bd 9666 70bc fcaf 05be
00000180: 5e61 99bb 5646 2e3d e31b b9bc 5a2e ba3c
00000190: eca6 9fbd fa02 13bd daf5 ecbd 929f 883d
000001a0: 2222 e23c 2c19 533b 045e 0fbd 4f35 fdbd
000001b0: 7639 35bd 1ae5 083d ac3b 70ba 5155 ce3c
000001c0: 6e95 2bbe e976 8dbd c1b1 7ebd 71b6 d9bd
000001d0: 15ba fbbc 83ab 27bd 5ed8 d0bc e9e7 633d
000001e0: f6d1 b9bd 34b5 5ebd 2832 64bd 1767 ecbd
000001f0: fe3d efbd c471 69bd e6c1 62bd 060d 1cbe
00000200: 48a5 cb3b 40b2 86bc 141e d5bd cb34 e0bd
00000210: 6b13 acbb a07c 143e 3b96 1bbe bbc3 06be
00000220: 7c7e babb e98a 06be 6ba7 32bd 10d1 e83d
00000230: 9703 efbc 3dd4 49be e9ca bebd 5f24 aebd
00000240: 73ab f8bd f864 ecbd 5707 94bd 8b36 913d
00000250: 570e 063e b9e0 3fbe 00e2 0cbd bd71 71be
00000260: 149c 8cbd 1545 46bd 83d0 b7ba 8e28 c73d
00000270: 3e19 c6bd ad14 abbd 7e35 ca3d 873a 37bc
00000280: 069f aabd fd04 313e fad7 853c e0cb ffbd
00000290: 7e9a 93bd c315 0f3d 1d99 a3bd 23c6 3abd
000002a0: 9c61 d03c 66dc 043e 86f6 5d3e f25f c2bd
000002b0: 2e0b c83d 97e5 5b3c 8355 df3b f839 7d3d
000002c0: 9832 e4bd 68cd 9dbd 20cb a4bd c906 8cbe
000002d0: e562 163d 07f0 b4bc ff8d 9abd fee2 24bd
000002e0: a925 3cbd 6c51 dfbd b135 98bd d86c 07bd
000002f0: a537 103c 94c2 2a3d b7af 493e c404 4e3d
00000300: 3b2f 38bd 0f01 083d f213 e2bd 05ac dfbd
00000310: 95e7 c63d 6373 50bd d7f5 61bd 729e b5bc
00000320: bd3b de3c 2a5e 093d f2d3 e5bd bafa abbd
00000330: e3c4 c0bc 023d 553d 3834 073e b3db 35bd
00000340: 7016 03bb 28bd 863d d710 d33d 6ae6 3c3e
00000350: d62e 383d 819a 07be 7ebe ebbd 5bf0 6b3d
00000360: c0bf 8cbd f64b 17be 1260 bdbc b2a1 e9bd
00000370: 6644 813b 37ab 093c d1fc 4abb 8b1a c63d
00000380: f285 2c3e 2ad6 0d3d c2fd 853e 1ce7 e83d
00000390: 0e68 f43d f5bd b6bd cf6f 24be c0d7 eb3c
000003a0: b38f 403d b402 ee3a c2f7 903d e7e2 8b3d
000003b0: 5de9 9dbd 6fb4 56be 969a aebd 55a5 513d
000003c0: 1ee3 8f3d e343 3cbe 178a 09bd 347f 2abe
000003d0: 4021 ccbb 041b b23d 3d68 8abd bc11 1d3d
000003e0: add8 84bd a8e4 b6bc 18c5 50bd b07c 443d
000003f0: 9c0c 003e 0609 503d 9fff a13d 7b23 cb3c
-0.05078083 -0.04906483 0.0007374306 -0.032383665 -0.048812862 -0.011996662 -0.028156418 -0.073371455
-0.013830042 -0.03480749 0.011773046 -0.10433375 -0.036600284 -0.15563571 0.015378089 -0.006161607
-0.03559326 -0.02000641 0.026049064 -0.051162574 -0.11099991 -0.0038881204 0.08049824 0.03307363
-0.108697005 -0.04261527 -0.10830196 -0.09976913 0.04913285 0.030154042 -0.092905894 -0.11676915
-0.08117703 -0.060447596 0.02883436 -0.03547757 -0.13304327 -0.060036752 0.015971802 -0.2038818
0.009483093 -0.06746059 -0.15823849 -0.017658196 -0.05540327 -0.033339787 -0.010557105 0.09116788
0.060143173 0.03440592 -0.12569244 -0.049875718 -0.061333768 -0.02936957 -0.043760233 0.04915835
-0.010966108 -0.06227446 -0.09494843 -0.00066659565 -0.12257386 0.019845085 -0.06395549 -0.04207694
-0.0768331 -0.027370881 0.07819428 -0.00647146 -0.05212148 -0.023605099 -0.014778214 -0.1183308
-0.0003897764 0.0025439817 -0.13854827 -0.031674664 -0.10815234 -0.079873525 -0.08614617 0.0630236
-0.052719656 0.009300621 -0.11219702 0.0068710097 0.047004927 -0.100646086 -0.016716655 -0.08910116
-0.011506364 -0.07541905 0.089785166 -0.057475746 0.0511733 -0.11941556 -0.014672896 -0.13055414
-0.0046807965 0.042547546 -0.022596305 0.02272718 -0.0779551 -0.03589151 -0.1157033 0.066710606
0.027604166 0.0032211049 -0.03500177 -0.123636834 -0.044244252 0.033421613 -0.0009164165 0.025187166
-0.16756222 -0.06907446 -0.062181238 -0.10630501 -0.03072838 -0.04093505 -0.025493797 0.05564109
-0.0907325 -0.054372028 -0.055711895 -0.115431 -0.11681746 -0.05699326 -0.055360697 -0.15239343
0.0062147714 -0.016442418 -0.104061276 -0.109475695 -0.0052513382 0.14500666 -0.15194027 -0.13160603
-0.0056913476 -0.13138928 -0.043616693 0.113680005 -0.029176516 -0.19709869 -0.09316046 -0.08503031
-0.12142076 -0.11542696 -0.072279625 0.07090481 0.13091408 -0.18738069 -0.034395218 -0.23578544
-0.06865707 -0.048405726 -0.0014023933 0.09724532 -0.09672783 -0.08353553 0.09873484 -0.011183388
-0.083311126 0.17287059 0.016338337 -0.12490058 -0.072072014 0.034932863 -0.079881884 -0.045599114
0.025437169 0.129747 0.21676072 -0.09490956 0.09767757 0.013421438 0.0068156137 0.06182286
-0.111424625 -0.07705194 -0.080465555 -0.27348927 0.036715407 -0.02208711 -0.07546615 -0.04025554
-0.045934353 -0.10904202 -0.07432116 -0.033062786 0.008802329 0.04168947 0.19695936 0.050297514
-0.044966917 0.033204135 -0.110389605 -0.10921482 0.097121395 -0.05089129 -0.05516609 -0.02217028
0.027128095 0.033537067 -0.11222066 -0.08397432 -0.023531383 0.052060135 0.13203514 -0.044398975
-0.0020002387 0.065790474 0.10305946 0.18447271 0.04496654 -0.13242532 -0.11510943 0.057602268
-0.06872511 -0.1477507 -0.023117099 -0.11407794 0.0039449213 0.008402637 -0.0030973444 0.096730314
0.16847971 0.03462807 0.26170164 0.113722056 0.11933909 -0.0892295 -0.16058277 0.028789401
0.047012042 0.0018158765 0.07078506 0.068303876 -0.07710526 -0.20967267 -0.08525579 0.051183064
0.07025741 -0.18385272 -0.03357896 -0.16650087 -0.0062295496 0.08696559 -0.06758163 0.03834699
-0.0648664 -0.022325829 -0.050969213 0.047970474 0.1250481 0.050789855 0.07910084 0.024797192

gru.bias_hh_l0 f4 [384]
00000000: 3a84 993d b795 50bd bf6f 4f3d 363f 803c
00000010: f7c9 df3c 78a6 99bd fc75 9cbd cb0a 0fbc
00000020: ea4e 63bd c7d7 e438 c7e3 163c 876d d9bd
00000030: 1f5e cebc 63a1 18be b1d5 2b3d f333 03bc
00000040: c013 8f3c 3f07 83bd 31ef 0bbe 41b1 10be
00000050: 2494 96bd c0df 683d 46d6 e33c 41df 1dbb
00000060: b456 fcbd 6eeb b4bd 1402 133d bdd8 223a
00000070: 03b8 debd 2315 83bc 8039 80bc a249 09be
00000080: 7c8f 293d 3693 ae3d f649 4fbd 3ce7 81bc
00000090: 7a94 3dbe df72 d7bd 358f 90bd c42d 73be
000000a0: 8933 17bd f852 6a3d e1d4 83bd 7e46 57bd
000000b0: 9c53 7f3c f767 f9ba 380a 57bd 61f9 73bd
000000c0: 7282 48bc eb53 20bd f242 023d 4c99 b23c
000000d0: f03b f5bd 58ae 743b a912 b6bd 8a2e ebbc
000000e0: 34ea c4bc b466 16be 5513 4b3d 55f8 cebd
000000f0: 8e58 e6bd a298 cfbc 956f 75bd ca22 0c3c
00000100: 6eae 32bd 39e2 02bd 21b5 123d cd4c c3bc
00000110: 675d e8bd d7f6 1ebe 46de c23c 9933 fdbd
00000120: eb90 48bd b821 fbbd ca50 e0bd 554f a2bd
00000130: 0312 1fbe d34a 4e3d 751d eb3c 7b1c 433d
00000140: 4718 2d3d 44ac acbd 4c95 38bd d6e6 8abb
00000150: d2a8 25bd d019 6dbd 0ff8 e9bd 86f5 e4bd
00000160: 61d2 b3bd f082 fdbc f754 a23d f8d7 00be
00000170: 127b bf3c 6bec f5bd f67d 273d 99d7 36bd
00000180: 6368 ebbc cd86 1b3d 44cd 86bd 00cb 123d
00000190: d2e8 c33c 7374 c93d 0667 20bd 3cda 78bd
000001a0: 2ceb 5f3d 6580 103d 17eb ecbd d455 0fbe
000001b0: 6f42 a0bd 4877 153c f345 17be ca38 25bd
000001c0: c30d 10be a3b0 143d 8438 d1bd 7276 54bd
000001d0: 9870 f8bd 1bf3 9cbd 1f96 31be 23fe ccbd
000001e0: 41f8 c8bc 8648 e8ba 4519 15bd 6dd4 eabd
000001f0: c6a2 383d be9d f5bc 4021 333c a925 b1bb
00000200: 8e2e 41bd ac2a 15bd 270b 323d 5ff6 07be
00000210: f707 13be 2a53 67bc 1293 44bd 1bfd 07be
00000220: 70f4 1fbd b58f 0bbe 7666 43be 5ef5 223e
00000230: d504 59bd ec45 45be fc9b 87bd 5456 a4bc
00000240: 8a20 e5bd f008 b4bc 764d 0b3c 91b1 153e
00000250: 267b d53c b9ab 6ebe 2fc4 66bd 6cb4 a3bd
00000260: 4b70 04be 3bff 1b3c 5e82 89bd c8fa b53a
00000270: 8bcc 1fbd a6a7 863c da6e 633d 6b7b e8bd
00000280: 6322 fdbd 82fe 533e 6490 bfbc 60b5 2fbe
00000290: 64cb dcbd b305 433e 0dad 08be 8391 96bd
000002a0: 6603 853d 1ba5 143e 8c76 183e 3bc4 7ebd
000002b0: fc4c 61bc 69c4 cc3d 7994 c63c d4fb e13c
000002c0: a3c9 00be ac02 aabd 994c b5bd 4db2 aebe
000002d0: 1bff ea3d d26a ec3d fb7d b1bd ef25 34bd
000002e0: 81ef 17be 7cd0 1abe fdae 9dbd c0a1 62bc
000002f0: 6eff 28bd 76ee bc3d 7b2d 503d e686 ac3d
00000300: 1059 f8bd a4ff a73d 3e52 c7bc 23b9 47be
00000310: 4d7a 583d 6181 0e3c 01fc ab3d 1730 adbd
00000320: 2e49 f33d 5339 993d 60c4 afbd bfba 12be
00000330: 543f 1cbe 0d33 993d 5e25 c43d bfe8 f6bd
00000340: cd4f bf3c f889 9abd 5d9d f43d 128c 053e
00000350: a978 163d 12bc a7bd 89af d3bd 65a1 fe3c
00000360: a9c3 32be a0e3 dbbd 1b4c 11be 3f24 813c
00000370: 38a7 583d 1f9e dc3d 00f1 f23d 7fa8 a23d
00000380: 3e60 033e 6769 d43c 29da 3f3e 5d86 1b3e
00000390: 30f5 ca3d 6e6f c43c d2b3 37bd 9e75 afbd
000003a0: e365 84bd 0ae5 223c d251 393e f6d3 afbd
000003b0: 1edb 30bb 67a1 46be b497 523d d8f0 1c3c
000003c0: 923c aa3d 4483 04be 967c 323d 521e 15be
000003d0: a03c 87bd 35b3 ce3d 8720 05be f13b c93d
000003e0: 0d09 b83d e913 8dbc 4f08 63bd 7a72 2dbd
000003f0: 1aa2 ab3d 4cce f83c 1820 033d 4d99 eabc
0.07495923 -0.05092403 0.05064368 0.015655141 0.027317984 -0.075024545 -0.07639691 -0.008730601
-0.05549518 0.00010912079 0.00920958 -0.10616594 -0.025191365 -0.14905314 0.04195184 -0.008007991
0.017465472 -0.063978665 -0.13665463 -0.14130117 -0.07352474 0.05685401 0.027812134 -0.0024089369
-0.12321225 -0.08833967 0.035890654 0.0006212106 -0.10874941 -0.01600129 -0.015652418 -0.13406995
0.041396603 0.08524172 -0.050607644 -0.015857331 -0.1851367 -0.10519957 -0.070585646 -0.23747927
-0.036914382 0.05720803 -0.06437088 -0.05255746 0.015583899 -0.0019028176 -0.05249998 -0.059563998
-0.012238132 -0.03914253 0.031802125 0.021801613 -0.11974323 0.0037335362 -0.08890278 -0.028708715
-0.024037458 -0.14687616 0.049578983 -0.10105959 -0.11247359 -0.025341336 -0.059920866 0.008553216
-0.04362338 -0.031954024 0.03581727 -0.023840332 -0.1134594 -0.1552385 0.023787629 -0.12363357
-0.04896633 -0.12262291 -0.10952909 -0.07925288 -0.15534215 0.050364327 0.02870057 0.047634583
0.04225948 -0.084312946 -0.045064256 -0.0042389436 -0.040444203 -0.057885945 -0.114242665 -0.111796424
-0.08780361 -0.030946225 0.07926362 -0.12582386 0.023374114 -0.12007984 0.04089161 -0.044639204
-0.028736299 0.037970353 -0.0658212 0.035838127 0.023914728 0.09836664 -0.03916075 -0.060755
0.054667637 0.035278697 -0.11568277 -0.13997585 -0.07825171 0.009122677 -0.14772777 -0.04033736
-0.1406775 0.036301266 -0.102158576 -0.05187077 -0.121308506 -0.07663556 -0.17342423 -0.1000941
-0.02453244 -0.0017721809 -0.036401052 -0.11466298 0.045077108 -0.029982444 0.01093322 -0.005406101
-0.04716354 -0.03641765 0.043467667 -0.13277577 -0.14358507 -0.014118949 -0.04799182 -0.13280146
-0.039051473 -0.13629039 -0.19082054 0.15913913 -0.052983124 -0.19264954 -0.066215485 -0.020060696
-0.11187847 -0.021976918 0.008502355 0.14618517 0.026059698 -0.23307694 -0.05633944 -0.07993397
-0.12933461 0.009521301 -0.06714319 0.0013883943 -0.039013427 0.016437363 0.05552564 -0.11351665
-0.12360074 0.20702556 -0.02338428 -0.17159033 -0.10780981 0.19045143 -0.13347264 -0.07351973
0.06494789 0.14516108 0.14888972 -0.06219886 -0.013751265 0.099984 0.02424072 0.027585901
-0.12576918 -0.08301291 -0.088525005 -0.34120408 0.11474439 0.11543812 -0.08666607 -0.04398149
-0.14837457 -0.15118593 -0.07699392 -0.0138325095 -0.04125922 0.0922517 0.050824624 0.08424167
-0.12126362 0.082030565 -0.024331208 -0.19504218 0.05285101 0.0086978385 0.08397675 -0.08456438
0.11879192 0.07481637 -0.085823774 -0.1432905 -0.15258533 0.0748044 0.0957744 -0.120561115
0.023353482 -0.07545847 0.11944077 0.13041714 0.036736164 -0.081901684 -0.10336215 0.031082818
-0.17457451 -0.107367754 -0.14189188 0.015764354 0.052893847 0.10772347 0.11862373 0.07942294
0.12829682 0.025929166 0.18735565 0.15187974 0.09910047 0.023978915 -0.044849224 -0.085673556
-0.06464746 0.0099423025 0.18097618 -0.0858535 -0.0026986073 -0.19397508 0.051414207 0.009578906
0.08312334 -0.12940699 0.043575846 -0.14562348 -0.0660336 0.10092775 -0.1300069 0.09825886
0.08986101 -0.017221408 -0.055427846 -0.0423455 0.08380528 0.030371808 0.03201303 -0.028637553

gru.weight_ih_l1 f4 [384, 128]
00000000: 2b89 88bd aa4d 453c 00c5 523d 6608 a73d
00000010: d817 613d b6f9 3d3d 330d 2b3d a72e 89bc
00000020: 4820 f0bc 38aa 3e3c c0e8 edbb bbfd 723d
00000030: bee9 cfbb b353 0b3c d23c d4bc 7d89 023e
00000040: 9be8 87bd f70d 9cbd 0e5a c33b 1234 54bd
00000050: aa99 863d 22e4 09bc 1daf c13d 474e 81bd
00000060: 515a a73d ae1d efbc 9f7e a83d 9fbd 253d
00000070: 07c4 643d dfab a83c 0e37 d8bd 427d 0abd
00000080: dd9d e6bb bff8 97bb 0da7 5f3d 9d2d fdbc
00000090: d679 e13d 2fc4 633d 24c8 cebd 27f9 333d
000000a0: 740d ffbb 306a 80bd 8da2 61bd 9839 aabd
000000b0: 9d46 593d 6bbf 44bc 5c86 ad3c b429 d9b9
000000c0: 64f8 813d 5455 ad3d 6b21 0fbd 9edb 1d3e
000000d0: eba4 d73b 6d28 16bd 20b5 3cbc 424a 533d
000000e0: 8e6c c5bd 0c97 14bd 0bdb 363d a1fe a53d
000000f0: a9bb c0bc 3cb8 c83d a4f3 3bbd 7209 10be
00000100: 9356 b03d 9d43 c5bc ff6d 04bd 5e8f 2e3d
00000110: 475a c03c 46ab a93d d3c0 a3bd 4945 cabd
00000120: 7858 973d faf3 22bd 68f9 68bd 365b 2bbd
00000130: 3780 81bc 4ae4 c0bd 1954 96bc 545f 19bd
00000140: 64fe 4c3d 182a 223d 4bb1 b4bd ca73 a6bc
00000150: 1ccc 0cbd fec5 66bd cc42 d9bd 2a3f d0bc
00000160: ed04 0d3d dfda d83d 93be d2bd 6470 15bd
00000170: 8837 c73c 84c3 33bd e0f0 e2bc 6aa5 503d
00000180: 7761 01bc 64aa 4dbd 5c03 b8bd 15fc ad3c
00000190: a3cd ad3d 6ed6 ff3b 6465 c6bb bef3 943d
000001a0: a3b7 8d3c 3afa ba3d 9969 863d 8ab3 483d
000001b0: dbb9 9fbc 7470 853d bdc1 20bd 1fad 04be
000001c0: 16ff dabd 2ad8 df3c 2c8b b7bd 9358 4b3d
000001d0: 6d6f b83d 1944 13bd 21e2 35bd 719b aebc
000001e0: e3e6 323d 5f51 253d 6f55 a43c e1b1 1b3d
000001f0: 90bf 8cbd 872c 9c3c 7336 4dbd edb3 84bd
00000200: 4540 c1bc f712 403d 24e2 a7bd eabe 843d
00000210: 8ed1 a13c e92b f2bd 1d96 bf3c bfa1 37bc
00000220: 14ac 85bd e678 463c 5035 60bd 3bf9 81bd
00000230: cd4d 7e3d 5919 21bb 4fe8 83bd 76fd f6bc
00000240: 95ba 4cbd 9edb 1e3d 9c7c 16bb 6204 c8bc
00000250: 2ab3 f5bc 8692 5abd 9614 c2bc fba0 533d
00000260: 3c82 9ebc a71c c1bd 754a 5e3c 7296 a63c
00000270: d9b3 bb3d 4082 2e3d 2043 b03c 023c 08bd
00000280: 1fab 313d ff91 b83d 3219 1c3d 212f ccbc
00000290: 5bc9 afbd da8c 62bd 0e73 1abb d9d8 a93d
000002a0: 785a 57bd aa8d bebd 1f06 a13d 0a20 b5bc
000002b0: 4e16 dfbb 12eb 1d3d c170 4c3d c8c4 3dbd
000002c0: 29ba b33c 25d8 e0bc 85cb 853d 8eb3 54bd
000002d0: 4084 3f3d c833 1fbd 9963 4a3a 63b4 533c
000002e0: 8730 b6bc c71d 2f3d 2fde 453d 7192 debb
000002f0: 2cb1 8fbd 3ca3 2bbd 2632 ad3a 8633 94bc
00000300: b41b 7bbc 342f 12bd 5273 c23d 3b75 323d
00000310: 6032 b7bd f3e2 cb3a 17f7 f1bd fdba 63bc
00000320: ed42 96bc 15b0 683d a295 783b 081a 7abc
00000330: a0b3 513d 99d2 ca3d f7e2 5dbd d1e6 6ebd
00000340: 74d7 1c3c e06e 31bd b2e0 4ebd 0fd2 483d
00000350: 7a9e e93d 9e90 5a3d c952 c0bc 8222 0e3d
00000360: 0529 c63c 0dce 943d 1a15 d73c 5d30 d93c
00000370: 01e3 9f3d f027 cbbc b75c 74bc 83da b93d
00000380: 96a1 eb3d 9cbc 843c 9714 643d 34aa 42bd
00000390: 730b 33bd bd4c b1bd ac56 503d b3f0 443c
000003a0: cac0 1b3e 92d1 fd3c 3806 5e3b 24f2 8d3d
000003b0: 05f6 3cbd 231b c63c 7d69 8d3c 5db3 fabc
000003c0: 7e38 3dbd 5378 08be ff03 c0bd d0bf 113d
000003d0: e983 e1bc 0c87 d13c 6fd5 6fbd 23a7 6bbd
000003e0: d302 863d 8558 a6bc 29cd f13c 2c6c aabc
000003f0: 2627 9c3d 443b a1bc 7408 083d 972d 943d
-0.06666788 0.012042442 0.051457405 0.08155899 0.05495438 0.04638072 0.041760635 -0.016745878
-0.029312268 0.011637263 -0.007260412 0.059324007 -0.006345003 0.008503842 -0.025907908 0.1274776
-0.06636163 -0.07619851 0.005961663 -0.05180747 0.06572278 -0.0084162075 0.09457228 -0.06313758
0.08171523 -0.029188957 0.08227276 0.04046404 0.05585101 0.020589767 -0.10557376 -0.03381086
-0.0070378617 -0.004637807 0.05460267 -0.03090554 0.110095665 0.055607017 -0.100967675 0.043938782
-0.007783586 -0.06270254 -0.05508666 -0.083117664 0.053045858 -0.012008528 0.021182232 -0.00041420537
0.06346205 0.08463541 -0.03494398 0.15415809 0.006580939 -0.036659647 -0.011517793 0.05158449
-0.09639846 -0.036276862 0.04464249 0.08105207 -0.023526983 0.09800765 -0.04588665 -0.14066103
0.08610263 -0.024080092 -0.032331463 0.042617194 0.023480548 0.08284621 -0.07995763 -0.09876496
0.07389921 -0.039783455 -0.056878477 -0.041835032 -0.015808208 -0.09418543 -0.018350648 -0.037444428
0.050047293 0.039590925 -0.088228785 -0.020318884 -0.03437434 -0.056341164 -0.106084436 -0.025420744
0.034428526 0.10588621 -0.102902554 -0.036484137 0.024318472 -0.04388763 -0.027702749 0.050939
-0.007896773 -0.050211325 -0.08985016 0.021238366 0.08486488 0.0078075444 -0.006054567 0.07273053
0.017299479 0.09129758 0.0656311 0.048999347 -0.019497802 0.06515589 -0.039247263 -0.12956665
-0.10693185 0.027324755 -0.08962092 0.049645018 0.09005628 -0.035953615 -0.044405106 -0.021314355
0.043677222 0.040360805 0.02006027 0.038011435 -0.06872475 0.019064201 -0.050100755 -0.064796306
-0.023590216 0.046893086 -0.0819743 0.064817265 0.019753244 -0.118247814 0.02338701 -0.011207997
-0.06526962 0.012113785 -0.054738343 -0.06346365 0.062085915 -0.0024581759 -0.06440794 -0.030150156
-0.049982626 0.038783662 -0.0022962457 -0.024416152 -0.029992659 -0.053362392 -0.023691457 0.051667195
-0.01934921 -0.09429293 0.013567557 0.02033541 0.091651626 0.042604685 0.021516383 -0.033260353
0.043376084 0.090122215 0.038109966 -0.024924817 -0.085833274 -0.055310108 -0.0023567113 0.082933135
-0.052576512 -0.09304364 0.07862496 -0.022110004 -0.006808079 0.03855426 0.049912218 -0.046330243
0.021939354 -0.027446816 0.06532959 -0.05192905 0.046756983 -0.03886774 0.00077205297 0.0129214255
-0.022239937 0.042753007 0.048307594 -0.0067923595 -0.07016215 -0.04190372 0.0013213798 -0.018090975
-0.015326429 -0.035689548 0.09494652 0.04356883 -0.08945155 0.0015555307 -0.11814707 -0.013899562
-0.01834246 0.05680855 0.0037930985 -0.015264995 0.051196694 0.099034496 -0.05417153 -0.058325592
0.009572852 -0.04331863 -0.050507255 0.049028452 0.1140718 0.053360574 -0.023476975 0.034700878
0.024189482 0.072658636 0.02625518 0.02651232 0.078069694 -0.024799317 -0.014914683 0.09074881
0.115054294 0.016203217 0.0556837 -0.0475256 -0.04371209 -0.08657215 0.050863907 0.012020278
0.15210262 0.03098372 0.0033878218 0.0693095 -0.04613306 0.024182862 0.017262215 -0.030603105
-0.046196453 -0.1332715 -0.09375762 0.035583317 -0.02752872 0.02557709 -0.058553156 -0.05753244
0.065435074 -0.020305881 0.029516773 -0.020803533 0.076246545 -0.01968158 0.033211187 0.07235258

gru.weight_hh_l1 f4 [384, 128]
00000000: 51a4 aabd ca04 613d 9c9a 7f3c bd54 90bd
00000010: fead 873c b69c 403d eea4 e93c d4c8 e33d
00000020: 6c44 b9bd 902c 88bd 1c7b ff3d 605f bf3d
00000030: 76bb e33c c242 bdbc e770 73bd 6424 383d
00000040: 236b 543d 21bb cdbc 0886 ff3c 207b 933d
00000050: 9ac1 573d 2683 f8bd 11bb b13d 0b3e df3d
00000060: 4411 35bd 44cc d33c 232f e8b9 1551 c23d
00000070: 44ec 353d b995 c13a b982 2bbb 825e 913d
00000080: 7b95 ac3d 5119 d0bd 2c39 bfbd b3aa 2ebd
00000090: 2c44 32bd f3c7 463d ef39 83bd 89a2 313c
000000a0: d847 1ebc ac2e 893d 4999 28bd aa00 b3bc
000000b0: 8e8c b6bd c9ea 1bbd aa4f 803d 83ca c13c
000000c0: f506 adbd 5315 1bbd 79ca 53bb 6ac7 ca3c
000000d0: cfe8 5fbb 976f a13d aad3 9fbd 11f8 f3bc
000000e0: a603 96bd 4fbc b13c 9d88 2f3d b6cf 823d
000000f0: 9305 3c3d 162c 873c e514 063d 8a52 1dbd
00000100: d379 5dbd 1c26 0fbd dc10 02be 974c 57bd
00000110: 9b45 5ebd ab0f 423d 933c d7bc 3efa 243d
00000120: d9ca 1cbd d689 753d c0d0 3f3d 9c59 973d
00000130: cea2 793b 0e49 fcbc 15a0 8d3d e750 72bd
00000140: 3713 16bd 4959 59bc 9310 a03b e5b8 0a3d
00000150: 7d21 3b3d 95e1 40bd c88a 80bd 623f 5a3d
00000160: 837d 90bb d80f c3bb e7be 04be 4562 82bb
00000170: f95e 99bd 2c99 b5bb bb9f e23a 680e b73c
00000180: 454c 7cbd 6869 fd3c 42ff ab3c f16b e8bb
00000190: 219c f9bc 8c39 63bd 0222 933c d26b dd3d
000001a0: 0343 92bd 3ad0 0bbd bbcd e53b 7f5c b9bd
000001b0: f86f 563d 13d4 d8bc 44c1 d53d a570 7b3d
000001c0: 2f77 463d 6281 a6bd 98c4 28bd daed cd3a
000001d0: 793a 053d d0e3 ac3d 7e69 04be 3a53 f93b
000001e0: 4e6b e33c 176f dc3c 2184 9fbd 1ad8 32bd
000001f0: b324 c5bd 928c 723d cdd1 4f3d 95e6 353d
00000200: a444 2fbd dcc7 d9bc abd9 393d 08e3 443d
00000210: efb4 c5bd 8576 733d 1f6f 383d 262b 06be
00000220: 7f95 b63d 5034 883d 5887 af3c 8d4e 6f3d
00000230: 7db4 6abd e2a8 70bd 4117 073d 4d6e 78bd
00000240: 08e8 ebbd ed72 52bd 65c3 bbbd 6248 32be
00000250: 28ac 5a3d 6a4b 393d f2d5 29bd 4696 ba3d
00000260: ec24 69bd d15e 04bd 325f e13c d61d c63d
00000270: 084b 2ebd bb64 bc3c b5de 943d 6264 05bd
00000280: 47dd a03d 0dce 1e3e 0677 5d3d 7152 a93c
00000290: 9be2 a2bb 524a 843d c42e 1a3c 2c52 2f3d
000002a0: aa80 a63d e2c8 bf3d 1e90 1b3d 3c02 b8bd
000002b0: af2d 143e f4f3 cabd b621 59bd 82c6 a8bd
000002c0: e523 32bd 0d54 5f3c aa49 debd c0db 16bc
000002d0: b144 87bc 3b4d 48bd 0299 8d3d 3e69 bd39
000002e0: 0e93 58bd 2f6f de3b f0cf d7bd 1156 bdbd
000002f0: 78f9 ed3d a7ab 92bc d951 3bbe f800 ccbc
00000300: 4b88 46bd 239a 61bd bb1c 883d 9668 883d
00000310: 7c84 aabd 7092 a73c 435c 3abd ecbc ea3b
00000320: 36e3 163d 2677 1e3d 6aab ffbc db13 b53d
00000330: b53f 06be cdce 36bd 26e3 1c3d fa68 30bd
00000340: 9dff c13d 7796 3fbd 4fdf a63c 335e 413b
00000350: be41 b03d e0a5 683c bafc dabc db79 813d
00000360: 1e62 e93c 809a 033d 8a15 abbb a860 81bd
00000370: c362 c2bd 007f 78bd 1675 9bbd b175 a63d
00000380: 6316 0fbc 077a 2dbd a9c8 c83d e3e2 30bd
00000390: 6224 ebbc de82 e8bd af79 b13b 32da 83bc
000003a0: a03b d0bd a731 03bd f15b 5d38 2d87 8dbb
000003b0: dbdb 983d 8076 263c 7c1a 93bd 865e 653d
000003c0: 0083 663d c18e a23d c61c d93d 7545 97bc
000003d0: e836 40bd e133 6bbd c3d9 543c 9185 98bd
000003e0: 3312 27bd 6ac0 19bd 5264 da3c 9688 d3bd
000003f0: db9a 333e bb7f 2d3d 94c1 fa3d 86c1 7bbd
-0.08332122 0.054936208 0.015600827 -0.070474125 0.016562458 0.04702445 0.028521027 0.11122289
-0.090462536 -0.066491246 0.12474653 0.09344363 0.02779935 -0.023103122 -0.059433844 0.04495658
0.051859986 -0.025113644 0.03119184 0.072012186 0.052674867 -0.121343896 0.08678258 0.10900506
-0.04420592 0.025854237 -0.00044285608 0.094881214 0.044414774 0.0014769352 -0.0026170446 0.07098104
0.08426949 -0.10161079 -0.093370765 -0.04264326 -0.043522045 0.04853053 -0.06407534 0.010841974
-0.009660684 0.06698355 -0.04116181 -0.021850903 -0.089135274 -0.038065705 0.06265195 0.023656135
-0.084485926 -0.037862133 -0.0032316728 0.024753291 -0.0034165864 0.07882612 -0.078040436 -0.029781373
-0.07324915 0.021696238 0.042854894 0.06387274 0.045903753 0.016500514 0.03273477 -0.038408794
-0.05407126 -0.034948453 -0.12701744 -0.052563276 -0.0542656 0.047378223 -0.026274001 0.040277712
-0.038279388 0.059945904 0.04682994 0.073901385 0.0038091424 -0.030796554 0.06915299 -0.059159186
-0.03663942 -0.013265916 0.0048847883 0.033867735 0.045686234 -0.04709013 -0.062764704 0.053283103
-0.0044094934 -0.0059528165 -0.12963448 -0.003979 -0.07488818 -0.005541941 0.0017290035 0.022345737
-0.061596174 0.03093405 0.02099574 -0.0070929457 -0.030469956 -0.055474803 0.017960552 0.10811581
-0.07141688 -0.034134127 0.0070130504 -0.09050845 0.052352875 -0.026468312 0.10437253 0.061386723
0.048453506 -0.081301466 -0.04120311 0.0015711144 0.032526467 0.08441889 -0.12930867 0.0076087983
0.027761128 0.02690844 -0.077888735 -0.04366312 -0.096261404 0.05921609 0.05073719 0.044409353
-0.04279007 -0.026584558 0.0453736 0.048068076 -0.09653651 0.0594392 0.04502785 -0.13102397
0.08915233 0.06650603 0.021426842 0.05842452 -0.057301033 -0.05875481 0.03298116 -0.060652066
-0.11518866 -0.051379133 -0.09168128 -0.17410424 0.053386837 0.045237936 -0.0414638 0.09110694
-0.056919977 -0.032316986 0.027511213 0.096736595 -0.042552024 0.02299725 0.072690405 -0.032566436
0.07854705 0.1550829 0.054068588 0.020669194 -0.004970861 0.06459488 0.009410564 0.042802975
0.081300095 0.09364487 0.037979238 -0.08984801 0.14470552 -0.099098116 -0.053010665 -0.08240987
-0.043491263 0.013630879 -0.10853894 -0.009207666 -0.016512247 -0.048901778 0.069139495 0.000361273
-0.052874617 0.0067881565 -0.10537708 -0.092449315 0.11619848 -0.017904116 -0.18292941 -0.024902806
-0.048469823 -0.055078637 0.06646105 0.06660573 -0.08326051 0.020455569 -0.045498144 0.0071636345
0.03683778 0.038687848 -0.031209666 0.08841678 -0.1311024 -0.044630814 0.038302563 -0.043068863
0.094725825 -0.046774354 0.020370154 0.002950561 0.08606289 0.014199704 -0.026731838 0.0632207
0.028489169 0.032129765 -0.0052210735 -0.06317264 -0.094914936 -0.06066799 -0.07590692 0.081279166
-0.008733365 -0.042352702 0.09803898 -0.043185126 -0.028703872 -0.11353086 0.005416117 -0.016095255
-0.101676226 -0.032029774 5.2776133e-05 -0.0043190927 0.07463809 0.010160089 -0.07182786 0.055998348
0.056277275 0.079373844 0.10601191 -0.018465737 -0.046927363 -0.057422522 0.012991372 -0.07447351
-0.04078884 -0.037537016 0.026659165 -0.10328786 0.17539541 0.04235814 0.12243953 -0.061463855

gru.bias_ih_l1 f4 [384]
00000000: d94b f9bc 8f75 073d 01a4 d73c 6384 0f3c
00000010: 979f cf3c 6a97 e3bd b911 7fbc b2b5 08bd
00000020: d2b6 eebc 1946 c0bd dfb1 4d3d 78cf 81bd
00000030: 1161 7fbd ecb9 003d f261 9e3c 593c edbc
00000040: 7797 063d ccfa 5f3d ba47 4e3d 9277 83bc
00000050: c0be adbd d5fb a1bd a025 113c b920 cebd
00000060: 1f2b 903c d9f7 57bd d138 25bb b6c2 e43c
00000070: 92a5 94bd 87ac 59bd 42b1 07bd 0ea0 a13c
00000080: d273 69bd 0a9b 17be 892d d2bd 2cc7 07bd
00000090: 436f b6bd 0bda 6a3c b6a5 cbbb 8330 0bba
000000a0: c4a5 303d 1d2b f4bd 948e 33bc 805f c4bd
000000b0: 538b dbbd f00f a2bc 7e90 3bbd 0afc 3e3d
000000c0: 799c 63bd 3fdd 003c 42d1 05bd c97f c6b9
000000d0: 647e c1bd 80d5 973d c8a3 533c 2d1c b33a
000000e0: 3035 b6bd 7050 8c3d 9b7e 1a3d 4bf6 763b
000000f0: 5475 a1bc 0868 e2bd 9626 bcbd 90b8 893c
00000100: a56d 293d 5cf0 e9bb 257b 643d bebf ee3c
00000110: 650e 753b eed3 97bc c912 abbc 3f9b f7bd
00000120: 1e81 28bd d48b f4bd 14f8 8cbc cc05 17bd
00000130: b665 07bd 2794 81bd 71e2 2abe 6ecc 00be
00000140: eb50 aa3c af6d b0bc c5b8 a73d 3564 f4bc
00000150: d1d2 8cbd d3eb 473d 0cf3 b93c c478 f3bc
00000160: 8f4a 2abd c207 82bd a604 4b3b 622e cbbc
00000170: 37d4 07be 98fb b1bd b95d a8bc 67cc afbd
00000180: 47a2 7bbc d948 c3bd c03b dabd 28b4 ecbd
00000190: 104d b5bd db93 e83c 49fa babd f089 0c3c
000001a0: 36b3 e1bc ac38 adbd 0cf0 74bc 45b5 abbd
000001b0: 66d2 1c3c c8b4 2cbd f877 e43a 43f3 d33c
000001c0: 9b5f debc d08f a43c ba9a b7bd cef1 31bd
000001d0: a499 a0bd 570a acbd d89b 5fbd 5e53 98bd
000001e0: 92f8 a03c 9781 203d 210d a03d b1d7 a7bd
000001f0: f366 223d b9d7 78bd 1906 1a3c f1a8 12bb
00000200: 7992 a63d b81f 9e3d c21e ebbc 8730 4ebd
00000210: 17fb 09be e209 2f3e ee7c 6cbd fa7d b9bd
00000220: 8bd2 ca3d f106 00bd 9105 603d 41b5 07bd
00000230: b076 cfbd 3259 2ebe fc9f 2cbe 735b fbbd
00000240: b938 a9bd 5f5d fa3d 00a2 88bd abb2 f2bc
00000250: 79f0 1cbc 7872 303e 7c99 5a3d ceee 21be
00000260: 4266 90bd 4e18 d23d 024f 783c 2237 dc3b
00000270: 57cd 043e 60f6 20be 1e1d f0bc 4156 cebc
00000280: 56a0 c73d da09 1abe eb1a 723e 4901 d73d
00000290: 0e2d 7a3c ff22 f0bd e32e 07be 6a38 4e3c
000002a0: 1dcc 893b 7380 b4ba 756e f0bd f232 e5bd
000002b0: 0384 78bd 8efb f23d 6400 d33c 595b c9bd
000002c0: 8c04 ffbd c404 e93d ceea 8ebd e1bb c4bc
000002d0: d29b 1c3d 46ab c13d 17f7 eebd c5ef 57bd
000002e0: 3b35 893b 8fd7 c83d e27c a6bd 6425 87bd
000002f0: 10a7 04be 8ddd 623d ff30 b9bd 9a81 43be
00000300: 4c0b 72bd 6473 173e 4b94 4d3e 27c0 f9bd
00000310: 4137 363d 7634 de3d 2c79 2abe 69ee 5ebe
00000320: 5ead 3c3d 79b2 9abb 40cb 05be 78c6 5cbd
00000330: 3d07 913d f564 0c3e 5962 163e 2fa1 1b3e
00000340: 5bdf bdbd 44e5 54bd 1f5e b7bd 3bb2 c73d
00000350: b198 8d3d 86d4 10be f7d9 9cbd f176 043e
00000360: 455e a23d 6c0c b43d 4ce2 873e 67fa b53d
00000370: e21d 013b 2e6e 953c ff4e f7bc 1dc5 1cbd
00000380: d82d 053e bca0 4a3c ba92 b33d 2795 2ebd
00000390: 142b 283c f27f 25bd bfc3 0a3e 7a41 0e3e
000003a0: 1769 98bd bb3e dfbc 4956 c9bd 1bbe 19be
000003b0: 14d7 cabd 5f3f b03c 692d e6bd ea20 2a3e
000003c0: 42ce a7bc 2702 b9bd 6a0d 9dbd 68dc 6f3e
000003d0: 16d9 843c 038a f33d 3a0e 1abe dac1 3dbb
000003e0: 7692 753c 33c5 8dbc dd2a 393d 6c87 e7bd
000003f0: c5a0 643e d910 d1bd fea4 9ebd 1397 243d
-0.030431675 0.033071097 0.02632332 0.008759591 0.025344653 -0.11112864 -0.01556819 -0.033376403
-0.02913991 -0.0938837 0.05021846 -0.063384 -0.06234843 0.03142731 0.019333813 -0.02895944
0.032859292 0.054682538 0.050361373 -0.016048227 -0.08483648 -0.07909361 0.008859068 -0.10064835
0.017598687 -0.0527266 -0.0025210867 0.027924877 -0.072581425 -0.05314305 -0.03312803 0.01972964
-0.05699522 -0.14805236 -0.102625914 -0.03314893 -0.0890794 0.014334212 -0.0062148226 -0.0005309658
0.043126836 -0.11922286 -0.010959286 -0.09588528 -0.10719933 -0.01978299 -0.045792095 0.046627082
-0.055569146 0.007865249 -0.032670267 -0.0003786071 -0.09447935 0.07413769 0.012917466 0.0013665013
-0.088968635 0.0685128 0.037718397 0.0037683423 -0.019709267 -0.11054999 -0.09187047 0.01681164
0.04136433 -0.007139249 0.055781502 0.029144164 0.0037392613 -0.018533673 -0.02088298 -0.12090158
-0.04113876 -0.119407326 -0.017208137 -0.036870763 -0.033055983 -0.06327086 -0.16687943 -0.12577984
0.020790538 -0.021536676 0.08189539 -0.029832939 -0.068761475 0.048808884 0.022698902 -0.029720671
-0.04157501 -0.06349136 0.0030978112 -0.02480239 -0.13264547 -0.08690566 -0.020552503 -0.085839085
-0.015358514 -0.09535379 -0.10655928 -0.115577996 -0.08852589 0.028390815 -0.09129769 0.008577809
-0.027551275 -0.08458075 -0.01494981 -0.08384184 0.009571647 -0.042164594 0.0017430773 0.025872832
-0.027145198 0.020088106 -0.089650586 -0.043443494 -0.078418046 -0.0840041 -0.054591984 -0.07437776
0.019649778 0.039186087 0.07815004 -0.08195437 0.03964896 -0.060752604 0.009400868 -0.002237853
0.08133406 0.077208936 -0.02870119 -0.050339248 -0.1347469 0.17093614 -0.05773633 -0.09057231
0.09903439 -0.03125662 0.05469281 -0.03313184 -0.1013006 -0.17026213 -0.16857904 -0.12273302
-0.08262772 0.122248404 -0.06671524 -0.029626211 -0.0095788175 0.17231166 0.05336903 -0.15813753
-0.07050754 0.10258542 0.015155556 0.0067204395 0.12968956 -0.15718985 -0.02931076 -0.025187613
0.097473785 -0.1504282 0.23643081 0.10498292 0.015269531 -0.11725425 -0.1320148 0.012586692
0.0042052404 -0.0013771191 -0.11739818 -0.11191358 -0.06067277 0.118643865 0.025757022 -0.09831876
-0.12452039 0.11377862 -0.06978379 -0.024015369 0.03823454 0.09456496 -0.116682224 -0.052718896
0.004187254 0.098067395 -0.08129288 -0.065989286 -0.12954354 0.05538707 -0.090425484 -0.19092408
-0.059092805 0.14790112 0.200761 -0.12194853 0.044486288 0.1084985 -0.16647786 -0.21770634
0.046063773 -0.0047209826 -0.13065815 -0.053900212 0.07081459 0.13710387 0.14685954 0.15198205
-0.09271117 -0.051976457 -0.08953499 0.09750792 0.06913889 -0.14143571 -0.07658761 0.12935998
0.07928137 0.08791432 0.26539838 0.08885651 0.001970165 0.018241014 -0.030189035 -0.03827392
0.13005769 0.012367424 0.0876822 -0.04262271 0.010264177 -0.04040522 0.13551234 0.13892165
-0.07441919 -0.027251592 -0.09830911 -0.15013926 -0.09904304 0.021514593 -0.1123913 0.16614118
-0.020484094 -0.09033614 -0.07668574 0.23423922 0.016216796 0.11891558 -0.1504449 -0.0028954656
0.014988532 -0.017305946 0.045206893 -0.113051265 0.22326954 -0.102082916 -0.077463135 0.040183138
