Models/best_model_GRU_WITH_DROPOUT.pth (torch, 934496 bytes, 9 tensors)

gru.weight_ih_l0 f4 [480, 1]
000000 ef fa ef bd 1f 28 9b 3d 98 b8 2d be b0 93 27 be
       -0.11717784 0.07576012 -0.16964948 -0.16364932
000010 ee 90 44 bd 8e 18 5d be 7e 30 0d bd 3b d1 21 bd
       -0.04798978 -0.21591398 -0.034470074 -0.03950618
000020 2e 1e 70 3d 81 29 aa bd 13 50 47 bd 7e 53 6b be
       0.05862253 -0.083086975 -0.04866035 -0.22981068
000030 9a d8 04 be 91 b5 20 bd e0 97 8c bc 83 13 31 bc
       -0.12973252 -0.039235655 -0.017162263 -0.010807875
000040 d8 71 29 be 14 24 97 3b f4 45 08 be 28 3a 3b be
       -0.16547334 0.004612455 -0.13307935 -0.18283904
000050 07 d9 05 be b9 a3 df 3c 16 cf 0e 3b 84 22 1b bb
       -0.1307107 0.027299749 0.0021790913 -0.0023671696
000060 ae 3e 98 bd b4 2b 31 be c4 a6 52 3d f9 5f 11 be
       -0.0743383 -0.17301828 0.05142857 -0.14196767
000070 49 91 b9 bd 36 71 57 be f2 ec 64 3d 13 ba b8 bd
       -0.09060914 -0.2103928 0.05589003 -0.09019866
000080 c7 86 a0 bd e4 c2 50 bc 68 21 f0 ba 2f 7c bc bd
       -0.07838207 -0.012741778 -0.0018320503 -0.09203374
000090 87 64 9d bd 8b 27 00 be 9f 0c b4 3c 2d 74 77 bc
       -0.0768519 -0.12515084 0.021978674 -0.015103382
0000a0 d4 3d c2 bd 86 c3 27 be 4f cc 13 3d ff f9 d9 bd
       -0.09484449 -0.1638318 0.036083516 -0.10643386
0000b0 56 da a6 bd a2 42 d6 bd fc cb b9 bd bd a9 5d bd
       -0.08147113 -0.10461928 -0.0907211 -0.054116953
0000c0 6c 78 a7 be f5 fb 96 3d ee 3f 04 be 5b 09 79 3e
       -0.32709062 0.07372276 -0.12915012 0.24319975
0000d0 e9 d3 81 bb df 4f 0c be 3b f4 f4 bd ad 11 6b be
       -0.0039620292 -0.13702343 -0.11960646 -0.22955962
0000e0 28 8c a6 bb 08 8c 70 bd 9c 7f ec bd e8 6a 17 be
       -0.005082626 -0.058727294 -0.11547777 -0.14786875
0000f0 7f 29 26 3d a5 91 d3 bc 8b 70 18 bd d3 16 31 bd
       0.040566918 -0.025826285 -0.037216704 -0.043234657
000100 45 9c e3 bd e5 e7 f4 bd 46 72 06 bd 33 6d 1b bd
       -0.111137904 -0.11958293 -0.032823823 -0.037945937
000110 7e c2 32 be 57 3b c3 bd f9 27 34 3d dc 14 3e 3d
       -0.17457005 -0.095328026 0.043983433 0.04640661
000120 90 24 d3 bd 4f 7b ba be e2 bd b1 bc 8a fc d3 3d
       -0.10309708 -0.36422202 -0.021696988 0.103509024
000130 b4 4d 09 be a0 be b4 3c ef 5c 61 be 79 ca 2b 3c
       -0.13408548 0.022063553 -0.22008108 0.010485285
000140 d8 1b 91 be 54 a0 16 bc b5 10 03 be 43 e7 fb bd
       -0.28341556 -0.009193499 -0.12799342 -0.12299969
000150 71 59 af 3c b5 d2 2d be 4c e8 2c be e1 8d 8e be
       0.021404954 -0.1697491 -0.16885489 -0.2784262
000160 ce 12 d6 bd 42 de 90 bd 20 fe c7 bd 15 79 86 bd
       -0.104528055 -0.07073642 -0.09765267 -0.06566063
000170 86 81 2b be dd 87 50 3d ff 82 3c be c1 9d a8 bd
       -0.16748628 0.05091082 -0.18409346 -0.08233214
000180 0a df a2 bc ca 1d 27 ba 83 94 7b bd c2 a5 9c be
       -0.019881744 -0.00063749833 -0.06142093 -0.30595213
000190 fa 06 c3 bd 93 52 a6 3a e2 db 81 be 40 1b 68 be
       -0.09522815 0.0012689404 -0.2536307 -0.22666645
0001a0 f0 5b b3 3c 5b 47 07 3e ea 2c e4 bd 60 23 c6 3b
       0.021894425 0.13210814 -0.11141379 0.0060466975
0001b0 5a d7 78 be 71 e5 15 be 15 12 fa bd ef 13 83 bd
       -0.243009 -0.14638306 -0.1221048 -0.064002864
0001c0 61 8c 66 be c8 94 f5 bd 57 6f 02 be 52 59 13 3e
       -0.22514488 -0.119912684 -0.12737785 0.14389542
0001d0 ab de 8a bd 3a 1d 98 bb df 6d 9d bd 84 69 74 bd
       -0.06780752 -0.004642156 -0.07686972 -0.05967094
0001e0 06 7b 0f 3d 2f 23 74 be 7c e1 d3 bd 8f c1 06 be
       0.035029434 -0.23841546 -0.10345742 -0.13159774
0001f0 0b 3a 41 3e 94 51 39 be fc 22 e9 3c 05 ef ac bd
       0.18869798 -0.18097526 0.028459065 -0.08444027
000200 33 c0 12 3c 98 a0 f9 bd 7b 08 0d 3d 1f 96 1b be
       0.008956957 -0.12188834 0.034431916 -0.15193985
000210 35 fd 08 be c7 87 04 be ef e2 7e be 84 cc 88 bd
       -0.13377841 -0.1294242 -0.24891256 -0.06679633
000220 be 6f 4d be 58 a2 93 3d dc 62 f9 bd da 42 15 3d
       -0.20062158 0.07208699 -0.12177059 0.036440708
000230 d9 ed 79 be 8a 7e db bd ca 56 f6 bd 99 af 4f bd
       -0.24407138 -0.10717495 -0.120282724 -0.050704572
000240 aa 92 7e bd cb 0f 80 be 41 00 99 bd 5a c4 39 3e
       -0.06215159 -0.2501205 -0.074707516 0.18141308
000250 8e c3 18 3e 2d c2 0c be df 11 60 bd d6 0b ff bd
       0.14918348 -0.13745947 -0.054704543 -0.124534294
000260 be 21 e8 bd ec 72 97 bd 27 d2 aa 3d 65 b9 e1 bc
       -0.11334561 -0.073949665 0.08340865 -0.027554223
000270 1f c2 e9 3d 4b 1c d9 bd 29 dd 5a 3c b7 89 0f b9
       0.11413979 -0.106010996 0.013358393 -0.00013688846
000280 08 be c9 3c c7 14 3a bb 82 dd 95 bd 67 86 68 bd
       0.024626747 -0.0028393732 -0.0731764 -0.0567688
000290 8a 70 bd 3e a4 66 9e 3c b3 13 1a 3e bd 7a 51 3d
       0.36999923 0.019336052 0.15046577 0.051142443
0002a0 6e 61 f8 bd 0c b4 cf 3d e0 8a 62 bd 96 79 0b bd
       -0.12127958 0.10141763 -0.055308223 -0.0340515
0002b0 54 50 6b 3c 44 38 ae 3e 26 82 f3 bb 99 99 03 3e
       0.014362413 0.34027302 -0.0074312864 0.12851562
0002c0 8a 2c 3a 3e d3 f3 e1 bd f3 f8 d9 3b c0 3f f5 3d
       0.18181053 -0.11032834 0.0066519915 0.1197505
0002d0 32 33 98 3c 31 59 81 bc 96 20 62 3d d1 f7 98 3a
       0.0185791 -0.0157896 0.055206858 0.0011670535
0002e0 6a 10 cb bd 5b 0c 94 bd 99 13 7c 3d 2e 1e 1e 3e
       -0.0991524 -0.07228919 0.061542127 0.154412
0002f0 94 5a e6 bd 3f 1e c8 3d 2d 40 ef bc ba fb 5e 3d
       -0.11247745 0.09771394 -0.029205406 0.054439284
000300 81 ee eb bd 26 b9 0b 3d eb e7 ec bc e4 97 67 bd
       -0.115201004 0.03411212 -0.02891918 -0.05654134
000310 c9 d4 48 3e 2c f9 e5 bd d4 4a d3 bd 97 69 53 bc
       0.19612421 -0.112291664 -0.10317007 -0.012903593
000320 00 d4 92 3e cd cc 2f 3d 28 ad 5b 3d 2e 61 87 3d
       0.28677368 0.042919923 0.05363193 0.066103324
000330 bb a1 f8 3d 18 41 b8 3d ef 14 43 3d 60 41 0e 3e
       0.12140223 0.08996791 0.047627386 0.13892126
000340 34 1c b8 bd 6e 85 03 bd 25 fd 49 3d b6 54 bb bd
       -0.08989754 -0.03210967 0.049313683 -0.09147017
000350 9f 54 e4 3d 05 46 53 bc ca 47 72 3e ca fe 54 bc
       0.11148953 -0.012895112 0.23660198 -0.0130002
000360 6b 4d 6d bb ee 3f 2c 3d 31 41 be bc f2 c6 a6 bd
       -0.0036209475 0.042053156 -0.023224445 -0.081434146
000370 82 ff 0d 3e c6 29 4f 3d 35 15 14 bb d2 dc cf 3d
       0.13867 0.050576948 -0.0022595648 0.1014954
000380 91 4b 6b 3d 39 38 aa bc b2 80 91 bb 47 62 8c 3d
       0.057445113 -0.020778762 -0.0044403905 0.068546824
000390 d7 bf ce 3c 76 d4 9c 3d 95 db 8d bb 4c ea bd 3d
       0.02523796 0.07657711 -0.0043291547 0.09273204
0003a0 48 49 7e 3e 83 20 01 3d ca 29 8d bd e1 99 95 3e
       0.24832642 0.031525146 -0.06892736 0.29218963
0003b0 78 e8 e4 bc 32 66 e1 bd 56 32 88 3d 55 b8 ac 3d
       -0.027942881 -0.1100582 0.06650226 0.08433596
0003c0 f2 03 29 3c 03 1f d7 bd b8 1d 61 3e 11 b2 49 3e
       0.010315882 -0.10503962 0.21983993 0.19696833
0003d0 83 20 3d bd 61 8a 25 bc af ca c3 3d 03 e7 0e bd
       -0.046173584 -0.010103793 0.09560143 -0.03488828
0003e0 2c e8 0c 3e c9 8a 0e 3e e7 e2 87 bd dd 21 01 3e
       0.13760442 0.1392013 -0.06635075 0.12610574
0003f0 d8 23 60 3d 3a ff 2e 3c ce 2f 50 bb 30 12 1c 3c
       0.054721683 0.010680968 -0.0031766775 0.009525821

gru.weight_hh_l0 f4 [480, 160]
000000 9d 79 52 bc 62 33 a5 3a fe c2 ed bc f3 09 56 3d
       -0.012846378 0.0012603814 -0.029023644 0.052255582
000010 06 0e 90 3c cd e4 25 bd bc b5 59 3d ba 8a aa bd
       0.017584812 -0.040501405 0.05315183 -0.08327241
000020 a3 d2 60 bc 12 31 3d 3d 15 0f c4 bd 01 a0 01 be
       -0.013722095 0.046189375 -0.09573189 -0.12658693
000030 e7 78 03 bc f8 5e ad bd aa fc 67 bd 33 d8 b9 3d
       -0.008024431 -0.084653795 -0.056637444 0.0907444
000040 03 26 d4 bd ed 66 1c bd 22 6b 11 3d fc ff aa bd
       -0.10358813 -0.038184095 0.03550256 -0.083496064
000050 9b a8 d5 3d 8f f7 b6 bd 75 34 0a 3d e8 02 ba 3d
       0.104325496 -0.08933937 0.033741433 0.090825856
000060 86 8f 19 bd de 3c bc bc 03 a9 a8 bb 27 bd 3b bd
       -0.03749039 -0.022978242 -0.005147101 -0.045834687
000070 24 27 29 3d e9 e8 2d 3d d5 d2 03 3e 14 d1 c3 3c
       0.041297093 0.04245845 0.12873395 0.023903407
000080 be 3d 6f 3d 58 26 93 3d 34 82 48 3d 13 79 81 3a
       0.05840849 0.07185048 0.048952296 0.0009878002
000090 24 83 1a 3e 72 ba 41 bd ae 86 3f 3d ac 1f a2 3d
       0.15089089 -0.04729695 0.0467593 0.07916197
0000a0 fa dc 17 bc 64 26 91 3d a7 4c 81 3d 26 67 e1 3c
       -0.0092689935 0.070874006 0.063134484 0.027515005
0000b0 83 9b 56 bc af ed be 3d 8a 93 1d bc f0 61 1d be
       -0.0130986 0.09322678 -0.009617696 -0.15369391
0000c0 d7 c9 a6 bd e7 0e a7 bd 05 74 02 be 31 b8 9b 3c
       -0.08143967 -0.08157139 -0.1273957 0.019008728
0000d0 68 98 98 bd cc 0e 1b be 09 c0 53 3c 77 d5 41 bd
       -0.07450944 -0.15142363 0.012924203 -0.047322717
0000e0 5c a6 ec 3c 8b 33 a1 bd 75 7b 9c bd 57 82 83 bd
       0.02888792 -0.07871159 -0.07640735 -0.06421345
0000f0 e6 25 17 3d 6e 3a a6 bb bb 7c ed 3c 1c a2 89 bd
       0.036901377 -0.0050728833 0.02899014 -0.06720373
000100 a1 08 24 bd d9 c0 b2 bd dd e3 ca 3a ac ef c0 bd
       -0.04004729 -0.08728189 0.0015479286 -0.09420714
000110 38 87 4f 3d 84 87 a3 bc 5c 36 ab 3c b0 df 99 3c
       0.050666064 -0.01996208 0.020899944 0.01878342
000120 7b 84 42 bd ba fa ce 3c 69 03 e9 3d 9c 23 c8 bd
       -0.047489624 0.02526604 0.113776036 -0.09772417
000130 71 58 62 3d a1 f1 b5 3c 48 04 fa bc 80 fe c9 3c
       0.055260126 0.022209944 -0.03051962 0.024657488
000140 5d c5 34 bc 58 f5 c2 3d 6e be 70 bc 95 3b 1d bd
       -0.011033383 0.09519452 -0.0146938395 -0.0383869
000150 27 71 1b 3c 86 ea cb 3d 6c 3f dd bb ce 80 ec 39
       0.009487427 0.09956841 -0.0067519452 0.00045109395
000160 aa 92 47 3d cb ff 1d bd 9a 75 0c 3d 68 8c ee 3d
       0.048723854 -0.03857402 0.03429184 0.11647874
000170 2e 12 13 3c ec bf b5 bd 05 46 1c 3c 38 70 4c 3c
       0.008976502 -0.08874497 0.009538178 0.012477927
000180 e6 53 9f bd 38 8b 6f 3c 6e d4 33 bc e9 76 9d 3c
       -0.07779674 0.014620595 -0.01097594 0.01922174
000190 df fe 07 3d d1 6f 8e bd 30 a0 3c 3d ef f4 2e 3d
       0.03320205 -0.06954921 0.046051204 0.042714056
0001a0 4a b2 5e bd 80 63 17 bd cb 3f 53 3d 92 7f ec 3c
       -0.05436925 -0.036960125 0.05157451 0.028869424
0001b0 54 d7 c0 bd 10 4f 89 bd 9d 32 1d 3d 06 c1 bd 3c
       -0.094160706 -0.06704533 0.038378347 0.02316333
0001c0 f4 b3 d6 bd dd e8 79 bd 56 4a 83 bd ea 34 2c 3c
       -0.10483542 -0.06101309 -0.06410663 0.010510663
0001d0 de b4 9d bd 24 8d 20 3d d0 f1 8b 3d a0 80 8a 3d
       -0.07700513 0.039197102 0.068332314 0.067628145
0001e0 c4 9c 50 3d ec 99 29 bc 4c fe 63 bd 50 ae 6a 3d
       0.050930753 -0.010351639 -0.05566244 0.057295144
0001f0 9c 49 b2 bd 7f 01 14 3c 0c a9 b8 3c d0 f5 b4 bd
       -0.08705446 0.00903356 0.022541545 -0.088359475
000200 84 26 18 bd ab 2d 10 bc b4 4a 39 bc 7d 0e 08 be
       -0.037146106 -0.008799951 -0.0113093145 -0.13286777
000210 71 75 cd 3d b9 5d dd 3b 0c d4 cd bd 6a 79 e0 3d
       0.10032166 0.0067555574 -0.1005021 0.10960658
000220 61 38 b8 bb 56 1c a7 bd 9b 67 4f bc 57 d3 69 3c
       -0.0056219553 -0.081597015 -0.012658979 0.014271579
000230 8d a1 02 bd d7 87 ab bc f2 cd f8 3d 9a a6 bc bd
       -0.031892348 -0.020938797 0.12148656 -0.09211464
000240 93 57 a5 3d 67 fc 81 bd af c9 21 3d 48 09 5f 3d
       0.08073344 -0.0634697 0.03949898 0.05445221
000250 ca de 66 bd 82 b6 f0 bb 13 76 2f 3b 03 49 b0 3d
       -0.056364812 -0.0073459754 0.0026773259 0.08607676
000260 ff db 84 bc 85 b1 0d 3e bb 6d d0 3d 1f d3 5d 3d
       -0.016218184 0.1383725 0.101771794 0.05415642
000270 b7 32 31 ba ff 8d a6 bd 72 41 43 bd 7e 14 78 bd
       -0.0006759571 -0.08132552 -0.047669835 -0.060566418
000280 de b5 12 3c 71 c0 31 bd 70 5c 4e bd 66 c0 a9 3d
       0.008954493 -0.043396417 -0.050381124 0.0828865
000290 63 76 ba 3b 86 0d b3 3c 4e c8 88 3c d6 86 83 bb
       0.0056903823 0.021857034 0.016697075 -0.0040138764
0002a0 65 02 a2 3c b6 c6 fd 3c 9d 99 ae 3b 82 8d 74 bd
       0.019776532 0.030978542 0.0053283707 -0.059705265
0002b0 73 8b 96 3c 4c 30 93 bd 4e c1 6b bc 6b 41 ef 3b
       0.018377041 -0.07186946 -0.014389349 0.0073014996
0002c0 dd a6 e6 bb ce 52 95 bd f1 95 0f bd f5 17 58 3d
       -0.0070389346 -0.07291184 -0.035055105 0.052757222
0002d0 31 99 94 bd 87 56 16 3c 82 ad 92 bd b6 11 6f bd
       -0.072557814 0.009175903 -0.07162 -0.0583665
0002e0 38 7f 92 3a 9a 0c ee 3c 3f 83 9d bd 2f 48 ac bd
       0.001117683 0.029058743 -0.07691049 -0.084122054
0002f0 9f 1e 17 3e f3 52 cd bc 26 6b 5a 3d 8d 39 dc bd
       0.14757775 -0.025063967 0.05332484 -0.107531644
000300 28 e3 a3 3d c3 36 00 3e ef ee a1 3b ea 0b 09 3e
       0.08002311 0.1252089 0.004941813 0.13383451
000310 5c d2 e4 bc 0e 59 15 3d a0 0e af 3d cd 50 46 3c
       -0.027932338 0.036461882 0.08547711 0.012104225
000320 07 45 b2 3c e5 35 8a 3c 99 7a 82 3d 8b 37 89 bb
       0.02176143 0.016871402 0.0637104 -0.0041875294
000330 77 27 7d 3d 64 14 0e bd 78 39 84 3d 42 6f be bd
       0.061805215 -0.034687415 0.06456274 -0.092985645
000340 97 fe 07 bc 50 5d 1b bd df d4 dd bd 04 9b 6c bd
       -0.008300445 -0.037930787 -0.108316176 -0.057765022
000350 54 77 a6 3d 34 fa 18 3d fa cf 05 bd 68 98 93 3d
       0.08128229 0.037347987 -0.032669045 0.072068036
000360 38 6b c9 bc 5e 2f 04 bd 50 ac 71 bd a3 fa 90 bd
       -0.024587259 -0.032271735 -0.05900222 -0.07079055
000370 b6 cc 53 bd 34 bc a8 3d 72 a9 c5 3b ce 92 20 3b
       -0.0517089 0.08239022 0.0060321623 0.0024501565
000380 41 a1 06 be e0 e9 32 3b e0 de 50 3b 8f ac a7 bd
       -0.13147451 0.0027300045 0.0031871125 -0.0818721
000390 e0 9a 2f 3d 45 35 31 bd 82 bb 24 3d f3 2f a2 bc
       0.04287231 -0.043263692 0.040217884 -0.019798255
0003a0 cb 9d e3 bd f2 06 fe 3c 91 19 7e 3d 0e 49 b5 bd
       -0.11114081 0.031009171 0.0620361 -0.08851825
0003b0 f7 97 3a bc 05 2e b8 bd 1e f4 64 bd e4 e8 a4 bc
       -0.01138877 -0.089931525 -0.05589687 -0.020130582
0003c0 1f 5c 46 3c 33 2f ac 3d 95 19 ac 3c 2a 38 c3 bd
       0.012106924 0.0840744 0.021008292 -0.09532197
0003d0 e2 02 c8 3d 4e 6a a7 bd 99 b6 17 3d 6f 97 7c bd
       0.09766175 -0.08174573 0.037039373 -0.061667856
0003e0 4e f9 71 3d 72 e5 08 3d 18 15 84 3d 1e e0 5d bc
       0.059075646 0.03342194 0.06449336 -0.013542203
0003f0 4c df b3 ba 5f 30 47 3d 19 3c d4 3d 84 39 d2 3d
       -0.0013723164 0.048630115 0.10363025 0.102648765

gru.bias_ih_l0 f4 [480]
000000 45 cd 24 bd 5a b9 5a bd cd 6d 9d bd a1 c3 d9 bd
       -0.040234823 -0.05339942 -0.076869585 -0.106330164
000010 c7 c3 85 bc c1 fe 13 bd 94 3b 1c bd 10 b5 ed bd
       -0.016328705 -0.036131624 -0.038142756 -0.116068006
000020 0f 0f 07 3d 26 b6 22 bd c2 34 62 bd 9b 21 10 be
       0.032973345 -0.03972449 -0.055226095 -0.1407532
000030 6f a5 42 be 1b 3e a6 bd c6 90 b6 bd 47 88 77 3b
       -0.1900842 -0.081173144 -0.08914332 0.0037770437
000040 ac 1d 86 bd 67 ab 09 be 4a 63 2d 3d 7b 98 11 bd
       -0.06548628 -0.13444291 0.042331018 -0.035545807
000050 38 10 f5 bc 06 d7 c9 bd 5f 60 85 bd 2b 6d 10 be
       -0.02991496 -0.098554656 -0.06512522 -0.14104144
000060 fc 81 5b bd a6 7f bf bc 92 40 00 bd d6 25 81 bb
       -0.05359076 -0.023376297 -0.03131158 -0.003941278
000070 f9 b1 af bd b7 0c 3a be 91 bb 99 bd 21 34 d7 bd
       -0.085788675 -0.18168913 -0.075064786 -0.1050799
000080 85 ad c0 bc b8 19 37 bd 4f 88 24 bd cc ca aa bb
       -0.02352024 -0.04470226 -0.040169057 -0.0052121636
000090 79 3d b7 bc 7e 1a 2d be 6a c3 4a bd d2 b8 f8 bc
       -0.02236818 -0.16904637 -0.049502768 -0.030361567
0000a0 70 5f 8a bc 89 60 09 bd 0d 1f 15 3d ce a9 30 bd
       -0.016891211 -0.03353933 0.036406565 -0.04313069
0000b0 00 da b0 bd 88 81 01 be ec 64 00 be a6 fc 91 bd
       -0.0863533 -0.12647069 -0.12538499 -0.07128267
0000c0 76 bb a0 bc e4 2c e2 3b ed ee da bd ed d3 34 b9
       -0.019620638 0.006902324 -0.10690103 -0.00017245086
0000d0 ca ce a7 bc dd 25 a4 bd 54 77 9c 3c 07 09 36 bd
       -0.020484347 -0.08015034 0.019099869 -0.044442203
0000e0 87 07 4e 3d 5d aa d5 bd dd 9a 88 bd d8 51 9b bd
       0.050300147 -0.10432885 -0.06670163 -0.0758397
0000f0 c6 1e a8 3b 94 a6 3b bd ca 58 a4 bd 29 fd a8 bc
       0.0051306216 -0.04581316 -0.08024748 -0.020628529
000100 66 61 39 be 03 eb c4 3b 46 a8 b1 3c d6 92 ef bd
       -0.18103561 0.006009461 0.021686684 -0.116979286
000110 54 af 9d bd 3e 11 b0 bd ab 25 d6 bd b2 08 fb bd
       -0.07699457 -0.08597039 -0.10456403 -0.12257518
000120 fe dc ab 3c ab db 57 be a3 8e 2c be 5e 9b 82 bd
       0.0209794 -0.2107989 -0.16851287 -0.0637729
000130 62 af 68 bd b6 4d 53 bd 77 55 97 3c c3 4b cd bd
       -0.056807883 -0.051587783 0.01847337 -0.10024216
000140 64 2f 1d be 66 fa 13 bd 8f ad ce 3a 3d de 61 bd
       -0.1535011 -0.03612747 0.0015768277 -0.055143584
000150 a5 8a cf 3c 95 44 96 be c6 ee e3 3c 78 47 ec bd
       0.025334666 -0.293492 0.027823817 -0.11537069
000160 34 35 b5 bd eb 96 cb bd 6b 0e c9 bb 96 78 92 3c
       -0.08848038 -0.09940895 -0.006135752 0.017879765
000170 ea 30 25 be e2 ed 1b 3d 78 c4 fa bb 16 64 07 be
       -0.1613194 0.03806866 -0.0076528154 -0.13221774
000180 45 c8 c7 bb d5 87 ec bd 6c 79 83 be 2f b3 57 be
       -0.006096872 -0.115493454 -0.25678575 -0.21064447
000190 d0 52 3b 3c 2c 76 24 bd 7c 84 38 be 27 d9 17 bd
       0.011433318 -0.04015176 -0.18019289 -0.037072327
0001a0 63 70 92 bc 95 f3 85 bd 31 16 b2 bd 27 f8 99 bd
       -0.017875856 -0.065406 -0.08695639 -0.075180344
0001b0 bf d6 37 be 59 a1 d0 bd f3 37 cf bc e9 eb 01 bc
       -0.17953013 -0.101870246 -0.025295233 -0.0079297805
0001c0 69 a9 c8 bd 9c 92 05 be 69 40 8a bd 2d 44 07 3d
       -0.097979374 -0.13044208 -0.067505665 0.033024002
0001d0 a7 11 7e bd 13 5f 94 3c 46 e2 ff bd 6f 56 8d 3c
       -0.062028553 0.018111741 -0.1249433 0.017253129
0001e0 fa a9 9d bd 56 91 53 be 28 51 82 bc 00 12 0e be
       -0.07698436 -0.2066091 -0.015907839 -0.13874054
0001f0 4e 2d ef bd e6 1a c8 bd 4f d8 0f be 27 ff ff bc
       -0.11678563 -0.097707555 -0.14047359 -0.031249596
000200 7c 78 5b 3d 2a f2 14 bd 01 b9 6d bc d7 ad bc bd
       0.0535817 -0.03636376 -0.01450944 -0.09212845
000210 9c 32 a2 bd fd a8 d6 bd 26 e8 b3 bd bb 00 9d bc
       -0.07919809 -0.10481451 -0.08784513 -0.019165387
000220 8f 30 69 bd db 12 b9 bd 89 82 86 bd 13 75 d4 bd
       -0.056931075 -0.090367995 -0.06567866 -0.10373893
000230 d6 fb 22 be 47 a4 3b bd 31 76 f7 3c a4 72 18 bc
       -0.1591638 -0.045810964 0.030207725 -0.009304676
000240 2f 5d c6 bd 56 0c 29 bd fb f9 86 bd 9d bc 99 3b
       -0.09685742 -0.04127153 -0.06590649 0.004691674
000250 20 62 90 bd 81 c2 48 bc f3 3a b7 bd 6f 8f 54 bd
       -0.07049966 -0.012253405 -0.089467905 -0.0518946
000260 b0 35 a9 bd fd b8 16 3c f0 66 59 bc 5a 57 a9 bd
       -0.08262193 0.009199378 -0.013269171 -0.08268614
000270 ea 3d 14 be 56 ff 80 3a e7 6e 27 bd 77 c0 5b bd
       -0.14476743 0.0009841721 -0.04087725 -0.053650346
000280 56 92 0e be b7 02 f9 bd f5 b1 0c be 4f 6d 3a bd
       -0.1392301 -0.12158721 -0.1373976 -0.0455144
000290 5a c8 55 3e d3 2f 2f bb a3 b1 f0 3d ec 4c d8 3c
       0.2087721 -0.0026731386 0.117526315 0.026403867
0002a0 1a 72 f8 bd 50 de 22 bd 48 8f 4a bb 69 30 0f be
       -0.12131138 -0.039762795 -0.0030908156 -0.13983311
0002b0 a7 28 bf 3d 0c 7c 64 3e 93 82 cf 3d f4 c2 71 3d
       0.09333926 0.22312945 0.10132327 0.059023812
0002c0 94 d9 63 3e 2b 78 00 be d4 b5 31 3d ac 2e b4 3b
       0.22250968 -0.1254584 0.043386295 0.005498728
0002d0 7d 71 8d 3c ff a0 09 bd 1c e4 c3 bb 3b d4 fc 3b
       0.01726603 -0.033600803 -0.0059781205 0.0077157295
0002e0 2b b4 f4 3d 2f 7d 23 bc b8 6f fd bd 1e 7c 2d 3e
       0.11948427 -0.009978577 -0.12374824 0.16941878
0002f0 7c ac 3c bd e7 0c 72 3e 90 7d 09 be 18 ed ac bd
       -0.04606293 0.23637734 -0.13426805 -0.084436595
000300 00 c5 f6 3d a4 a8 01 be 19 ce 77 3d ad 66 a6 bd
       0.120492935 -0.12661988 0.060499284 -0.081250526
000310 0d f5 ce 3d 8f 96 00 bd a4 e1 4b bd 95 f9 9c bb
       0.101053335 -0.031393584 -0.049775735 -0.0047904947
000320 62 87 34 bd b1 64 17 3e 32 61 33 3d ee c7 97 3d
       -0.044074424 0.14784504 0.043793865 0.074111804
000330 34 65 d4 3d 43 8b 1b be 1a 39 45 3e a1 db f8 3d
       0.103708655 -0.15189843 0.19260064 0.12151266
000340 4d 18 f8 bc 27 9e 97 be e9 33 09 be be 57 cd bd
       -0.030285025 -0.29612848 -0.13398708 -0.10026501
000350 4b 94 3c 3e db 60 c4 3d 20 05 29 3e 99 86 7c bd
       0.18415944 0.09588786 0.16505861 -0.0616518
000360 50 3c ea 3d d0 25 f6 3d 69 bf 4d 3e 08 fb 29 be
       0.11437285 0.12018931 0.20092548 -0.16599667
000370 1f 7f 5a 3e cb 8f 52 bd e7 6c 4a 3d 11 2c 6e bc
       0.21337555 -0.051406663 0.049420264 -0.014536873
000380 54 93 86 bd 9a 12 29 bd d4 bd e9 bd d9 57 ee 3d
       -0.06571069 -0.041277505 -0.1141316 0.11637849
000390 ee 1b 11 3e 52 c1 99 3d 58 5c e9 3d 9e 7a 32 bd
       0.1417081 0.07507576 0.11394566 -0.043573968
0003a0 7d 19 ee bd 9c c8 11 be 51 3f 27 bd 94 ee 65 bd
       -0.11625955 -0.14236683 -0.040831868 -0.05613573
0003b0 81 da e8 3c 46 ae 02 3e 9e be 3d bd e0 7e 57 3e
       0.028424503 0.12761793 -0.046324365 0.21044493
0003c0 7e b0 eb bd cc bb f6 3c 49 15 1a 3e b2 39 9f 3d
       -0.115082726 0.030118845 0.15047182 0.077746764
0003d0 39 93 ad bd 1d 85 56 bd 3d d5 bd 3d 05 87 10 bc
       -0.08475346 -0.05237304 0.092691876 -0.008821254
0003e0 ad 40 00 be 2c e7 f8 3d 5e 0b 9b 3c 31 07 31 3e
       -0.12524672 0.121534675 0.018926319 0.172879
0003f0 a4 8c 04 3e 9b 84 43 be 8f d5 b5 bd 75 66 b9 bd
       0.12944275 -0.19093554 -0.08878624 -0.09052745

gru.bias_hh_l0 f4 [480]
000000 40 c1 f5 bc 27 a0 02 bc 77 3b c9 bd cd fb 84 bd
       -0.029999375 -0.007972754 -0.09825795 -0.0649334
000010 3b c8 d5 bd 9d d4 1f bd 72 d1 13 3d dd 38 57 be
       -0.104385816 -0.039021123 0.036088414 -0.21017785
000020 23 83 03 3c 8c 67 87 bd bf a5 7a 3b 2d 38 b0 bd
       0.008026871 -0.06611547 0.0038245765 -0.08604465
000030 76 50 c7 bd f0 d5 3b bd b6 39 04 3d 39 dc 67 bd
       -0.097321436 -0.045858324 0.0322816 -0.056606505
000040 6a bc 43 be 6c 98 4f bd 9f 74 2d bc 39 0e ef bd
       -0.19114843 -0.05068247 -0.010586887 -0.11672635
000050 ed 34 33 be 1a 7b 3a 3b e4 28 2a be b2 8b 08 be
       -0.17500658 0.0028454722 -0.16617161 -0.1333454
000060 0e a4 e3 bd 27 d6 c8 bc 12 0b b1 bd 56 53 85 bd
       -0.11115275 -0.024516178 -0.086446896 -0.06510036
000070 5c 23 db bd 47 bc 34 be ba fb b7 3c d7 df 04 bd
       -0.10700104 -0.17649947 0.0224589 -0.032440033
000080 c3 3c ef bc 2d 95 8c bc 0f 06 73 bb bd ea 2b bd
       -0.029203778 -0.017160976 -0.0037082469 -0.04197191
000090 6a 5d c8 3c d6 13 00 be 25 33 bd bd 8f bd e5 bd
       0.024458606 -0.12507567 -0.09238271 -0.11217796
0000a0 c3 d7 a5 bc ca c3 9e bd 51 b5 84 bd 54 30 1a be
       -0.020244485 -0.077521876 -0.06479896 -0.15057498
0000b0 32 8c 43 bc 0c 75 28 bd b6 3b 02 bd 81 dd 45 bd
       -0.011935281 -0.04112725 -0.031795226 -0.048306946
0000c0 fa fd 06 be 7c 5b cc bc 55 43 e2 bc fd d1 f0 bd
       -0.13182822 -0.024945967 -0.027619997 -0.11758802
0000d0 84 e9 03 3c 09 d0 2a bd 75 6d 4a bd a7 ca 1d be
       0.00805128 -0.041702304 -0.049420793 -0.15409337
0000e0 77 12 4c bd 02 04 05 bd bb 70 ef bd 27 da 97 bd
       -0.049822297 -0.032474525 -0.116914235 -0.07414656
0000f0 c6 e7 29 3d 4c 90 bd bd 82 03 11 be 78 fb f8 bd
       0.041480802 -0.09256038 -0.14161494 -0.12157339
000100 f2 43 89 be 47 0b ae bc 47 8d ad bc a7 39 7e bd
       -0.2680965 -0.021245612 -0.02118553 -0.0620667
000110 ef df 1c be 86 89 46 bd 5c 2b ab bd af 68 09 be
       -0.15319799 -0.048470996 -0.083578795 -0.1341884
000120 bb 27 90 3c 09 c7 8a be 8f 28 1a bd 21 07 01 be
       0.01759707 -0.27104977 -0.037636336 -0.12600376
000130 ed 97 06 bd 3e 05 11 bd 3d e2 16 bd ba c4 ad 3c
       -0.03285973 -0.03540539 -0.03683685 0.02121197
000140 b2 c5 59 bd 86 ee 33 3d af 48 ed bc 33 83 1f bd
       -0.053167053 0.043928646 -0.028965322 -0.03894348
000150 f4 63 8e 3c 52 47 44 be dc d8 07 bc 59 61 c6 3b
       0.017381646 -0.19167832 -0.008291449 0.006054085
000160 44 a3 14 bd e8 03 b3 3b 80 ed b3 bc bf 61 32 3d
       -0.036288515 0.005463112 -0.021963835 0.04355025
000170 2c bf ab bd aa 37 b7 bd 2b 01 11 3c 99 de c2 bd
       -0.083860725 -0.08946164 0.008850376 -0.095151134
000180 e7 eb a1 bd 94 3c 98 bd 3d ae 0c be 22 d2 15 be
       -0.07906323 -0.07433429 -0.13738342 -0.1463094
000190 92 e1 f5 bc c1 1b 15 be e4 8e 29 be b0 38 08 be
       -0.030014787 -0.14561369 -0.16558415 -0.13302875
0001a0 e4 7d cd bd 19 11 0d be bf b6 83 bd a2 e7 02 be
       -0.10033777 -0.13776053 -0.064313404 -0.12783673
0001b0 26 e3 e6 bd e9 67 5c bd f3 94 b5 bd b8 1f c9 bd
       -0.11273794 -0.053810034 -0.088663004 -0.09820503
0001c0 2a 6b d5 bd 90 d3 dd bd 8b ed 97 bd 16 63 95 bd
       -0.104208305 -0.10831368 -0.074183546 -0.0729429
0001d0 c8 ba d0 bd 05 09 5a bd 6f 1c ad bd dc a5 77 bd
       -0.10191876 -0.053231258 -0.08452689 -0.06046091
0001e0 6b 0b 24 3d b1 61 25 be e1 a9 1a be 02 34 8d bd
       0.04004995 -0.16150548 -0.15103866 -0.06894685
0001f0 c3 66 c3 bc 82 ab 20 3d 92 18 bd bd 4d a7 43 bc
       -0.023852712 0.039226063 -0.09233202 -0.011941743
000200 f7 d7 b3 bd 23 42 cc bd 69 fa c5 3b f4 4a 6d bd
       -0.087814264 -0.09973552 0.006041814 -0.05793281
000210 73 0d 3f bc 81 c3 96 bd d7 a7 21 be 51 89 b8 bd
       -0.011660921 -0.07361508 -0.15786682 -0.09010566
000220 76 61 05 bc ac 48 3a bc 11 2f ca bd 19 13 75 bc
       -0.008140912 -0.011369865 -0.098722585 -0.0149581665
000230 85 98 e0 bd 14 6a 58 bd a2 39 37 3c e9 fc e8 bd
       -0.10966591 -0.05283554 0.011183174 -0.11376364
000240 7f 39 af bd b0 f8 02 bd 31 12 e2 bd fa a6 2a 3c
       -0.085558884 -0.031975448 -0.11038626 0.010415787
000250 1b 8e 0b bc 4e 48 a3 bd 34 cd db bd ce e2 91 ba
       -0.008517767 -0.079727754 -0.10732499 -0.0011130215
000260 ac f0 0f be be d6 66 bc 7e aa a9 3c 93 76 61 bd
       -0.14056653 -0.014089284 0.02071118 -0.05504472
000270 8a b9 64 bd c6 9b 7f 3d 0d 90 23 bd 7c 23 12 be
       -0.055841006 0.062404417 -0.0399323 -0.14271349
000280 53 91 8e bd 17 f4 a1 bd 36 81 7e 3a 91 f9 9d bc
       -0.06961312 -0.079078846 0.0009708585 -0.019284042
000290 6d 83 5a 3e 43 22 38 bd 27 9d 9e 3d e0 80 1e 3e
       0.21339197 -0.04495455 0.07744818 0.1547885
0002a0 13 9c 15 be f8 d7 19 bc a9 bb 70 3c 12 af 12 be
       -0.14610319 -0.00938987 0.014693179 -0.14324597
0002b0 80 10 85 3c 53 0f 06 3e fc 85 f0 3d 1e 1d 12 3e
       0.01624322 0.13091783 0.117443055 0.1426892
0002c0 58 42 02 3e b3 57 1c be 1d 74 a9 3a 2e b8 3d bd
       0.1272062 -0.1526783 0.0012928281 -0.046318226
0002d0 8d 62 c6 bd f7 9e 40 3d 8a 89 9b bd e3 3b ac bd
       -0.09686766 0.0470266 -0.07594593 -0.0840986
0002e0 83 8c 02 3e aa 01 8d bc 5a 8b 9f bd 08 b9 35 3d
       0.12748913 -0.017212708 -0.07790251 0.044365913
0002f0 f6 c5 11 be d1 d7 62 3e 3c ed e0 bd 5f 99 26 bd
       -0.14235672 0.2215264 -0.10982749 -0.04067361
000300 e5 bd 07 3e a9 cb bb bd 0c 0e df 3d 4f aa 6b bd
       0.13256033 -0.091697045 0.10891351 -0.057535466
000310 d8 7f 63 3e 72 c2 95 bd d2 e7 26 bd 15 94 0b be
       0.22216737 -0.07312478 -0.040748425 -0.13630708
000320 91 3f 0d 3c b3 3d 9f 3d d3 69 84 bb e1 f5 97 bc
       0.008621112 0.0777544 -0.0040409355 -0.018549861
000330 98 44 1a 3e 52 c9 25 be e9 ef 7c 3e 21 3a a8 3d
       0.15065229 -0.16190079 0.24700893 0.08214212
000340 ca b0 94 3d 57 4f 88 be 02 ed 14 be 3f 93 cc bd
       0.07260282 -0.26623031 -0.14543536 -0.099890225
000350 f5 f5 62 3e 67 c7 d2 3d da bd 87 3e f0 89 85 3d
       0.22164138 0.10291939 0.26512033 0.0652045
000360 b8 74 f2 3d 6f 4c 6a 3d 8d c4 4f 3e f6 87 2e be
       0.118386686 0.0572018 0.20289822 -0.17044052
000370 79 0a 7e 3e 51 aa 0a bb cc 97 42 3d ca c1 94 3c
       0.24808683 -0.0021158645 0.047508046 0.018158812
000380 f1 af af bd 42 77 8a 3c 80 7a 02 be a8 c7 11 3c
       -0.0857848 0.01690257 -0.12742043 0.008897699
000390 af 0b ed 3d ba 41 0a 3d c2 85 fe 3d cf 9f e0 bd
       0.11574494 0.033754088 0.12427856 -0.10967981
0003a0 10 a2 1c be 3b b2 47 be dd 0e 6c bc 03 96 83 38
       -0.15296197 -0.19501583 -0.014407841 6.2745086e-05
0003b0 db 90 4f 3d 11 3f 81 3e 2f e7 8c 3d 57 51 36 3e
       0.050675254 0.25243428 0.06880032 0.17804466
0003c0 4c 14 9b bd 21 33 99 bc e0 34 f5 3d 9a d1 1d 3e
       -0.07572231 -0.018701138 0.11972976 0.15411988
0003d0 f0 21 2f bd 8b c2 65 bd d5 73 e4 3d ec 89 db bd
       -0.042756975 -0.056093734 0.11154906 -0.10719666
0003e0 f8 d0 41 be 06 e2 9d 3d 6d 48 09 bd 8f 16 11 3e
       -0.18927372 0.07709126 -0.033516336 0.14168762
0003f0 f0 3c ab 3d 7e 35 30 be 60 c1 18 bd a2 ff ba bd
       0.08361232 -0.17207906 -0.03729379 -0.09130789

gru.weight_ih_l1 f4 [480, 160]
000000 6a bc 89 bd b8 b3 2c 3d 7c 14 08 3e a5 68 ce 3b
       -0.0672539 0.04216358 0.13289064 0.0062990957
000010 60 23 83 3c 00 df 90 bd 89 19 dd 3c 2c ef 85 bc
       0.016008079 -0.07073784 0.026989715 -0.016349398
000020 8b ee f9 3d f6 bc 97 ba 05 5b 74 bc c0 8c 09 be
       0.122037016 -0.00115767 -0.014914279 -0.13432598
000030 66 00 fe 3d d0 61 17 3c f3 f8 d0 3d 36 7c 0c 3e
       0.1240242 0.009239629 0.10203733 0.13719258
000040 c1 2b b2 3c 3b a2 c6 bc d9 09 de 3c 00 fc 06 be
       0.02174938 -0.02424728 0.027104305 -0.13182068
000050 7e d4 84 3d 9f 75 0e 3d ee 5d d5 bc 94 12 c1 3d
       0.06485842 0.03478014 -0.026045766 0.094273716
000060 16 7d a8 bd 72 06 6f bd 17 ac 55 bd ca ec af bd
       -0.08226983 -0.058355756 -0.05216607 -0.08590086
000070 38 a3 9e 3c 6f 07 88 bc cd 25 f1 3d 55 7b 5e 3c
       0.019364938 -0.016605107 0.11774788 0.013579209
000080 d6 ef b7 3d 73 18 cd bd d7 33 a4 bd 8e a0 91 3d
       0.08981292 -0.10014429 -0.080177 0.071107015
000090 69 3c a8 bb 62 d8 a0 3c 61 94 f9 bd d2 29 9c 3d
       -0.0051341546 0.01963443 -0.12186504 0.07625164
0000a0 8f b7 6f 3d ea f2 0e bd 49 ad b0 3c da 99 ef bd
       0.058524664 -0.03489963 0.021567004 -0.11699267
0000b0 28 43 46 3d 89 f0 93 3c 7a 2e 5e bd 88 70 11 be
       0.04840389 0.018059032 -0.054243542 -0.14203084
0000c0 38 8c 1f 3e 62 c2 97 bd dc 2f 91 3c 44 c1 bc 3c
       0.15580833 -0.074101225 0.017723016 0.023041375
0000d0 df 8a aa bd 33 04 01 bd d2 be 9d 3d 34 fc d0 3d
       -0.08327269 -0.031498145 0.07702412 0.10204354
0000e0 c6 06 5a bd 52 b8 09 be 13 09 ea 3d 16 6c 3d 3d
       -0.053229116 -0.13449219 0.11427512 0.046245657
0000f0 73 84 90 3b 2c fd bd 3d e9 f3 49 3d 97 17 e1 bd
       0.0044103204 0.09276804 0.049304876 -0.109908275
000100 c4 52 12 3c 49 e1 42 bc 19 c6 06 bc c0 75 d3 bd
       0.008930866 -0.0118945325 -0.008225941 -0.103251934
000110 ca 61 69 3d f7 55 9a bc cb f0 88 bd ef a8 89 3d
       0.056978025 -0.01883982 -0.066865526 0.06721675
000120 4e bf 3d 3d 5d 15 d8 bd 6e 67 8e 3d fc 1e c1 bb
       0.04632502 -0.1055095 0.069533214 -0.005893586
000130 b8 cd 6d 3d 93 e7 69 bd aa c7 03 be 08 95 88 3d
       0.058057517 -0.057105612 -0.12869135 0.066690505
000140 8b b8 0c 3d fe 1c 33 bc 37 31 f6 3c ce 91 0c bd
       0.03435568 -0.010932205 0.030052764 -0.034318738
000150 3d 05 c7 3d c8 16 fb 3d 5b ec e2 bd 33 37 f7 3d
       0.09717796 0.122602046 -0.110802375 0.12071075
000160 05 db 9e 3c e1 d5 d6 3c 50 f3 1d 3d cf fd 6f 3c
       0.019391546 0.026225032 0.03856212 0.014647915
000170 76 d5 e4 bd 08 71 c8 bd 67 1d 32 3e 4f 5d 9b bd
       -0.11173527 -0.09787184 0.17394029 -0.075861566
000180 2c 16 22 3e fa 65 c3 3d fa c5 c4 3d cd cd 11 3e
       0.1582877 0.09540935 0.096080735 0.14238663
000190 b7 7e 29 bd 36 5f cc bc 9c 46 4e 3d 11 e2 80 bd
       -0.04138061 -0.024947744 0.050360307 -0.06293119
0001a0 13 78 ae 3c ad 1c 6e 3d b8 92 f1 3c 34 f4 55 bd
       0.02129749 0.058132816 0.029488906 -0.052234843
0001b0 02 f1 e0 bd 11 dc 8f 3c 0a 22 ce bd 9f 35 87 3d
       -0.109834686 0.01756099 -0.10065086 0.06602024
0001c0 39 f1 23 3c 4b 2a 53 3c d6 53 43 3c 53 bd b9 bd
       0.010006242 0.012888501 0.0119218435 -0.09069314
0001d0 78 a5 82 bd 39 e9 c4 3b 3c 87 f4 3c 40 11 dc bb
       -0.06379217 0.0060092476 0.029849641 -0.0067159235
0001e0 df 26 d3 3d 6d b3 8a bd 80 95 01 3e 3b 52 df 3c
       0.103101484 -0.06772504 0.12654686 0.02726089
0001f0 39 98 16 bd 76 d5 08 3e 5d 67 8f bc 28 c7 bf bd
       -0.036766265 0.13362679 -0.017505342 -0.09364158
000200 8c 7f 2a bd a1 a6 35 3e 13 b6 2c 3d fc db 4a bd
       -0.041625544 0.17739345 0.042165827 -0.0495262
000210 7d 9a 15 3e 0f 17 2d 3e 5b 33 84 bd 28 8f 02 3e
       0.14609714 0.16903327 -0.06455108 0.12749922
000220 9a 5a 35 bd 08 44 13 be 8f 20 3c be dc 5d 0e 3d
       -0.044275858 -0.1438142 -0.18371795 0.03475748
000230 a6 2a 86 3a 92 61 65 bd a3 4e 00 3e ac d3 83 3d
       0.0010236099 -0.056001253 0.12529998 0.064368576
000240 16 de 1f 3d ee 1c a3 bd c6 46 77 bd e7 80 88 3d
       0.039030157 -0.07964502 -0.06037023 0.06665211
000250 f9 73 e4 bd 39 86 6f bc b6 92 5c 3b d1 6f de 3d
       -0.111549325 -0.0146194035 0.0033656782 0.10861171
000260 5a 5f 8f bd b3 66 5d 3d 67 0f 12 3d 10 6e 60 bc
       -0.07000609 0.05405302 0.03565922 -0.013698116
000270 37 13 de 3d 6b 26 93 ba 76 fe 36 3c 9c 71 4e bc
       0.10843509 -0.0011226659 0.011169067 -0.012600329
000280 b3 17 6d 3d 58 2c b7 bd 8b dd 0d be fb ed 1f 3e
       0.05788393 -0.08944005 -0.13854043 0.15618126
000290 92 7a c6 3d 81 30 7c 3e 23 fe 03 3d 96 ae 5e be
       0.09691347 0.24627878 0.032224786 -0.21746287
0002a0 07 b0 6f 3d a1 aa 0e 3e 70 87 b6 bd 9a a9 5e 3e
       0.058517482 0.13932277 -0.089125514 0.21744385
0002b0 31 c6 9d bd dc 69 34 3d 2b ff f6 3b 6f 63 92 3d
       -0.07703818 0.044046268 0.0075377426 0.07147872
0002c0 48 70 b5 bd 3a c2 ab bd 47 5e 41 be f3 a6 83 3d
       -0.088593066 -0.08386655 -0.1888362 0.064283274
0002d0 c4 1a e4 bd ab 60 71 3e 95 16 85 be fd 63 87 bd
       -0.11137918 0.23572032 -0.2599379 -0.06610868
0002e0 ae 05 aa bd 3c 9c 52 be ed 61 e7 bd 8d 94 9b bc
       -0.083018646 -0.20567411 -0.11297975 -0.018991733
0002f0 a4 12 32 3d 05 74 9b 3d d2 69 13 3e 9d 1d 0c be
       0.04347481 0.07590488 0.14395836 -0.13683172
000300 c5 23 92 3b 34 7d 96 3d 5a 4f c8 bd d9 be fa 3d
       0.0044598305 0.07348099 -0.0978076 0.122434326
000310 0d 82 4c 3d ad 23 89 3e 3b 7d 9b bd 90 f1 d8 bd
       0.049928714 0.2678503 -0.07592245 -0.105929494
000320 37 dd 53 be 50 36 d8 bd 30 0e 03 3e f5 d0 4d be
       -0.20689856 -0.10557234 0.12798381 -0.20099242
000330 48 7e e7 3d d9 09 28 be 18 c1 6c bd a9 e4 20 bd
       0.11303383 -0.16410007 -0.057801336 -0.039280567
000340 39 2c 89 3e b4 e1 e3 3d 13 0f db bd 22 26 4d bd
       0.26791552 0.11127034 -0.106962346 -0.050085194
000350 87 a7 3d be dd a0 b5 3d f1 a9 a8 3d 8a af 43 be
       -0.18520938 0.08868573 0.08235539 -0.19109932
000360 56 23 fb bd c5 3b 2b bd 2d 37 17 3d dc c0 45 be
       -0.12262599 -0.041805048 0.036917854 -0.19311851
000370 41 05 d9 3c 3f 80 24 3d cc 68 cf 3d 47 9e 95 3d
       0.026491763 0.040161368 0.1012741 0.0730558
000380 3e da 76 be cf 2d 1f 3e 7f 21 41 3d bb b9 e1 bc
       -0.2410669 0.15544818 0.047151085 -0.027554384
000390 d7 ac 61 3d 84 7d 2b be d9 cc 0f bc e4 ef 4a be
       0.055096474 -0.16747099 -0.008776867 -0.19818074
0003a0 93 6c 97 be 0b 0d c8 3d 65 f8 90 3d a1 45 0d be
       -0.29575023 0.09768113 0.070786275 -0.13796093
0003b0 c6 67 35 be b6 c4 e3 bb ab 55 58 3d 72 76 62 3d
       -0.17715368 -0.00695094 0.052816074 0.05528874
0003c0 59 d3 ca bd 1d 3b a1 3c 5a 2a 82 bd ca d1 c3 bc
       -0.099035926 0.019681508 -0.06355734 -0.023903746
0003d0 37 76 b7 bc ae a8 33 be 13 66 9d 3d 9f 7b 35 be
       -0.022395236 -0.17544815 0.07685485 -0.17722939
0003e0 f8 21 46 3e 6a 3a ef 3d 97 0c 68 3e 5a 2f 8e bd
       0.19348896 0.116810635 0.22661053 -0.06942625
0003f0 17 28 39 be eb 4c 35 bc 41 b0 7e 3e 55 56 a2 3d
       -0.180817 -0.011065702 0.24871923 0.07926623

gru.weight_hh_l1 f4 [480, 160]
000000 68 ec 6b be d1 e5 b1 3d 22 46 9c 3d ea 0e 86 3e
       -0.230394 0.08686412 0.07630564 0.26183254
000010 ad f5 04 be e0 0d d7 3c 78 52 12 3d 0e 04 28 be
       -0.12984343 0.026251733 0.03572318 -0.16407797
000020 c9 c5 57 be 08 60 bd bd bd 75 88 bd 51 f4 da bd
       -0.21071543 -0.09246832 -0.06663082 -0.10691131
000030 94 47 22 be 87 e4 2d be f1 54 a6 be fc ca ab 3c
       -0.15847617 -0.16981708 -0.3248668 0.020970814
000040 74 d4 1e 3e e9 3a 21 3d 44 da 17 be a2 dc 40 bc
       0.15510732 0.03936282 -0.14829355 -0.011771353
000050 25 cf 6e bc 7b 1c 7e 3d 1c 95 90 3d ea 81 f6 bd
       -0.014575754 0.06203888 0.0705969 -0.12036498
000060 89 79 41 3e 07 64 b1 bd 20 7a 4f bc 99 d2 b2 bd
       0.18894018 -0.08661657 -0.012663394 -0.087315746
000070 87 e9 91 3d cb d8 40 bb f7 5a 35 bd 31 85 88 3c
       0.0712462 -0.0029426094 -0.044276204 0.016665073
000080 d4 14 a3 3d 93 df 2d 3e cb db f3 3d 0d be 87 3d
       0.07962957 0.16979818 0.119071566 0.06628046
000090 a5 f4 7b 3d c5 ad 9c bc a9 14 95 3d 65 0b aa 3d
       0.061512608 -0.019125829 0.07279331 0.083029546
0000a0 42 90 7f 3d f0 a0 16 be e6 55 79 be df b4 03 3e
       0.062393434 -0.1470983 -0.24349174 0.12861966
0000b0 d5 7e 57 be f0 65 dc bd be 93 12 3e 25 c6 c8 3d
       -0.21044476 -0.107616305 0.14314172 0.09803418
0000c0 95 27 1c 3e bd 98 44 3d f9 14 86 bc ad 01 10 3e
       0.15249474 0.047997225 -0.016367422 0.1406314
0000d0 6e 9a 03 3e 72 11 c1 3d 41 70 49 3e df 3f 14 be
       0.12851879 0.094271556 0.19671728 -0.1447749
0000e0 c8 3f 28 be 7f a0 90 be 74 d9 ba bb 9a 24 8b bd
       -0.1643058 -0.2824745 -0.005702192 -0.067940906
0000f0 99 1a 96 bd fa be 1a 3e 48 4b 0d 3e de 62 f0 bb
       -0.07329292 0.15111914 0.13798249 -0.0073360046
000100 4a 52 c0 bd 48 4b 71 3d 15 b9 41 3e 2a 5d 8f bd
       -0.093906954 0.058909684 0.1891826 -0.070001915
000110 b6 13 7c bd 34 72 da 3d ef 72 82 3d 27 05 f2 3d
       -0.061542235 0.10666314 0.06369578 0.11817389
000120 97 47 ac bd ae a3 a2 bd d0 c2 00 3e ea 93 14 bd
       -0.08412092 -0.07941376 0.12574315 -0.036273874
000130 25 da 36 3e 37 b9 66 3e 3d e5 10 be 24 c7 12 3e
       0.17856653 0.22531591 -0.14149947 0.14333779
000140 a8 6d 0c 3e 2d 0c f2 bd 72 9c 20 3d 97 79 aa 3c
       0.13713706 -0.118187286 0.039211698 0.020809932
000150 34 53 c5 3d b0 be b7 3c 5c 7b 4c bc 7a bc a6 bc
       0.0963501 0.022429794 -0.012480583 -0.020353545
000160 f0 d0 42 3e c1 ab 33 be e2 25 a0 3d d7 02 a4 bd
       0.19025016 -0.17545988 0.078197256 -0.08008354
000170 ad 0b 0a be 79 d4 c7 3d 27 27 ab 3b ad 9c ea 3c
       -0.13481016 0.09757323 0.005223173 0.028639162
000180 b1 f1 62 be 55 b6 6e 3d a1 0a 6f bd 5f 1e 0d 3e
       -0.2216251 0.058279354 -0.058359746 0.13781117
000190 51 0f 5a 3a 2a 93 fc bd 30 93 f7 bd b7 cd 34 be
       0.00083183224 -0.12332757 -0.12088621 -0.17656599
0001a0 59 d3 31 3e f1 ff 10 3e 3d c4 26 be 1c b4 c4 3d
       0.17365779 0.14160134 -0.16285796 0.09604666
0001b0 76 45 6b bc ce 5d 32 3e 83 f8 e9 bd e6 c9 91 bd
       -0.0143598225 0.17418596 -0.11424353 -0.07118587
0001c0 60 7a 1d ba 02 82 01 bd 78 f7 b6 3d ef 11 5c bd
       -0.000600731 -0.031618126 0.0893392 -0.05372804
0001d0 0e 3c e5 bd da d5 61 be d4 23 da 3d a9 18 4e be
       -0.11193095 -0.22054234 0.10651365 -0.20126595
0001e0 90 13 e7 3c 85 2a 6c 3e 42 43 6d bc 00 d9 7e be
       0.02820757 0.23063095 -0.014481368 -0.24887466
0001f0 9d fe 5c bc 62 22 d1 3d 4c ab ed 3d 41 14 b0 bd
       -0.013488439 0.10211636 0.11604938 -0.08597613
000200 27 84 16 3b 92 3d e3 bd 42 4b 32 bd 1d a5 47 ba
       0.0022966953 -0.11095728 -0.043528803 -0.00076158514
000210 a5 fd fa 3c e7 db 86 3c 11 dd 34 3d c2 27 e2 bd
       0.030638525 0.01646228 0.044156138 -0.110427395
000220 84 fb f2 bd 7b 92 cd 3d 5b 29 ee bc 52 f7 b7 3d
       -0.11864379 0.100377046 -0.029072454 0.089827195
000230 13 ed fa bc 75 f8 8c 3b b9 8d 2f 3e 15 8b 07 be
       -0.030630624 0.0043020793 0.17143907 -0.1323665
000240 41 ac a6 3d cf e8 ac bd 88 4d 17 3c f9 b8 d2 bc
       0.081383236 -0.08442842 0.0092347935 -0.025722967
000250 6d 0f 77 3d a9 54 05 3e fa 37 31 3e 5f 3f 1b be
       0.060317446 0.13020577 0.1730651 -0.15160893
000260 5c 86 13 bd 64 5b 8d 3e 11 81 07 bc 90 c9 d9 3d
       -0.036016807 0.27608788 -0.008270518 0.10634148
000270 32 34 92 bd 21 a8 4c 3d 15 7d fb bd 0f 5c d5 3d
       -0.07138862 0.049965028 -0.12279717 0.104179494
000280 1a 8f 7c 3d 56 e7 bc 3d e6 18 62 bd 02 bb 13 be
       0.06165991 0.09223811 -0.055199526 -0.14426807
000290 95 f3 26 3e 56 72 23 bd 8e 09 cf 3d 36 08 f5 bb
       0.16303857 -0.03990396 0.10109244 -0.0074777855
0002a0 3d 5d 8d bc f7 06 28 be 1f ed f9 bd c4 a1 83 3d
       -0.017256374 -0.16408907 -0.122034304 0.06427339
0002b0 02 33 92 3d 11 3f 7e bd b1 ce f5 bd 0e e6 1e 3e
       0.07138635 -0.062071864 -0.12002314 0.15517446
0002c0 6b b8 a5 3c 77 be 9f bd 9a 5b 10 be 23 16 85 3c
       0.020229539 -0.078 -0.14097443 0.016245907
0002d0 47 51 02 bd 33 13 79 bd 64 71 17 3e 41 2c c2 3d
       -0.031815793 -0.060809325 0.14789349 0.09481097
0002e0 6d 28 90 bd 71 44 06 be 4b ac 2f 3c d8 53 0c bd
       -0.070389606 -0.13112046 0.01072223 -0.034259647
0002f0 2f a2 4a 3d 75 4f 55 bd 1e 9d b7 3d 81 9f 70 3c
       0.049471077 -0.05207773 0.089655146 0.014686466
000300 7f b1 fb bc ae 24 85 3d e5 52 2d 3e c2 a7 b5 3d
       -0.030724285 0.06501137 0.16926153 0.08869888
000310 a0 37 19 be cb 52 32 be a7 c3 f8 3d b0 d4 3f 3e
       -0.14962626 -0.17414396 0.12146693 0.18733478
000320 98 8b 03 3e 11 df e7 bd 7e 07 4a bd 60 48 27 bc
       0.1284622 -0.113218434 -0.04932355 -0.010210127
000330 4e c3 99 3c 51 41 75 bd 7e 0d ad 3c ae 37 a1 3b
       0.018769886 -0.059876744 0.021124598 0.0049199676
000340 21 de 26 3e d6 52 8f 3d 25 94 d2 3c 3e 3f 24 3e
       0.16295673 0.069982216 0.025705406 0.1603975
000350 57 f1 17 bd 30 0c 3d b7 d9 8b 9b 3d 20 e0 15 3d
       -0.037095394 -1.12681155e-05 0.07595033 0.036590695
000360 18 62 89 3d 24 d8 00 be 99 62 e0 3d 14 7a 8c 3d
       0.06708163 -0.12582451 0.10956306 0.06859222
000370 b6 e9 7e 3d e0 39 f5 bd 92 82 11 3e a0 83 8a 3c
       0.062234603 -0.119739294 0.14209965 0.016908467
000380 cf 88 87 3d e5 d2 ba bb 79 82 c6 3c 65 21 4c 3d
       0.06617891 -0.00570141 0.024232136 0.049836535
000390 34 bc ef bd 95 52 72 3d f3 b9 34 3e 31 db 3b bd
       -0.11705819 0.059160788 0.17649059 -0.045863334
0003a0 b3 b7 0c 3e 53 fc a1 bc 1e 3d d1 3d 63 98 ac bd
       0.1374195 -0.019773638 0.10216735 -0.08427503
0003b0 b5 d3 d8 3d 77 0c 4b 3d ea 3c 1e be c1 03 df bd
       0.10587255 0.049572434 -0.15452924 -0.10889388
0003c0 c0 44 de 3d 75 8e ae 3d 82 b2 ed 3d 87 bb 40 3d
       0.10852957 0.08523265 0.11606313 0.04705384
0003d0 9a de 04 be 1c 5a c7 3d ea 3c db bc b1 18 34 be
       -0.12975541 0.09733984 -0.026762445 -0.17587544
0003e0 ad 67 22 3d 7c 16 19 bd 98 24 3a bd 40 e3 52 bd
       0.039649654 -0.03737496 -0.045445055 -0.051486254
0003f0 78 65 12 3d 6e 38 d3 3d 63 40 ea bd 45 7b fb 3d
       0.0357413 0.103134975 -0.11438062 0.12279371

gru.bias_ih_l1 f4 [480]
000000 ca 6f 7d be f4 3f cf bd f2 ce eb bc 45 54 8f 3d
       -0.24749675 -0.1011962 -0.028785203 0.06998495
000010 52 98 cd bd 25 4e 13 bd ae a1 b8 bd 09 66 84 bc
       -0.100388184 -0.035963196 -0.09015213 -0.016161935
000020 af a3 c0 bd 29 31 06 be 47 9b 2f be f6 b3 90 bd
       -0.0940622 -0.1310469 -0.17149077 -0.07065575
000030 a5 5a a2 bd b5 35 d1 bd 43 36 1d be 03 b2 7f bd
       -0.07927445 -0.10215322 -0.1535273 -0.062425625
000040 26 f8 8e 3d 7a c5 9d bd c7 70 e1 bd 83 61 b9 bd
       0.06980924 -0.07703681 -0.11007839 -0.09051802
000050 53 b6 c8 bd 25 24 88 bd 0d ab 99 bc ee 72 89 bd
       -0.098004006 -0.06647519 -0.018758321 -0.06711374
000060 7a f9 12 be e4 01 c8 bd 7a 89 c7 bd a8 73 bc 3c
       -0.1435298 -0.097659856 -0.097430184 0.023004368
000070 65 c1 04 be 49 1f 51 bd e9 b9 fb bb 59 0b 6c bd
       -0.12964399 -0.051055226 -0.0076820743 -0.05762801
000080 ac f2 60 be e9 72 21 be ab 88 b4 bb b6 df cd bd
       -0.21967572 -0.15766491 -0.005509456 -0.10052435
000090 ee a2 28 3c f1 1f 1e bd 9e 3d 05 3d 19 fe 96 bd
       0.010292752 -0.03860468 0.032529466 -0.07372684
0000a0 fa 6f 3a 3c de 22 4e 3d 08 fc 96 bd 61 ba cd bc
       0.011379236 0.05032622 -0.0737229 -0.025113286
0000b0 46 a1 f3 bd 81 cf 66 3d 6e df 36 be b7 d1 cf 3b
       -0.11895995 0.056350235 -0.17858669 0.0063421386
0000c0 3e d7 1e be fb 8c 80 bc 2e 68 3a bc 29 83 1a bc
       -0.15511796 -0.015692225 -0.011377377 -0.009430685
0000d0 8b 9c 79 bd 68 57 a3 bd 5f 9e 1e be ae d9 0d bd
       -0.060940307 -0.07975656 -0.15490101 -0.034631424
0000e0 59 02 17 bd bd 4f d2 bd cc 8a 53 bc a0 81 ed bd
       -0.036867473 -0.10269115 -0.01291151 -0.1159699
0000f0 f8 24 8b 3c 52 7a de bd 75 1e 1e be cd a8 fb bd
       0.016985402 -0.108631745 -0.15441306 -0.122880556
000100 68 1e b4 bd 28 69 58 bd e7 44 8d bd 7b 1a 0c bd
       -0.08794862 -0.05283466 -0.06897908 -0.03420494
000110 70 77 25 be 95 58 02 be 44 ad 8d bc 63 a1 fb bd
       -0.16158843 -0.12729104 -0.017294534 -0.122866414
000120 fd f6 54 3d c7 6d 21 be 55 fc 97 3c 68 f6 bb bc
       0.05199336 -0.15764533 0.018552938 -0.022944644
000130 58 fe e6 bd 6d 8c 3e bd ff 28 bc bc a9 52 9b bd
       -0.11278981 -0.04652064 -0.022968767 -0.075841255
000140 1d 64 a3 bd 44 c0 05 bd 22 39 ec bc 26 84 15 be
       -0.079780795 -0.032654062 -0.028835837 -0.14601192
000150 df d6 63 bd f5 35 04 be 8f a9 38 be 55 cc 05 bd
       -0.05562484 -0.12911208 -0.18033431 -0.03266557
000160 29 a2 76 bb 5f b3 e2 bd 39 e8 13 be ea 19 81 bd
       -0.0037633276 -0.110693686 -0.14444055 -0.06303771
000170 9e e5 0f be fe c6 28 bd 64 37 70 bd 18 ff 03 3d
       -0.14052436 -0.0412054 -0.058646575 0.0322257
000180 65 eb cf 3c 10 07 0f be 95 89 1e be 2a 8e 0f 3d
       0.0253808 -0.13967538 -0.15482171 0.035047688
000190 9b 2f 46 bd d6 00 11 bd 9a 80 ff 3c 65 b3 9d bd
       -0.048385244 -0.035401188 0.031189252 -0.077002324
0001a0 ff 32 e3 bd 70 24 19 be cb 25 cf bd 68 42 d4 bc
       -0.11093711 -0.14955306 -0.1011463 -0.025910571
0001b0 d4 a9 cf bd 0b 26 85 bc 35 22 39 bc 64 b2 c0 bd
       -0.10139814 -0.016253492 -0.0112996595 -0.09409025
0001c0 17 dc 67 be 37 a6 0a bd 2c 0b a0 bd 56 16 cf bd
       -0.22642551 -0.03384992 -0.07814631 -0.10111682
0001d0 4c a6 8e bd cf 07 7a bd 58 d5 0f 3d ad 23 92 bb
       -0.06965312 -0.061042603 0.03511557 -0.0044598193
0001e0 d2 fc e8 bb eb d7 d2 bc 8e f3 56 3d e4 db 80 3c
       -0.0071102167 -0.025737723 0.052478366 0.015729852
0001f0 12 37 fb bd 37 5d a6 3c 26 00 64 3a f3 77 96 bd
       -0.12266363 0.02030812 0.0008697532 -0.07347097
000200 ee 2c 03 3d 53 1b 0b be 26 e3 8e bd 48 3d bb bd
       0.03202527 -0.13584642 -0.06976919 -0.09142548
000210 28 e2 af bd de 55 02 be 34 07 fc bd f5 10 e4 3c
       -0.08588058 -0.12728068 -0.123060614 0.027840117
000220 bb d2 3b 3c 45 37 fb bc 5a 43 54 bd b0 19 62 3c
       0.011463816 -0.030666003 -0.051822044 0.01380007
000230 db f3 70 bd 20 3e 65 bc c4 ff 72 be 11 46 56 3d
       -0.05882631 -0.013991863 -0.2373038 0.052312914
000240 31 b3 15 bd ad be 6e 3d 3b 41 7c bb 48 0e d5 3c
       -0.036547843 0.05828731 -0.0038491029 0.026007786
000250 48 bb 0a bc 20 bb 42 bd 2a ac 98 bd 79 a7 bc bc
       -0.008467503 -0.047541738 -0.07454713 -0.023029076
000260 a1 a1 ea 3b ee 18 69 bd 99 33 17 bd 60 33 a6 bd
       0.007160381 -0.05690854 -0.03691444 -0.08115268
000270 89 25 ab bd 2d 7a 58 3b ab ab 86 3c 43 0d 29 bd
       -0.08356769 0.0033031807 0.01643928 -0.041272413
000280 f8 97 75 3d 56 65 92 bd 8d 18 f2 3d 96 02 21 3d
       0.05995938 -0.071482345 0.11821089 0.039309107
000290 da 46 20 bd bc dd 36 3e 56 ed 04 3e 36 c9 71 3e
       -0.03913007 0.17858022 0.12981161 0.23611912
0002a0 dc 0a 41 3e d9 ab de 3d 39 3d 10 3e 4e 7a a4 bc
       0.18851799 0.10872621 0.14085855 -0.02007785
0002b0 3d d5 06 3c e7 db 12 bc 0a 26 16 3d fe 97 cb 3d
       0.008229551 -0.008963562 0.03665737 0.099410996
0002c0 f8 8c ea 3d 9b 80 20 3d 4f e0 ee 3d 65 70 89 bd
       0.11452669 0.039185148 0.11663877 -0.06710891
0002d0 e7 90 3a 3d 2c 55 18 3c 89 56 cd 3d 74 eb 57 3c
       0.045548346 0.00929765 0.10026271 0.013178695
0002e0 f4 cf dd 3d 0c 05 97 3d 67 b2 bd 3d 8f e0 68 3e
       0.108306795 0.073740095 0.09262543 0.22741912
0002f0 93 a5 10 3d bf 76 f3 3d 3d a5 9b bc 94 98 03 3e
       0.035314154 0.118878834 -0.01899969 0.12851173
000300 70 80 e1 3d 3a 9e f9 bd e5 33 d0 3c 2f 34 e8 3d
       0.11010826 -0.121883824 0.02541537 0.11338078
000310 da cb d7 bd 78 bf 12 3e f4 51 b0 3c 3f 38 69 3d
       -0.105369285 0.14330852 0.021523453 0.056938406
000320 c7 94 41 bd 06 24 5f 3e 70 af 86 3d 03 e6 5d 3c
       -0.047261026 0.21791086 0.06576431 0.013543609
000330 4b d0 39 3e d8 f6 2d 3c 7f 7d 0b 3e 1c 6a 64 bc
       0.18145864 0.010617934 0.13622092 -0.013941314
000340 0c 70 a6 3c 11 a6 fc 3d c9 d8 40 3e f9 9c 00 3e
       0.0203171 0.12336362 0.18832697 0.1255988
000350 22 de 0a 3e 95 31 31 3e ea dc a9 3c fa 87 13 3e
       0.135613 0.1730407 0.020735223 0.1440734
000360 1d eb 8a 3c 10 cd 7d 3b fd 38 a6 3d 6d 2c f9 3d
       0.016957814 0.0038726963 0.081163384 0.12166677
000370 9a 7c d0 3d be 0a 8d bd 8e e0 44 3d e8 6f 67 3c
       0.10180016 -0.068868145 0.048065715 0.014125802
000380 cd 54 0d 3e 1f ec fd 3d 0c 9f 2b bd 94 97 16 be
       0.1380188 0.12398552 -0.041899726 -0.1470626
000390 94 d9 4c 3d 9a 0a 28 3e a9 44 a7 bd d0 1f 7a 3e
       0.050012186 0.16410294 -0.08167393 0.24426198
0003a0 37 a9 60 bd 80 cc 26 3c 66 15 e0 3d 9c 5d b8 3c
       -0.054848876 0.010180593 0.109415814 0.022505574
0003b0 10 18 95 3d a9 3b 98 3e 65 41 88 3d cf 73 35 bd
       0.0727998 0.29733017 0.06653098 -0.044299897
0003c0 bb 2c 08 3e 50 4f dc 3c 03 7d 0a 3e 25 63 e1 3d
       0.13298313 0.026893288 0.1352425 0.110052384
0003d0 93 0a 2a bd 95 ef ef 3c 64 47 50 3d 26 8b 48 bd
       -0.04151399 0.029289046 0.050849333 -0.048960827
0003e0 1e 59 88 3e e2 43 a9 bd 5c 18 72 3d d6 61 9d bb
       0.2663049 -0.08264901 0.059105262 -0.0048029227
0003f0 e0 ab f4 3d 2f 0d d3 3d ce 3f e8 bd 8e b0 1e 3e
       0.11946845 0.10305249 -0.11340295 0.15497038
